saved_models/crawler_ppo_1.ckpt (torch_old, 102396 bytes, 8 tensors)

std f4 [1, 20]
0	0xbf7a20b3	-0.97706145
1	0xbf68b5ac	-0.9090221
2	0xbf8112f6	-1.0083911
3	0xbf80580e	-1.0026872
4	0xbf8e5d4b	-1.1122221
5	0xbf897b45	-1.0740744
6	0xbfb87574	-1.4410844
7	0xbfaeeee4	-1.3666654
8	0xbfc90b11	-1.5706502
9	0xbfbe1c73	-1.4852432
10	0xbfb710a9	-1.4301959
11	0xbf9cc145	-1.2246481
12	0xbf307725	-0.689318
13	0xbf638a54	-0.88882947
14	0xbf9e67d2	-1.2375433
15	0xbf39a74b	-0.72520894
16	0xbf604a29	-0.8761316
17	0xbf9556e6	-1.1667144
18	0xbf819d7d	-1.0126187
19	0xbf83de43	-1.0302204

fc1.weight f4 [100, 129]
0	0x3dbb11a4	0.09134224
1	0xbfcc977d	-1.598373
2	0x3f11ad0b	0.5690467
3	0xbdd602b0	-0.10449731
4	0x3ebb556f	0.36588618
5	0xbee51569	-0.44742897
6	0xbd33e36b	-0.043918055
7	0xbd0968d3	-0.033547234
8	0x3ecf0a28	0.40437436
9	0xbdc5916c	-0.09646878
10	0x3db00068	0.085938275
11	0x3c839fa4	0.016067334
12	0xbc6f3cf2	-0.014601933
13	0x3d85e10f	0.06537067
14	0xbcfb391e	-0.030666884
15	0x3deb9623	0.11503246
16	0xbcc207c6	-0.023685347
17	0x3d90190c	0.07036027
18	0xbcc0b2aa	-0.023522694
19	0x3e0eda8f	0.13950561
20	0xbda56259	-0.08075399
21	0x3cab76a5	0.020930598
22	0x3dac7cb3	0.08422222
23	0xbda8daf6	-0.082448885
24	0x3e07ec90	0.13273835
25	0xbcac78d8	-0.021053717
26	0xbdc997fe	-0.09843443
27	0xbd799e3e	-0.060941927
28	0x3d489c02	0.048976906
29	0xbd813557	-0.06309002
30	0xbdca5106	-0.09878735
31	0xbdf0dc72	-0.117607966
32	0xbd5ed312	-0.05440051
33	0xbd378843	-0.044807684
34	0x3d0c8c9e	0.03431379
35	0x3aff9398	0.0019498942
36	0xbc8cc074	-0.017181613
37	0x3caf1a7e	0.021374937
38	0x3b90c591	0.004418083
39	0x3c2b706d	0.010463816
40	0x3d0aef69	0.033919726
41	0x3afadaa3	0.0019138645
42	0x3cc54f58	0.024085686
43	0x3d8891d6	0.06668441
44	0xbd5a3304	-0.05327131
45	0x3d401c50	0.046902
46	0xbd521250	-0.051286995
47	0xbdc10050	-0.09423888
48	0xbd678074	-0.056518987
49	0x3bda482b	0.006661435
50	0x3d55f839	0.052238677
51	0xbcaea3b4	-0.021318294
52	0x3d39dcf5	0.045376737
53	0x3dbe55ae	0.09293686
54	0xbc6feaab	-0.014643352
55	0x3be6022c	0.007019302
56	0xbbcdc428	-0.006279487
57	0xbd2f7401	-0.04283524
58	0xbd39e6bc	-0.04538606
59	0xbd8295c9	-0.063762255
60	0xbc5cfc47	-0.013487882
61	0xbb99ec0c	-0.0046973284
62	0xbce6c6dc	-0.028170995
63	0xbd382b2e	-0.044963054
64	0x3d780660	0.060552955
65	0x3ade1671	0.0016943944
66	0xbc875c98	-0.016523644
67	0x3e10a30f	0.14124702
68	0xbdb06fb6	-0.08615057
69	0xbd94629d	-0.072453715
70	0x3d0113ce	0.031513028
71	0x3d5bb5f0	0.053640306
72	0xbd60ab64	-0.05485095
73	0xbb86e9b0	-0.004117213
74	0x3cad0ce4	0.02112431
75	0xbe915901	-0.28388217
76	0x3e2c86d3	0.16848306
77	0x3d579c7e	0.052639477
78	0x3db4a056	0.08819644
79	0xbd437240	-0.04771638
80	0xbd4d0f3a	-0.05006335
81	0x3a4cc5c4	0.0007811452
82	0xbd2518db	-0.040306907
83	0xbd240bd4	-0.040050343
84	0xbdc206a2	-0.09473921
85	0x3db0a8f8	0.08625978
86	0x3d224187	0.039613273
87	0xbe06eac3	-0.13175492
88	0x3e0b60fe	0.13611218
89	0x3dbd558a	0.09244831
90	0x3da3f109	0.08004958
91	0x3c1c69d9	0.00954672
92	0x3de1b924	0.11021641
93	0x3e2e9d0d	0.17052098
94	0xbe00219b	-0.1251282
95	0x3ef89b4c	0.48555982
96	0xbd671be7	-0.056423094
97	0xbe874336	-0.26418465
98	0x3d7eea64	0.06223525
99	0xbc4de7e8	-0.012567498
100	0xbd465d16	-0.048428617
101	0x3ca334b4	0.019922592
102	0x3d8bc36d	0.06824384
103	0xbc9ed810	-0.019390136
104	0xbcd9684c	-0.02653899
105	0x3d3d2403	0.04617692
106	0xbcca05b9	-0.024660932
107	0x3c9a834a	0.018861432
108	0x3c089800	0.008337021
109	0x3de3250d	0.11091051
110	0x3c7ef72c	0.01556186
111	0xbe10a68c	-0.14126033
112	0xbd5b12e9	-0.05348483
113	0xbdad844e	-0.08472501
114	0x3d38b7a4	0.04509701
115	0x3d482be2	0.048869975
116	0xbbb14fe2	-0.005411134
117	0x3d983288	0.07431513
118	0xbd0629dd	-0.032754768
119	0xbbcfaf17	-0.006338011
120	0x3d6292b4	0.05531569
121	0xbd770b58	-0.060313553
122	0x3c62fc18	0.013854049
123	0x3e8b6da5	0.2723209
124	0xbdad6789	-0.084670134
125	0xbdca4637	-0.09876674
126	0xbd48ad71	-0.04899353
127	0x3da8a050	0.08233702
128	0xbd8dcd87	-0.06923967
129	0x3e59f82a	0.21286073
130	0xc000eac3	-2.0143287
131	0x3efe0682	0.4961434
132	0xbd1aaea4	-0.037764207
133	0x3e6fa8af	0.23404191
134	0xbdd3765b	-0.10325309
135	0xbe2371e8	-0.1596142
136	0x3e31194b	0.17294805
137	0x3f2879e3	0.65810984
138	0xbc9f3898	-0.019436166
139	0x3d56a6b4	0.052405074
140	0x3b8b51db	0.0042517013
141	0x3c09ce39	0.008410984
142	0xbb525b44	-0.0032097856
143	0xbd8268c0	-0.06367636
144	0xbc96c08b	-0.018402359
145	0xbd60528d	-0.054766227
146	0xbcbec964	-0.02328939
147	0xbd9cfbd8	-0.07665223
148	0xbddc9157	-0.10769909
149	0xbb80982d	-0.0039243908
150	0x3cb53b87	0.022123111
151	0xbc9db72b	-0.01925238
152	0xbd128941	-0.035775427
153	0x3e4ed610	0.20198846
154	0xbdf5f7e9	-0.12010176
155	0xbd8c8084	-0.0686045
156	0x3d92953a	0.07157369
157	0xbbbed662	-0.0058238963
158	0x3cf93bd0	0.030424029
159	0xbd5617b3	-0.052268695
160	0x3dd79995	0.1052734
161	0x3c81f3e9	0.015863376
162	0xbd527041	-0.051376585
163	0xbd9beb58	-0.07613248
164	0x3d9c320f	0.076267354
165	0x3dcc69b4	0.09981099
166	0xbce36f64	-0.027763076
167	0x3a25a281	0.00063184655
168	0xbd1a4726	-0.03766551
169	0xbb6bea02	-0.0035997634
170	0x3e163e59	0.14672221
171	0x3aa39340	0.0012479797
172	0xbce21ebe	-0.02760255
173	0x3d45f1cf	0.04832631
174	0xbb8cd220	-0.00429751
175	0x3c689263	0.014195058
176	0x3cef2490	0.029192239
177	0xbd1a54c2	-0.037678488
178	0xbd76f6a8	-0.060293823
179	0xbd34c902	-0.04413701
180	0x3d652aa2	0.05594886
181	0xbdb2a7ca	-0.087234095
182	0xbd39b706	-0.04534056
183	0xbe553e3f	-0.20824526
184	0x3da9a058	0.08282536
185	0xbda85c68	-0.0822075
186	0x3cd0647c	0.02543854
187	0x3d7ae292	0.06125123
188	0xbd4e27a0	-0.050330758
189	0xbd59feac	-0.05322139
190	0x3b792915	0.0038018872
191	0x3ce1a49f	0.027544318
192	0x3ce01fe0	0.02735895
193	0xbcda9a32	-0.026684854
194	0x3bb12924	0.0054065157
195	0x3d84e9e7	0.06489926
196	0xbdfd48ae	-0.12367378
197	0xbd46ec19	-0.048565004
198	0x3da538a8	0.08067447
199	0x3c8d085c	0.0172159
200	0xbc71de28	-0.014762439
201	0x3bbfce18	0.0058534257
202	0x3c9b2758	0.018939659
203	0xbd7e98aa	-0.06215731
204	0xbd00de23	-0.031461846
205	0x3d3992d1	0.04530603
206	0x3c4a0609	0.01233054
207	0x3dae047f	0.08496951
208	0xbd2c33a2	-0.04204143
209	0xbe51b4e1	-0.20479156
210	0x3c5dd7f4	0.013540257
211	0x3dd2e3dd	0.10297368
212	0xba56db7c	-0.0008196158
213	0x3d4bcf18	0.049758047
214	0x3d16ab36	0.036784373
215	0x3d262c8e	0.040569834
216	0xbbbd9521	-0.0057856
217	0xbd063318	-0.03276357
218	0xb9bff823	-0.00036615235
219	0x3c5fe14c	0.013664555
220	0xbc6ca5a3	-0.014443788
221	0x3cf7388c	0.03017833
222	0xbd01dbbf	-0.031703707
223	0xbdb61632	-0.08890952
224	0xbd973019	-0.07382221
225	0x3db8d32f	0.09024655
226	0x3e1308d5	0.14358838
227	0xbb890930	-0.0041820034
228	0x3d4672a4	0.048449174
229	0x3c55bd59	0.013045632
230	0x3b62b860	0.003459476
231	0xbccfa78f	-0.025348453
232	0xbc2b8e10	-0.010470882
233	0x3c1ceed9	0.00957843
234	0xbd4df1ca	-0.050279416
235	0x3dc0908e	0.094025716
236	0x3d456036	0.048187457
237	0x3d879702	0.06620599
238	0x3e16905b	0.14703505
239	0x3ddad78b	0.10685643
240	0xbd6ed167	-0.05830517
241	0x3e14401c	0.14477581
242	0x3d4a88c8	0.04944685
243	0x3cf730c9	0.03017463
244	0xbdb9a547	-0.09064727
245	0x3cfc8946	0.030827176
246	0x3d3db5d9	0.046316
247	0x3d11938f	0.035541113
248	0xbd0c1bf9	-0.034206364
249	0x3ce6769f	0.028132735
250	0xbd842796	-0.06452863
251	0x3d47dd80	0.048795223
252	0x3bc4e827	0.00600912
253	0x3d92d729	0.07169945
254	0xbcb2a4f9	-0.02180718
255	0x3d1b6054	0.037933663

fc1.bias f4 [100]
0	0xbd03f09f	-0.032211896
1	0x3e11984f	0.14218257
2	0x3df45a59	0.11931295
3	0xbd658ee6	-0.05604448
4	0xbcb705ba	-0.022341598
5	0x3cdde07c	0.027084582
6	0x3da0b624	0.078472406
7	0xbc43f6a5	-0.01196066
8	0xbd054ac2	-0.032541998
9	0xbd628072	-0.055298276
10	0x3cbde285	0.023179302
11	0xb9e7ba42	-0.00044198526
12	0xbdc77ea1	-0.097409494
13	0x3de5a99e	0.112139925
14	0x3b72d3fc	0.0037052622
15	0xbd4ecfcc	-0.05049114
16	0xbe1370eb	-0.14398544
17	0xbe05bd77	-0.13060556
18	0xbdf652a3	-0.120274805
19	0x3d2ce07e	0.04220628
20	0x3e374cb2	0.1790035
21	0xbbe8d5ef	-0.007105581
22	0x3e3a0e4f	0.18169521
23	0x3dcfe1c0	0.1015048
24	0x3e1637c5	0.14669712
25	0x3ddf1a5b	0.10893699
26	0xbd3782a4	-0.044802323
27	0xbcefa532	-0.029253576
28	0x3d398d5c	0.045300826
29	0x3d3e76ec	0.04650013
30	0xbd102c44	-0.035198465
31	0x3e13c1e8	0.14429438
32	0x3c14aba1	0.009074123
33	0x3dcab0ae	0.0989698
34	0x3dd7d9cb	0.105395876
35	0xbd7b70fc	-0.061387047
36	0x3e094e71	0.1340883
37	0xbd49a61a	-0.049230672
38	0x3d601e95	0.054716665
39	0xbd96b18e	-0.073580846
40	0x3e328686	0.17434129
41	0x3c877cc1	0.01653898
42	0x3d8d21dc	0.06891224
43	0xbbf71078	-0.007539805
44	0x3e41da1f	0.18930863
45	0x3e3eb948	0.18625367
46	0x3d8bb2cc	0.06821212
47	0xbcccfc28	-0.025022581
48	0xbd99f854	-0.07518068
49	0xbc749961	-0.0149291465
50	0x3d9cf193	0.07663264
51	0xbb8e4502	-0.0043417225
52	0x3ade416d	0.0016956754
53	0x3d72ad13	0.059247088
54	0xbce464e1	-0.027880134
55	0xbd6913d4	-0.056903675
56	0xbdb881b1	-0.09009112
57	0xbd049f93	-0.032378744
58	0xbb4dcc6d	-0.0031402365
59	0x3e5ad193	0.21369009
60	0x3d872517	0.06598871
61	0x3e17a19b	0.14807741
62	0x3c233f58	0.009963833
63	0xbd0aaa77	-0.033853974
64	0x3cd44d30	0.025915712
65	0x3d285b20	0.04110253
66	0xbdc67e38	-0.09692043
67	0x3e30142b	0.17195193
68	0xbd87e989	-0.0663634
69	0x3dcabe82	0.09899618
70	0x3ba1fcee	0.0049434816
71	0x3e0aae90	0.13543153
72	0x3d3933c3	0.04521538
73	0x3c95cfb3	0.018287515
74	0xbd830c48	-0.06398827
75	0xbdd6122a	-0.10452683
76	0xbe543266	-0.2072235
77	0x3d920bb5	0.07131139
78	0x3cede6f0	0.029040784
79	0xbe1747f8	-0.14773548
80	0x3e6ace84	0.22930342
81	0x3d615be5	0.055019278
82	0xbd822de5	-0.0635641
83	0x3d3c1972	0.045922704
84	0xbd4b0fc5	-0.049575586
85	0x3d89d57a	0.067301705
86	0xbcb82422	-0.022478167
87	0x3bf9b736	0.0076207174
88	0xbd258023	-0.040405404
89	0x3e10493e	0.1409044
90	0xbd8f9c70	-0.0701226
91	0x3e1ac628	0.15114653
92	0xbc3c1dfe	-0.01148176
93	0xbca6b79d	-0.020351226
94	0x3d1cc5f7	0.03827473
95	0x3da83fb6	0.08215277
96	0x3d9f6a75	0.07783977
97	0xbd5046b9	-0.050848696
98	0x3e03185a	0.12802258
99	0x3d185a3f	0.03719544

fc2.weight f4 [100, 100]
0	0x3d447a3e	0.04796814
1	0x3dbce1fc	0.092227906
2	0x3ccddb54	0.025128998
3	0x3d98cf2a	0.074613884
4	0x3daa1125	0.08304051
5	0x3e061f9b	0.13097994
6	0x3dcb70e6	0.09933643
7	0x3cdadd21	0.02671677
8	0x3e2653c6	0.16242895
9	0x3e5a1b27	0.2129942
10	0xbcdf63af	-0.027269213
11	0x3e03c2a1	0.12867214
12	0xbc464cc0	-0.01210326
13	0x3c12048d	0.008912218
14	0x3e0c542e	0.13703987
15	0x3d39a333	0.045321655
16	0xbdabf20c	-0.08395776
17	0x3d6c7a8c	0.057734057
18	0x3e23f80e	0.16012594
19	0x3e3084f7	0.17238222
20	0x3d5c6d9a	0.05381546
21	0x3e235e7f	0.15954016
22	0x3d2c63ef	0.04208749
23	0x3e3fbdf1	0.187248
24	0x3dccd178	0.100008905
25	0x3d17d6e6	0.037070177
26	0x3e4290d9	0.19000567
27	0xbd81fbe4	-0.063468724
28	0x3e2168f6	0.15762696
29	0x3e06a17a	0.13147536
30	0x3dd8668f	0.105664365
31	0x3e168536	0.14699253
32	0x3e1a16ba	0.15047732
33	0x3e226277	0.15857874
34	0x3dce6ec0	0.10079718
35	0x3e78583f	0.24252413
36	0x3d9c04b1	0.07618082
37	0x3d8b3947	0.06798034
38	0x3cd3c3b2	0.02585015
39	0x3d4811a8	0.048844963
40	0x3e0d68c9	0.13809504
41	0x3e09f6dd	0.13473077
42	0x3e4ceb4f	0.20011638
43	0x3e34ab04	0.17643362
44	0x3e028a21	0.12748004
45	0xbd074c09	-0.033031497
46	0x3c295a10	0.010336414
47	0x3e87ddc0	0.2653637
48	0x3e55932e	0.20856926
49	0x3d8e4a5f	0.06947779
50	0x3e40a6ce	0.18813631
51	0x3e7f69e2	0.24942735
52	0x3d5c4c7d	0.053783882
53	0x3dfbcd6d	0.12295041
54	0x3c90cfd0	0.017677218
55	0x3e52bcd7	0.20579849
56	0x3da0d8de	0.07853864
57	0xbd26c74f	-0.04071742
58	0x3e4f6dc7	0.2025672
59	0x3e16022f	0.1464927
60	0x3d32d279	0.043657754
61	0xbc72a177	-0.014809004
62	0x3dc7f103	0.09762766
63	0x3e1091a4	0.14118057
64	0x3e14d1c8	0.1453315
65	0x3e317d24	0.17332894
66	0x3e2d6364	0.16932446
67	0x3df5b920	0.119982004
68	0x3e5f570d	0.21810551
69	0x3e94145d	0.28921786
70	0xbd3b3d5e	-0.04571282
71	0x3e3ecb08	0.18632138
72	0x3dbfbae3	0.09361818
73	0x3e032261	0.12806083
74	0x3d9cb08d	0.07650862
75	0x3e50618e	0.20349714
76	0x3da20cb8	0.07912582
77	0x3db87914	0.09007469
78	0x3d118a8a	0.03553251
79	0x3daebe25	0.08532361
80	0x3e2cd8ec	0.16879624
81	0x3e5d0a5a	0.2158598
82	0x3df6afbf	0.1204524
83	0xbc875db0	-0.016524166
84	0x3e7391cc	0.23786086
85	0x3e653139	0.22382058
86	0x3c47bd8e	0.012191189
87	0x3d9c260b	0.076244436
88	0x3dadfddd	0.08495686
89	0x3e1c88e1	0.1528659
90	0x3e5e22bf	0.21692942
91	0x3ce1503b	0.027504077
92	0x3e21f7ce	0.15817186
93	0x3d7fda14	0.062463835
94	0x3de6fdbd	0.112788655
95	0xbc728183	-0.014801386
96	0x3e8725ef	0.2639613
97	0xbc30ef08	-0.010799177
98	0x3e0768f5	0.13223632
99	0x3e2e5885	0.17025955
100	0x3d17441b	0.036930185
101	0x3e3c55de	0.1839213
102	0x3d82e77a	0.06391807
103	0x3e01b948	0.12668335
104	0xbe821c66	-0.2541229
105	0x39a44797	0.00031333856
106	0xbcd48ec2	-0.025946978
107	0xbe73f23f	-0.23822878
108	0xbca660eb	-0.020309886
109	0x3a13baab	0.00056354207
110	0x3d05c0c5	0.032654542
111	0x3d8f9058	0.07009953
112	0xbd3ea54b	-0.046544354
113	0x3e206bab	0.15666072
114	0xbe5e5146	-0.21710691
115	0x3dd80d0f	0.10549366
116	0xbf8c1a7a	-1.094558
117	0xbf1877f7	-0.5955805
118	0x3e4ae119	0.1981243
119	0x3dc31369	0.095251866
120	0x3e17a508	0.14809048
121	0xbe70eaf1	-0.23527123
122	0xbcece0f9	-0.02891587
123	0x3d351612	0.0442105
124	0x3e30b52e	0.17256615
125	0x3e538d18	0.20659292
126	0x3c06fca7	0.008238948
127	0xbe2a165d	-0.16610093
128	0xbe75f8f6	-0.24020752
129	0x3e50ffe1	0.2041011
130	0xbd905d66	-0.07049064
131	0xbd03b876	-0.032158338
132	0xbdfc8694	-0.12330356
133	0xbd974730	-0.07386625
134	0xbd2f3b71	-0.042781297
135	0xbc0f75c2	-0.008756103
136	0x3c0c73ea	0.008572558
137	0xbf54a20a	-0.8305975
138	0xbce3a9e3	-0.02779097
139	0xbe67649f	-0.22596978
140	0x3e3202aa	0.17383829
141	0xbe5f3ab9	-0.21799745
142	0x3e0cbe00	0.13744354
143	0xbe9b2710	-0.3030324
144	0x3e0fbadb	0.14036123
145	0x3db5f9c2	0.08885528
146	0x3e12e34b	0.14344518
147	0x3c64968b	0.013951908
148	0xbd87663b	-0.06611296
149	0x3d137d0f	0.036007937
150	0x3e0f4e13	0.13994627
151	0xbd012263	-0.031526934
152	0xbe071cdf	-0.13194607
153	0x3eb0c63e	0.34526247
154	0x3d49288e	0.04911094
155	0xbe874372	-0.26418644
156	0xbe8761d2	-0.26441818
157	0xbe93909a	-0.2882126
158	0xbcc2b138	-0.023766145
159	0xbc2b6529	-0.01046113
160	0xbf3372e7	-0.700972
161	0x3bd404e9	0.006470312
162	0xbe0a2ca2	-0.13493589
163	0xbe52250b	-0.20521943
164	0xbca6da3e	-0.020367738
165	0xbc645692	-0.013936656
166	0xbf079e36	-0.52975786
167	0x3e224fba	0.15850726
168	0xbf030392	-0.5117732
169	0xbd484771	-0.048896257
170	0xbd0f6c21	-0.03501523
171	0x3daf15fb	0.08549114
172	0x3e4545f1	0.19264962
173	0x3da83c09	0.08214576
174	0xbe13be98	-0.14428174
175	0xbdeb0fce	-0.11477624
176	0xbf527283	-0.8220598
177	0x3dd6f13b	0.1049523
178	0xbe48b4c1	-0.19600202
179	0xbd3b7a8a	-0.04577116
180	0x3d0bf084	0.03416492
181	0x3b4df2c7	0.0031425224
182	0xbe406866	-0.18789825
183	0x3e0dea75	0.1385897
184	0xbe9c4fa7	-0.3052952
185	0xbe0cde4a	-0.13756672
186	0xbc48b283	-0.012249592
187	0xbcbcf42e	-0.023065653
188	0xbf415328	-0.7551751
189	0x3e3165e3	0.17324023
190	0xbe671b9b	-0.22569124
191	0x3dd864db	0.10566112
192	0xbe19a777	-0.15005289
193	0xbe87875f	-0.26470467
194	0xbe041f6a	-0.12902609
195	0x3e0b1c5d	0.13585038
196	0xbdce57cc	-0.1007534
197	0x3c2cb116	0.010540267
198	0x3dc9d46b	0.09854969
199	0x3b051bbd	0.0020310723
200	0x3d9e3a0c	0.07725915
201	0x3e1ccd09	0.1531259
202	0x3d8418a4	0.06450012
203	0x3dc8f6d3	0.09812703
204	0xbe9eccdb	-0.31015667
205	0xbe3b0e3c	-0.18267149
206	0xbdb6aa6a	-0.08919223
207	0xbe2feb29	-0.1717955
208	0xbe7b5568	-0.24544299
209	0xbddc1ad3	-0.10747304
210	0xbe02ad1b	-0.12761347
211	0xbe15f974	-0.1464594
212	0xbdf96e12	-0.12179197
213	0x3de71489	0.11283214
214	0xbe8fd910	-0.28095293
215	0x3e1d2f3a	0.15350047
216	0xbf9cfe67	-1.2265137
217	0xbf3aa047	-0.72900814
218	0xbb838082	-0.004013122
219	0x3c8cc315	0.017182866
220	0x3e01590d	0.12631626
221	0xbe643e88	-0.22289479
222	0x3df75dba	0.12078424
223	0x3e64ef53	0.2235692
224	0x3d1c4783	0.038154136
225	0x3e2210e7	0.1582676
226	0xbdce6d52	-0.10079445
227	0xbdeae4e8	-0.11469442
228	0xbe000da4	-0.12505203
229	0x3e148eaa	0.14507547
230	0xbdb002b9	-0.08594269
231	0xbda6a0c2	-0.08136131
232	0xbe4c799b	-0.19968264
233	0xbd2ebe5c	-0.04266201
234	0x3e045034	0.1292122
235	0xbe7c11b2	-0.24616125
236	0x3e4e52ec	0.2014882
237	0xbf77ef49	-0.96849495
238	0xbe087b56	-0.13328299
239	0xbe9ca80d	-0.30596963
240	0x3e35492d	0.17703696
241	0xbe44f423	-0.19233756
242	0x3e430120	0.19043398
243	0xbf0498ee	-0.5179585
244	0x3e1b9179	0.15192212
245	0x3d02704d	0.03184538
246	0x3db7cefe	0.089750275
247	0xbe315769	-0.173185
248	0xbd69735d	-0.056994785
249	0xbd7adbcf	-0.061244782
250	0x3e4105d1	0.18849875
251	0xbdcafb89	-0.09911258
252	0xbdb4135a	-0.087927535
253	0x3e9303cd	0.28713837
254	0x3e2c570c	0.16830081
255	0xbecc516b	-0.39905867

fc2.bias f4 [100]
0	0x3dbd4470	0.09241569
1	0x3d5daec6	0.054121755
2	0x3dba07ad	0.09083495
3	0x3e3c9d6b	0.18419425
4	0x3dc27778	0.09495443
5	0x3ce675b8	0.028132305
6	0xbe0f61f2	-0.14002207
7	0x3bce3048	0.0062923767
8	0x3d7f4eee	0.062331133
9	0x3d6c9f8d	0.057769347
10	0x3dac0dac	0.08401045
11	0x3d15acb7	0.036541667
12	0x3e110775	0.14163001
13	0x3e07a27f	0.13245581
14	0xbba3238c	-0.0049786028
15	0x3da0f2ff	0.07858848
16	0x3dcc7de5	0.0998495
17	0x3d8c17a2	0.06840445
18	0x3d212a96	0.039347254
19	0x3e52a2b3	0.20569877
20	0xbc1c154d	-0.009526563
21	0x3e3baae2	0.18326905
22	0xbd2a0c68	-0.041515738
23	0x3e0af405	0.13569649
24	0x3dd9db35	0.106375135
25	0x3e31fbe2	0.17381242
26	0x3b8fa5d5	0.0043837824
27	0xbe26cee3	-0.16289859
28	0x3d94349d	0.07236598
29	0x3defc484	0.11707404
30	0xbcb8ec8e	-0.022573736
31	0x3e2b4aa7	0.16727696
32	0x3dab2e1f	0.08358406
33	0x3e6edc8c	0.2332632
34	0x3dc98eae	0.09841667
35	0xbe34863d	-0.17629333
36	0xbd3e7498	-0.04649791
37	0x3e3c0200	0.18360138
38	0x3e41cab6	0.18924984
39	0x3cb45f7a	0.022018183
40	0xbe041b15	-0.12900956
41	0xbe4d8246	-0.20069227
42	0x3e20e54b	0.15712468
43	0xbcbd2393	-0.023088252
44	0x3d39ab4b	0.045329373
45	0xbd7443c8	-0.059634954
46	0x3e1bf461	0.15229942
47	0x3c75ad52	0.014994936
48	0x3e043e3c	0.12914366
49	0x3cb4d16c	0.022072516
50	0x3d819245	0.06326727
51	0x3e802fbf	0.25036427
52	0xbcf6707d	-0.030082935
53	0xbcb9fee7	-0.022704555
54	0x3cc35d5e	0.023848232
55	0x3e0508f4	0.12991697
56	0x3e8a4e3c	0.27012813
57	0x3d57bb8d	0.052669097
58	0x3d8baad4	0.06819692
59	0x3de9daa6	0.11418657
60	0x3d08c78d	0.03339343
61	0x3d9765b6	0.07392447
62	0x3e167929	0.14694656
63	0x3e4ba901	0.19888689
64	0x3df24ced	0.11831079
65	0x3d1927c1	0.037391428
66	0xbdc92983	-0.09822371
67	0x3d539576	0.05165621
68	0x3cacb93c	0.02108442
69	0x3daf8e4c	0.08572063
70	0x3e157788	0.14596379
71	0xbca2ae3d	-0.019858474
72	0x3df2fe4a	0.11864908
73	0x3e414a2f	0.18875955
74	0x3d81f84a	0.063461855
75	0x3d633eae	0.055479698
76	0x3e30261f	0.17202042
77	0x3e32806e	0.17431805
78	0x3d898e45	0.06716589
79	0x3d62efeb	0.055404585
80	0xbd45d9ac	-0.04830329
81	0x3e4b6a46	0.19864759
82	0x3e28eea2	0.16497281
83	0xbc61091f	-0.013735085
84	0x3df3f29f	0.11911511
85	0x3e00e75c	0.12588257
86	0x3dcb2cd9	0.099206634
87	0x3e08c0d1	0.13354804
88	0xbd72a374	-0.059237912
89	0x3e3396cf	0.17537998
90	0x3c8b82d7	0.017030163
91	0x3dbbbd96	0.0916702
92	0x3d812150	0.06305182
93	0x3de92f91	0.11386026
94	0xbd10eaa5	-0.035380024
95	0x3e4d34b9	0.20039643
96	0xbc00db1e	-0.007864742
97	0x3c11cea8	0.008899368
98	0x3df4b2a9	0.11948139
99	0x3d8d5f8a	0.06902988

fc_actor.weight f4 [20, 100]
0	0xbcad50dc	-0.02115672
1	0x3d8f1a57	0.06987446
2	0xbcf6a914	-0.03010992
3	0x3d0eeaed	0.03489201
4	0x3b89f50b	0.0042101196
5	0x3de21b02	0.110403076
6	0x3c008016	0.007843038
7	0xbabcb4b1	-0.0014397112
8	0x3d318e3a	0.04334853
9	0xbd96f292	-0.07370485
10	0x3d4f51dd	0.05061518
11	0xbd39305a	-0.045212127
12	0x3dc77d71	0.09740723
13	0x3d5dacb4	0.05411978
14	0x3bdba43f	0.0067029293
15	0xbd962850	-0.07331908
16	0xbdf5b3c7	-0.119971804
17	0xbd7b7099	-0.06138668
18	0x3e09ea4f	0.13468288
19	0x3da3a97c	0.07991311
20	0xbc64b331	-0.013958738
21	0x3d37c6d4	0.04486735
22	0x3df136b7	0.11778014
23	0x3d28815b	0.041138988
24	0x3d884af6	0.06654923
25	0xbddd28f4	-0.10798827
26	0xbdc3436b	-0.09534343
27	0x3dafa0cf	0.08575594
28	0xbd8075f8	-0.06272501
29	0x3d68427e	0.056704037
30	0x3d49e851	0.04929382
31	0xbca68436	-0.020326715
32	0xbc81fa77	-0.015866501
33	0xbd8ae214	-0.06781402
34	0xbdaba6ca	-0.08381422
35	0x3e357abc	0.177226
36	0xbd4c9716	-0.049948774
37	0xbd9eb963	-0.077502035
38	0xbd8c9290	-0.06863892
39	0xbd922c9c	-0.07137415
40	0x3dd643f9	0.104621835
41	0x3e11f255	0.14252599
42	0xbd096a1a	-0.033548452
43	0x3ca62d07	0.020285143
44	0x3da883e8	0.08228284
45	0x3c94d067	0.01816578
46	0x38ee14db	0.00011352609
47	0xbdabd5b1	-0.08390368
48	0xbbe21236	-0.0068991436
49	0xbaf61ca8	-0.0018776851
50	0x3d145611	0.03621489
51	0x3c7ad9da	0.015310729
52	0xb94da2b5	-0.00019610937
53	0x3d441f69	0.047881518
54	0x3dc05454	0.09391084
55	0xbcbae541	-0.022814395
56	0x3d7fc0ca	0.062439717
57	0x3c168052	0.009185867
58	0x3bd09913	0.006365904
59	0xbc7528e3	-0.014963361
60	0xbcd1d301	-0.02561331
61	0x3cc52163	0.024063772
62	0x3cb9c614	0.022677459
63	0xbd20d401	-0.039264683
64	0x3c472321	0.0121543715
65	0x3db1424e	0.08655225
66	0x3d46ce23	0.04853643
67	0x3dcc7312	0.099828854
68	0xbde4f568	-0.1117962
69	0x3c48da1a	0.012259031
70	0x3cf77615	0.030207673
71	0xbd1481b7	-0.03625652
72	0x3d5d71f3	0.05406375
73	0xbcbb17aa	-0.022838432
74	0x3d8fb1d3	0.07016339
75	0xbd014000	-0.031555176
76	0xbd89913e	-0.06717156
77	0x3c46666a	0.012109378
78	0x3d7c8605	0.06165125
79	0x3cb94be8	0.022619203
80	0x3e3f2b6a	0.18668905
81	0xbdba63c2	-0.091010585
82	0x3cd52e93	0.026023185
83	0xbb14d07f	-0.0022707281
84	0x3d581b51	0.052760426
85	0x3de37565	0.111063756
86	0xbd2520f8	-0.040314645
87	0x3c820c74	0.015875079
88	0x3d99e027	0.07513457
89	0xbd6b4eb3	-0.0574481
90	0xbdaffd7c	-0.0859327
91	0x3ddc4487	0.10755258
92	0xbd2d04a8	-0.04224077
93	0xbc37cf34	-0.011218835
94	0xbce07ae6	-0.027402353
95	0x3d8b8ba6	0.06813745
96	0x3e2643a2	0.16236737
97	0xbd0e9acd	-0.0348156
98	0xbd9651cf	-0.073398225
99	0x3d1486a7	0.036261227
100	0x3d61c1fd	0.055116642
101	0x3dc5af49	0.096525736
102	0x3c227acb	0.009916971
103	0x3bb88fd7	0.0056323814
104	0x3d1f2d66	0.038861655
105	0x3d9ff0a5	0.07809571
106	0x3cc90968	0.024540618
107	0xbd876e59	-0.06612844
108	0x3d8cbd84	0.06872085
109	0xbc4e7691	-0.012601511
110	0x3d55b851	0.05217773
111	0xbd60c5a8	-0.054876
112	0xbca2b85c	-0.0198633
113	0xbd159e01	-0.036527637
114	0x3d401631	0.046896163
115	0xbc67d594	-0.014150042
116	0x3dcbb56c	0.09946713
117	0x3dabcfec	0.08389267
118	0x3db424e7	0.08796101
119	0xbd89def4	-0.06731978
120	0xbd98a1b7	-0.0745272
121	0xbc61905b	-0.013767327
122	0x3deb54df	0.11490797
123	0xbd1b23c7	-0.037875917
124	0xbdbe853f	-0.093027584
125	0x3da5d7a5	0.080977716
126	0x3e3b013f	0.18262194
127	0x3d1daed2	0.0384968
128	0xbdc4109a	-0.09573479
129	0x3c2dd17c	0.010609027
130	0x3da86974	0.082232386
131	0x3c863c47	0.016386164
132	0xbce9a61a	-0.028521586
133	0x3db4f35f	0.08835482
134	0x3c5d804e	0.01351936
135	0xbd3c6ddc	-0.046003208
136	0xbce5336c	-0.027978621
137	0xbda94aef	-0.082662456
138	0x3db0f02a	0.08639558
139	0x3de898ee	0.11357294
140	0x3ce48880	0.02789712
141	0xbd26d960	-0.04073465
142	0xbd472193	-0.048616003
143	0x3dceef7c	0.10104272
144	0xbdfd883b	-0.123794995
145	0xbd5d223f	-0.053987738
146	0xbd63d0ac	-0.055618927
147	0x3b033a5d	0.00200238
148	0x3d885a9a	0.06657906
149	0x3bdd0c8b	0.00674588
150	0xbc21ef9a	-0.009883786
151	0xbd952cd0	-0.07283938
152	0xbd037e76	-0.032103024
153	0xbc5ce72f	-0.013482853
154	0x3e00fc91	0.12596346
155	0xbce6285d	-0.028095419
156	0x3a81af67	0.0009894193
157	0xbd9b53fe	-0.075843796
158	0x3d50a0fa	0.05093477
159	0x3d1d4d20	0.03840363
160	0x3cd0a7b2	0.025470588
161	0xbd631651	-0.055441204
162	0xbd827e10	-0.06371701
163	0xbd98f2aa	-0.074681595
164	0xbda51b74	-0.08061877
165	0xbd743061	-0.05961645
166	0xbd88150e	-0.06644641
167	0x3c151201	0.009098531
168	0x3dadd333	0.08487549
169	0x3c21b34f	0.009869411
170	0xbd24a4fe	-0.04019641
171	0xbd5820a0	-0.05276549
172	0x3d6c9ffd	0.057769764
173	0x3d28846c	0.041141912
174	0x3bc24628	0.0059287734
175	0xbd8d9e29	-0.06914932
176	0xbda1286c	-0.07869038
177	0xbe2d2339	-0.16907968
178	0x3d12de65	0.035856623
179	0xbc28501c	-0.010273006
180	0xbc091bee	-0.008368475
181	0xbc6ef282	-0.014584186
182	0x3d15170c	0.036398932
183	0x3d213636	0.03935834
184	0x3d8d1dcb	0.06890448
185	0xbdb3b3aa	-0.087745026
186	0x3d85e4cd	0.06537781
187	0xbdc02d92	-0.09383692
188	0x3d973a7d	0.07384203
189	0x3dd26718	0.1027357
190	0x3c62547b	0.013814087
191	0xbd3bc3ef	-0.045841154
192	0x3dc1150e	0.09427844
193	0xbcdaae8d	-0.02669456
194	0x3c7ec09b	0.01554885
195	0x3d83af7a	0.06429954
196	0xbde6150d	-0.11234484
197	0xbd3e7ef2	-0.046507783
198	0xbd191311	-0.0373717
199	0x3d00b44c	0.031421944
200	0x3c0dec78	0.008662336
201	0x3b9f9d82	0.0048710713
202	0x3d7c1bc7	0.061549928
203	0x3d155adb	0.0364636
204	0x3d7a2a45	0.061075468
205	0x3d8058a3	0.06266906
206	0xbd83a2b1	-0.06427515
207	0x3cadb024	0.021202154
208	0x3d8251d2	0.06363262
209	0x3c95914b	0.018257758
210	0xbd3b43bd	-0.045718897
211	0xbc678220	-0.014130145
212	0x3d8dadd9	0.069179244
213	0x3c376108	0.011192568
214	0xbca826c7	-0.020526303
215	0x3c79cb4d	0.015246225
216	0x3dbc8428	0.09204894
217	0xbd9e0efb	-0.07717701
218	0x3a73e800	0.0009304285
219	0x3c16b19e	0.009197621
220	0xbce5a1fb	-0.02803134
221	0xbd9152ce	-0.07095872
222	0x3c1d8cd4	0.009616096
223	0x3c7994a7	0.015233195
224	0xbdcdf1a3	-0.10055854
225	0xbdabe4af	-0.08393227
226	0xbb79275f	-0.0038017852
227	0x3d916f0b	0.07101258
228	0x3d95bdba	0.07311578
229	0xbd0cc86c	-0.034370825
230	0xbc119bae	-0.008887215
231	0xbda9dd2e	-0.0829414
232	0x3d6ac8fe	0.057320587
233	0xbd1abe33	-0.037779044
234	0xbd846986	-0.064654395
235	0xbd29b117	-0.04142865
236	0x3d85947b	0.06522461
237	0x3c8d20d5	0.01722757
238	0xbdb6523a	-0.08902402
239	0x3d85982d	0.06523166
240	0xbd1d00e1	-0.038330916
241	0xbd4d2e71	-0.050093118
242	0xbdb4d004	-0.08828738
243	0x3ca533d4	0.020166315
244	0xbceb107b	-0.028694382
245	0xbceeefdc	-0.029167108
246	0xbd25aa94	-0.04044588
247	0x3cab50ab	0.020912489
248	0xbe162c2f	-0.14665292
249	0xbdc67587	-0.09690385
250	0x3ca0b20a	0.019616146
251	0xbd63778f	-0.05553394
252	0xbd18f2af	-0.037340816
253	0x3df97fd1	0.12182582
254	0xbb5686c0	-0.0032734126
255	0x3d8b1535	0.06791154

fc_actor.bias f4 [20]
0	0xbc70b16a	-0.014690736
1	0x3d0a751e	0.033803098
2	0xbd410681	-0.047125343
3	0x3b9ef5f5	0.0048510977
4	0xbda0faed	-0.0786036
5	0xbc65667a	-0.014001483
6	0xbd4e2aad	-0.050333668
7	0xbda56a1f	-0.080768816
8	0xbdb1e7bd	-0.08686779
9	0x3bccdea1	0.0062521254
10	0x3d9e15a9	0.07718975
11	0x3cd22ca2	0.025656048
12	0x3d96e389	0.07367618
13	0xbd9cc4b0	-0.07654703
14	0x3dbff5d4	0.0937306
15	0xbdb8018b	-0.08984669
16	0xbbb0c2ef	-0.0053943316
17	0x3dabc7c3	0.08387711
18	0x3d5af8b5	0.05345984
19	0xbd0187ac	-0.031623527

fc_critic.weight f4 [1, 100]
0	0x3e3ccd8a	0.18437782
1	0x3e931e7f	0.28734204
2	0x3ee644f7	0.4497449
3	0x3ee8b62e	0.45451492
4	0x3ea83850	0.32855463
5	0xbf09c082	-0.5380937
6	0xbe89d2ad	-0.26918545
7	0xbeaf166e	-0.341968
8	0xbea86051	-0.32885984
9	0xbea79e4b	-0.32737955
10	0x3ea8d0b2	0.32971722
11	0x3ec30f42	0.38097578
12	0x3e2ac43b	0.16676418
13	0x3efb31a8	0.49061322
14	0xbeb6508c	-0.35608327
15	0xbe653b77	-0.22385965
16	0xbe80f1c4	-0.25184453
17	0x3e12aead	0.14324446
18	0xbe787557	-0.24263512
19	0x3e66975d	0.22518678
20	0xbea45004	-0.32092297
21	0x3ecc8001	0.3994141
22	0xbe04f917	-0.12985645
23	0x3ecffd3d	0.40622893
24	0x3e4da03a	0.20080653
25	0x3e442786	0.19155702
26	0xbe5ef094	-0.21771461
27	0xbee84f59	-0.45373037
28	0xbed719ef	-0.42011973
29	0xbeb1b1d4	-0.34705985
30	0xbebeb9dd	-0.37251177
31	0x3eb7cc25	0.35897937
32	0x3e2577b7	0.16158949
33	0x3e23ebc9	0.16007914
34	0xbeb7f161	-0.35926345
35	0xbdf4a5ba	-0.11945672
36	0xbe897c53	-0.26852664
37	0x3e385817	0.18002354
38	0x3e863dae	0.26218933
39	0xbea56777	-0.323055
40	0xbefb365f	-0.4906492
41	0xbee14b9f	-0.44003007
42	0xbea77154	-0.3270365
43	0xbe858507	-0.26078054
44	0x3bbc04e6	0.0057378886
45	0xbe4993c3	-0.19685273
46	0xbeddac0d	-0.43295327
47	0x3f84d02b	1.0376028
48	0x3e810c86	0.25204867
49	0xbec11aca	-0.3771575
50	0x3f5172f6	0.8181604
51	0x3e0baf90	0.1364119
52	0xbe96bd17	-0.2944114
53	0xbdae3dab	-0.08507856
54	0xbe85a490	-0.26102114
55	0x3ee16e85	0.44029632
56	0x3e41c534	0.18922883
57	0x3eccbe2f	0.3998885
58	0x3ea987fe	0.33111566
59	0x3e939e7f	0.2883186
60	0xbe8c1570	-0.27360106
61	0xbee43696	-0.44572896
62	0xbea8f13e	-0.32996553
63	0x3ea506bc	0.322317
64	0x3ebfb6c3	0.37444124
65	0x3e20d227	0.15705167
66	0xbe279c4d	-0.16368218
67	0x3ec713de	0.38882345
68	0xbecfac58	-0.40561175
69	0xbe90a6d9	-0.28252295
70	0x3e0a73f1	0.1352079
71	0xbea1deca	-0.31615287
72	0x3e9cde18	0.30638194
73	0x3e545969	0.20737232
74	0x3ef6230d	0.48073617
75	0x3e89a434	0.2688309
76	0x3e7571b4	0.23969156
77	0x3d9360f7	0.07196229
78	0xbdbd86e1	-0.09254242
79	0xbeaf94d0	-0.34293222
80	0xbf2760d6	-0.65382135
81	0xbf0a1a70	-0.5394659
82	0x3e5ad609	0.2137071
83	0xbea290c7	-0.3175108
84	0x3eb9995f	0.36249825
85	0xbefdf9f2	-0.49604756
86	0x3e81552d	0.25260296
87	0x3eb5b8d8	0.35492587
88	0xbeb0702d	-0.34460583
89	0x3e657908	0.22409451
90	0xbdf6bb1e	-0.120474085
91	0xbe47ca84	-0.19510847
92	0xbe9c7951	-0.30561307
93	0x3ed025d2	0.40653855
94	0xbe0fced7	-0.14043747
95	0x3ed07951	0.40717557
96	0xbd1ce85a	-0.038307525
97	0xbe59a418	-0.21254003
98	0x3ec2e02c	0.38061655
99	0x3dbad8bd	0.09123371
