saved_models/crawler_ppo_3.ckpt (torch_old, 814669 bytes, 8 tensors)

std f4 [1, 20]
-0.79053205 -0.4406148 -0.82429844 -0.5945875 -0.9124512 -0.6357663 -0.7388918 -0.57305014
-0.6856113 -0.9207515 -0.72256994 -1.0979264 -0.47441554 -0.67313933 -0.69405186 -0.76531756
-0.5976511 -0.59620166 -0.8082643 -0.45688385
00000000: 4f60 4abf 4398 e1be 3905 53bf e336 18bf
00000010: 6796 69bf 95c1 22bf 0328 3dbf 6ab3 12bf
00000020: 3984 2fbf 5fb6 6bbf 58fa 38bf da88 8cbf
00000030: 98e6 f2be dc52 2cbf 62ad 31bf daeb 43bf
00000040: aaff 18bf aca0 18bf 69ea 4ebf aeec e9be

fc1.weight f4 [512, 129]
-0.27930394 0.27439877 -0.98520464 0.25634208 -0.4150091 -0.10412622 0.5394576 -0.12253376
-0.55578536 -0.02723821 -0.033912178 0.032178123 0.0037443545 0.0085116215 -0.006244658 -0.01865215
-0.02206509 0.072289705 0.0463891 -0.011868685 -0.019475177 0.04125472 -0.055522747 0.06310624
-0.27664748 -0.29536134 0.24687253 -0.11545017 -0.16865712 0.009116575 -0.09501444 -0.32875058
0.06314957 -0.0239648 -0.059239913 -0.011414383 0.0017848613 -0.0859439 -0.09952533 0.14946738
0.15764816 -0.2846225 0.00040697306 0.08351423 -0.09520595 0.029442377 -0.0002958615 0.042943303
-0.12624058 0.017196313 -0.06831219 -0.045276515 0.23422097 -0.10841886 0.29830292 -0.16058952
-0.16375282 -0.06382843 -0.14652458 -0.13038296 -0.0053550433 -0.0659646 -0.06894332 -0.056792755
-0.027071178 -0.10369627 0.19424212 0.32601953 0.16877545 -0.38231114 -0.024160914 -0.08469341
-0.19554043 -0.070977084 -0.092417546 0.08103663 -0.05333024 0.0584162 0.0030629057 -0.004521173
0.20895658 -0.28321224 -0.28474012 0.03615331 -0.07515429 0.010671154 -0.16605444 -0.08961121
-0.025191866 0.0022635085 0.023859419 0.007635069 -0.06955002 -0.030981524 0.09060719 -0.13070738
-0.16480465 -0.2875396 -0.046937533 -0.015885599 -0.12790988 -0.052039526 0.05594584 0.017915374
-0.0019846302 0.015308812 -0.014291588 -0.048958953 -0.2560984 -0.43292928 -0.14959808 -0.0990794
-0.21968311 0.052816942 -0.11406741 -0.23258866 -0.0003180218 0.026549386 0.0013628092 -0.016032042
-0.12412716 0.011186266 -0.048090365 0.10614503 -0.11210323 -0.35060877 -0.004866846 -0.053126648
-0.30698204 -0.04127222 3.4763324 -5.026681 0.09252016 -0.099897385 0.22295177 -0.14210106
-0.043871887 0.26611304 0.12093968 -0.07699841 -0.08015435 -0.09826887 -0.06730126 0.07552679
-0.030244479 0.020520687 -0.06370053 -0.042550612 -0.056991246 0.02246056 0.013983123 -0.07456992
0.007073648 -0.05024163 -0.079087526 0.0049727904 0.12572828 0.044667635 -0.029734015 0.033403743
-0.0141611565 0.028566897 -0.023488179 0.008258133 -0.052582562 -0.014363399 -0.037991814 0.03194392
-0.06485071 -0.11986429 0.06601731 -0.009594552 0.05391197 0.005972577 0.07372628 0.023360835
-0.0028683625 0.07978149 0.0010061003 -0.03824289 -0.05915687 -0.010876025 -0.31252015 -0.008651145
0.02307509 0.08271806 -0.0054041967 -0.0013354202 0.11360914 -0.047072917 0.012841734 0.012014734
0.010831367 0.014474448 -0.023823868 -0.06437144 -0.12788281 -0.0014002394 0.09645657 0.0016744882
-0.036501028 -0.025521878 0.0335591 -0.07346477 0.06271139 -0.08067595 -0.0020556035 0.014876865
-0.041976728 -0.03161672 0.17993127 0.0400903 0.0019350954 0.0132282665 -0.023093 0.11494117
0.026974734 -0.007827462 -0.0059470334 -0.040345326 -0.02942039 -0.06532315 0.013134122 -0.10244385
0.03460005 0.0468996 -0.023430753 -0.0219355 -0.067269705 0.09288005 0.06581472 0.08744026
0.06624236 0.026220607 -0.02421371 -0.04870876 0.0040384564 0.04160093 -0.02475533 0.040848594
0.1545099 0.03713571 0.026328139 -0.015476886 -0.05269308 0.0047878 -0.008682608 0.05442177
0.032307692 -0.005294771 -0.08811211 0.06703828 0.09390863 0.08189827 0.0025762443 0.029009573
00000000: ed00 8fbe ff7d 8c3e 5f36 7cbf 453f 833e
00000010: 137c d4be 2140 d5bd e519 0a3f fbf2 fabd
00000020: f347 0ebf ab22 dfbc 7fe7 0abd 35cd 033d
00000030: d863 753b 5474 0b3c fd9f ccbb 65cc 98bc
00000040: d9c1 b4bc a00c 943d 7f02 3e3d df74 42bc
00000050: 688a 9fbc b6fa 283d d26b 63bd d83d 813d
00000060: bda4 8dbe 9a39 97be 27cc 7c3e 2471 ecbd
00000070: 74b4 2cbe b05d 153c ee96 c2bd ff51 a8be
00000080: 9054 813d d451 c4bc 8da5 72bd 6403 3bbc
00000090: 02f2 e93a 5b03 b0bd f0d3 cbbd fa0d 193e
000000a0: 856e 213e 0aba 91be 005f d539 8209 ab3d
000000b0: 56fb c2bd 2431 f13c dc1d 9bb9 51e5 2f3d
000000c0: 3645 01be 48df 8c3c 43e7 8bbd de73 39bd
000000d0: 9fd7 6f3e b50a debd 29bb 983e 9471 24be
000000e0: d2ae 27be 7bb8 82bd 8a0a 16be 1c83 05be
000000f0: 5c79 afbb 7318 87bd 2832 8dbd 859f 68bd
00000100: 60c4 ddbc b65e d4bd 68e7 463e 08ec a63e
00000110: 79d3 2c3e 49be c3be 1ced c5bc bd73 adbd
00000120: c03b 48be 6f5c 91bd 6945 bdbd 88f6 a53d
00000130: cf70 5abd d345 6f3d 08bb 483b 5926 94bb
00000140: b7f8 553e 3201 91be 75c9 91be 7e15 143d
00000150: 7eea 99bd 10d6 2e3c 2d0a 2abe 1586 b7bd
00000160: 2c5f cebc 5f57 143b d474 c33c 9a2f fa3b
00000170: 3e70 8ebd f7cc fdbc 4390 b93d 28d8 05be
00000180: 8dc2 28be 6438 93be 9241 40bd 8422 82bc
00000190: cffa 02be 6627 55bd 7727 653d 43c3 923c
000001a0: 9210 02bb d0d1 7a3c 4427 6abc 2f89 48bd
000001b0: 541f 83be e8a8 ddbe 3d30 19be 24ea cabd
000001c0: 9cf4 60be 9456 583d 2d9c e9bd b92b 6ebe
000001d0: 2abc a6b9 197e d93c 4aa0 b23a a155 83bc
000001e0: 6136 febd 9a46 373c 67fa 44bd 9162 d93d
000001f0: 6196 e5bd fe82 b3be 107a 9fbb 549b 59bd
00000200: c02c 9dbe 0f0d 29bd 3b7c 5e40 92da a0c0
00000210: 367b bd3d 0097 ccbd 784d 643e f182 11be
00000220: 02b3 33bd f83f 883e 39af f73d 58b1 9dbd
00000230: f727 a4bd 3041 c9bd 3ed5 89bd caad 9a3d
00000240: 45c3 f7bc 001b a83c 6c75 82bd 8d49 2ebd
00000250: a76f 69bd 35ff b73c 7819 653c 1db8 98bd
00000260: 0fca e73b 2bca 4dbd a4f8 a1bd caf2 a23b
00000270: eabe 003e 69f5 363d c094 f3bc 5dd2 083d
00000280: 3204 68bc 2005 ea3c 486a c0bc 1f4d 073c
00000290: d060 57bd 7654 6bbc 4e9d 1bbd a1d7 023d
000002a0: 73d0 84bd 697b f5bd 1534 873d 7832 1dbc
000002b0: ccd2 5c3d 9bb5 c33b cefd 963d 395f bf3c
000002c0: 23fb 3bbb 7a64 a33d 20df 833a 94a4 1cbd
000002d0: 794e 72bd 5b31 32bc a402 a0be 88bd 0dbc
000002e0: f907 bd3c 1668 a93d b015 b1bb 4409 afba
000002f0: e9ab e83d 88cf 40bd 2366 523c 72d9 443c
00000300: 0c76 313c 3c26 6d3c 462a c3bc 2cd5 83bd
00000310: b6f3 02be 3d88 b7ba 068b c53d 807a db3a
00000320: 1a82 15bd 4213 d1bc 4475 093d b374 96bd
00000330: d46e 803d 6f39 a5bd 4eb7 06bb 18be 733c
00000340: caef 2bbd 8980 01bd e73f 383e ba35 243d
00000350: 07a3 fd3a 5fbb 583c 882d bdbc 4766 eb3d
00000360: 1efa dc3c c13e 00bc 55df c2bb 2441 25bd
00000370: 0803 f1bc 25c8 85bd 8030 573c 15ce d1bd
00000380: c8b8 0d3d cc19 403d daf1 bfbc 14b2 b3bc
00000390: b3c4 89bd e537 be3d dec9 863d e113 b33d
000003a0: 13aa 873d 99cc d63c d55b c6bc d682 47bd
000003b0: 0755 843b bd65 2a3d b1cb cabc db50 273d
000003c0: d837 1e3e 9d1b 183d 1cae d73c c492 7dbc
000003d0: b3d4 57bd fae2 9c3b 7f41 0ebc 5de9 5e3d
000003e0: 1255 043d c27f adbb 1f74 b4bd 5e4b 893d
000003f0: 2b53 c03d 48ba a73d 35d6 283b 7ca5 ed3c

fc1.bias f4 [512]
-0.2581546 -0.055122968 0.040068176 0.14968796 0.04283248 0.19147106 -0.030104287 0.15349455
0.0999202 -0.077991866 -0.14085293 0.08345732 0.09901326 -0.12675513 0.058676843 -0.13743445
-0.05260263 0.113486074 -0.08295228 0.018359318 0.004216443 0.02011174 -0.018525071 0.058112916
0.03174119 0.045160376 0.052609872 -0.058081534 -0.038290597 0.16479787 0.12629856 0.18956365
0.10285904 0.120849855 0.015364691 0.16942807 0.123331435 -0.10452555 -0.1363976 -0.24204119
-0.08443103 0.043552674 0.11642271 -0.018899292 -0.005390656 0.037298404 -0.03897353 0.07475148
0.087727085 0.084688894 -0.07293345 0.17454302 0.019668475 0.07117494 -0.0063376543 0.100302614
-0.076651506 -0.0038783844 0.010986285 0.08544935 0.046872377 -0.08922298 0.018392937 -0.072025664
0.16955675 0.06798918 0.29768875 0.12964308 0.065584555 0.18554856 0.026590977 0.10137616
-0.04563863 -0.025291095 0.09279583 -0.08315624 0.0569239 0.046257704 0.10253093 0.10923773
0.06885786 -0.0731521 0.08053499 -0.119805425 0.062411588 0.10388914 0.23750164 0.11824093
0.046810556 0.005209302 0.10490576 0.22738983 -0.17215523 0.015338428 0.055171758 -0.10739812
0.009374748 -0.15157576 -0.0013695577 0.13146779 0.14999233 -0.13934465 0.06865253 -0.0067568705
0.24584241 0.11388941 -0.0073745963 0.052114055 0.036257647 -0.032530047 -0.07588149 0.17962292
-0.04372149 -0.1959145 -0.15397395 0.02861661 0.19926275 -0.10524195 -0.030174702 -0.08241514
0.16722162 0.07141912 0.18820661 -0.018506348 0.09182031 0.03885974 -0.06357741 0.046037685
0.003804248 -0.031282634 -0.15008812 -0.0035906981 0.04344183 -0.0018693786 0.10523986 0.1853329
0.18129331 0.03283451 0.016028242 0.14118782 0.08102047 0.079606675 0.009849611 -0.20957142
-0.05142823 0.14218636 -0.1613353 -0.066270255 0.054275222 -0.06690146 -0.034254927 0.07242554
-0.14443679 -0.15083486 -0.09836287 -0.028415939 0.11373524 0.05254221 0.048457026 0.04227508
0.083739325 0.1152241 0.06102831 0.054952495 -0.01423288 0.018729653 0.17896996 0.16386093
0.06426882 -0.055504534 0.2279538 -0.113097124 -0.024201376 -0.11832017 -0.07350562 0.09072679
0.03222618 0.038398013 -0.003994874 0.15110973 0.09826625 0.25585285 -0.14451116 0.064936966
0.0664089 -0.12082918 -0.029777562 -0.046091147 -0.005089698 -0.1739185 0.18433556 0.10731949
0.04513151 -0.01885613 0.1295067 0.095576756 0.039334543 0.16234307 -0.019685458 0.019016936
-0.2001306 0.21332462 0.166638 -0.026568139 0.038332503 0.05138163 -0.15568767 0.04643083
0.20896637 -0.0049587605 0.06643555 0.19357783 0.038593475 0.08077034 -0.00067586283 0.15841515
-0.015930409 0.11746864 0.019402167 -0.14406142 -0.17564653 0.113529 0.105657585 0.03859765
-0.03309421 0.25729573 0.18074696 0.057847135 0.11705844 0.14838977 -0.09020444 0.18545689
0.14991155 0.29924116 -0.10101652 -0.029731287 0.15720534 0.056194834 0.12616986 -0.17806791
0.07890697 0.04896417 0.014154029 -0.025035998 -0.11879931 0.044990536 -0.10012803 -0.18214941
0.054963883 0.1839247 0.16707437 0.001188874 0.009982757 0.14531039 0.0473194 0.059093025
00000000: d72c 84be 9fc8 61bd 871e 243d cd47 193e
00000010: 1c71 2f3d fd10 443e 449d f6bc ad2d 1d3e
00000020: f6a2 cc3d 33ba 9fbd c03b 10be aceb aa3d
00000030: 77c7 ca3d 19cc 01be 2157 703d 9ebb 0cbe
00000040: db75 57bd 636b e83d e3e2 a9bd 4866 963c
00000050: 162a 8a3b 60c1 a43c e4c1 97bc cf07 6e3d
00000060: 0d03 023d 16fa 383d 737d 573d e7e6 6dbd
00000070: 9ad6 1cbd c6c0 283e 6954 013e f91c 423e
00000080: c3a7 d23d 2180 f73d 2fbc 7b3c 8d7e 2d3e
00000090: 3195 fc3d 7e11 d6bd d0ab 0bbe a5d9 77be
000000a0: 2dea acbd 4a64 323d 086f ee3d b0d2 9abc
000000b0: 1aa4 b0bb 36c6 183d b5a2 1fbd 4e17 993d
000000c0: 42aa b33d 5f71 ad3d 225e 95bd 68bb 323e
000000d0: c81f a13c 2bc4 913d 19ac cfbb 756b cd3d
000000e0: 77fb 9cbd 7e2c 7ebb d2ff 333c 1200 af3d
000000f0: 40fd 3f3d 8aba b6bd c9ac 963c 3182 93bd
00000100: 49a0 2d3e e93d 8b3d a96a 983e 28c1 043e
00000110: 3251 863d 7100 3e3e 52d5 d93c 4e9e cf3d
00000120: 92ef 3abd 452f cfbc bd0b be3d d24d aabd
00000130: 0929 693d b878 3d3d bcfb d13d 08b8 df3d
00000140: 5a05 8d3d c5d0 95bd 87ef a43d 8c5c f5bd
00000150: 4ba3 7f3d d4c3 d43d a133 733e 4d28 f23d
00000160: 6dbc 3f3d cbb2 aa3b d5d8 d63d e1d8 683e
00000170: 7649 30be 084e 7b3c c8fb 613d 8cf3 dbbd
00000180: 8b98 193c ad36 1bbe bb82 b3ba 7e9f 063e
00000190: 9797 193e 5db0 0ebe b399 8c3d bd68 ddbb
000001a0: 1dbe 7b3e da3e e93d 99a6 f1bb 8c75 553d
000001b0: e682 143d 3a3e 05bd c167 9bbd 12ef 373e
000001c0: 4e15 33bd d09d 48be 59ab 1dbe 626d ea3c
000001d0: 890b 4c3e 1789 d7bd f030 f7bc 45c9 a8bd
000001e0: 253c 2b3e 3044 923d 3cb9 403e a09a 97bc
000001f0: 490c bc3d 642b 1f3d e034 82bd 0392 3c3d
00000200: b150 793b 3822 00bd b3b0 19be eb51 6bbb
00000210: 0ff0 313d f005 f5ba ff87 d73d e8c7 3d3e
00000220: f4a4 393e 7b7d 063d a94d 833c 8a93 103e
00000230: 0fee a53d d308 a33d 4360 213c e499 56be
00000240: 68a6 52bd 4d99 113e 1535 25be b3b8 87bd
00000250: b24f 5e3d a203 89bd e54e 0cbd d753 943d
00000260: 3de7 13be 7474 1abe 7972 c9bd 8bc8 e8bc
00000270: 06ee e83d 8036 573d e07a 463d a228 2d3d
00000280: 867f ab3d 9dfa eb3d d2f8 793d de15 613d
00000290: 0731 69bc ee6e 993c e743 373e 29cb 273e
000002a0: 5f9f 833d b958 63bd b96c 693e 779f e7bd
000002b0: f741 c6bc d851 f2bd 1d8a 96bd f8ce b93d
000002c0: 99ff 033d 3c47 1d3d 6fe7 82bb 82bc 1a3e
000002d0: d13f c93d 25ff 823e bcfa 13be acfd 843d
000002e0: 6401 883d 4a75 f7bd 13f0 f3bc 12ca 3cbd
000002f0: 7bc7 a6bb b117 32be 76c2 3c3e 52ca db3d
00000300: d1db 383d 2c78 9abc 689d 043e bfbd c33d
00000310: 421d 213d 433d 263e 6643 a1bc 68c9 9b3c
00000320: 09ef 4cbe c571 5a3e 27a3 2a3e 6da5 d9bc
00000330: 8b02 1d3d 8b75 523d 976c 1fbe 412e 3e3d
00000340: 48fb 553e 197d a2bb 5d0f 883d 4439 463e
00000350: 3114 1e3d ec6a a53d 632c 31ba 9537 223e
00000360: 7d80 82bc 6693 f03d 4bf1 9e3c d684 13be
00000370: afdc 33be e481 e83d 0163 d83d 9218 1e3d
00000380: cb8d 07bd 44bc 833e bb15 393e 1ef1 6c3d
00000390: 56bc ef3d 7df3 173e 1bbd b8bd 69e8 3d3e
000003a0: 6a82 193e 2336 993e c0e1 cebd 078f f3bc
000003b0: 70fa 203e 8e2c 663d ac32 013e 6f57 36be
000003c0: fa99 a13d a78e 483d 4de6 673c 4b18 cdbc
000003d0: 0d4d f3bd ff47 383d ed0f cdbd 6085 3abe
000003e0: cf21 613d c256 3c3e 8b15 2b3e fed3 9b3a
000003f0: b88e 233c 3fcc 143e fdd1 413d 870b 723d

fc2.weight f4 [256, 512]
-0.105603084 -0.08750914 -0.00912762 0.051189568 0.069436915 -0.015603983 -0.04824226 -0.08753608
-0.029596312 -0.026503593 0.01973121 0.03120033 -0.095047094 0.049991094 0.22141577 0.0838648
-0.038361344 -0.014543355 0.023937741 0.07293124 0.0104071135 0.046171438 0.1107694 0.058483075
-0.058261745 -0.038167775 0.059161928 0.11562794 -0.17634058 -0.0942113 0.07835457 0.011728539
0.017348548 -0.080855556 -0.04127438 -0.049613953 0.0022165617 -0.1945127 0.016494201 0.10910564
-0.024296623 -0.12521623 0.07144209 -0.11554516 -0.091679774 0.056605395 0.06965905 -0.029615084
-0.23905721 -0.12839073 0.08478597 0.00332761 -0.16226032 -0.031080723 -0.055368863 -0.14326403
-0.068824045 -0.21631385 0.01896508 -0.2197942 -0.12958841 -0.090332866 -0.17421137 -0.25540468
-0.23028313 -0.070236295 -0.09911439 -0.010776448 0.039879415 -0.015012679 -0.118192434 -0.01188555
0.042541943 -0.10372423 -0.072260074 -0.055756938 0.089962974 -0.057474107 -0.10879964 0.060696486
-0.09307644 -0.16160093 0.14818348 0.0047560437 -0.086573064 0.07697237 -0.032531522 0.01947255
0.05095845 0.008546549 0.023766462 -0.1162797 0.053821478 -0.06472699 -0.11019026 0.080665156
0.17222376 0.14581455 0.112968326 0.059444066 -0.06281131 0.07159676 0.118470944 -0.0041963113
-0.1233848 0.041384216 0.0074988883 0.037984923 0.08860119 -0.06402554 -0.0551062 -0.13453674
-0.14024362 -0.21777011 -0.009856258 0.048802845 0.064065136 -0.21674225 -0.066351525 -0.15819398
-0.104790814 -0.07847347 -0.08490978 0.12624204 0.021223305 -0.09586322 -0.035725426 -0.088202626
-0.13246727 -0.22121266 -0.16807263 -0.025694078 -0.04161042 -0.076574855 0.037084155 0.08569988
-0.06770805 0.09938177 0.047545455 0.010697811 0.013311008 -0.08294515 -0.07360867 0.11519058
0.082227126 0.07651456 -0.027554337 -0.11828515 0.007825018 0.08386234 -0.050193436 -0.07581474
0.10387042 -0.026100427 0.122510254 0.033053685 -0.034659084 0.0069312057 -0.3049289 0.0035323517
-0.013705774 -0.19744018 -0.032488517 -0.19564657 -0.10953418 -0.07830448 -0.028600933 0.0072633466
0.013680064 -0.009328025 -0.08283171 0.040868383 0.05097297 -0.15507415 0.09551615 0.044448406
-0.10604471 0.03394298 -0.12053404 -0.016736846 -0.21649988 0.056514926 0.02554575 -0.017743124
-0.017918037 -0.29112694 0.032648847 0.12016746 0.017781014 0.022508752 0.013785049 -0.017119724
0.098161615 0.023897957 -0.3792998 0.028433247 0.01883301 -0.05983326 0.033896536 -0.10384841
0.005765096 -0.015451147 -0.054310262 -0.06529394 0.006475597 0.02189956 0.056963995 -0.16706169
-0.03999229 -0.085191876 -0.023941118 -0.051195253 0.10994086 -0.1013042 -0.21266 -0.028124873
-0.12607113 0.0037973998 0.07003335 -0.047566183 0.107470855 -0.06800189 -0.0063083638 0.049296193
0.10683939 0.0351994 -0.122361034 -0.25949448 -0.013810002 -0.024502432 -0.12644675 -0.047051504
-0.064291045 -0.0711756 -0.12111723 -0.04196251 -0.07009713 -0.079422385 0.113164976 0.024367986
-0.019224817 0.15593833 0.06882288 0.13841666 0.10969152 0.11550327 -0.0394074 -0.25990054
0.0020172992 -0.00451439 0.014198754 0.04136979 0.08209193 -0.002571365 -0.10243973 -0.00062433217
00000000: 6e46 d8bd fe37 b3bd 038c 15bc 27ac 513d
00000010: f134 8e3d d9a7 7fbc ad99 45bd 1e46 b3bd
00000020: f773 f2bc 101e d9bc 59a3 a13c d697 ff3c
00000030: 0da8 c2bd 76c3 4c3d d1ba 623e 4fc1 ab3d
00000040: c920 1dbd 4147 6ebc 1519 c43c f95c 953d
00000050: 9982 2a3c 431e 3d3d 11db e23d f38b 6f3d
00000060: dea3 6ebd d055 1cbd c753 723d 57ce ec3d
00000070: a092 34be dbf1 c0bd 5c78 a03d 0f29 403c
00000080: 8b1e 8e3c 9997 a5bd 530f 29bd 0038 4bbd
00000090: bc43 113b 562e 47be d91e 873c c772 df3d
000000a0: b609 c7bc af38 00be 3b50 923d f1a2 ecbd
000000b0: 9bc2 bbbd 0fdb 673d 67a9 8e3d 559b f2bc
000000c0: 6acb 74be dc78 03be 44a4 ad3d 0814 5a3b
000000d0: 9227 26be 009d febc 76ca 62bd ceb3 12be
000000e0: 9ff3 8cbd 6181 5dbe a85c 9b3c bb11 61be
000000f0: d3b2 04be 7000 b9bd 7764 32be 67c4 82be
00000100: 57cf 6bbe 0cd8 8fbd 7cfc cabd b38f 30bc
00000110: 9958 233d bdf7 75bc e00e f2bd 9cbb 42bc
00000120: 7640 2e3d 5e6d d4bd 17fd 93bd 6361 64bd
00000130: 823e b83d f869 6bbd 58d2 debd e19c 783d
00000140: dc9e bebd b77a 25be 69bd 173e 96d8 9b3b
00000150: 384d b1bd b1a3 9d3d c63f 05bd e684 9f3c
00000160: cfb9 503d d306 0c3c e2b1 c23c 0d24 eebd
00000170: e973 5c3d 968f 84bd 6eab e1bd c633 a53d
00000180: 6d5b 303e 6950 153e f05b e73d 9f7b 733d
00000190: 37a3 80bd 52a1 923d e5a0 f23d 3681 89bb
000001a0: 2cb1 fcbd 7f82 293d 3cb9 f53b 1496 1b3d
000001b0: 8a74 b53d d31f 83bd 0ab7 61bd 00c4 09be
000001c0: 069c 0fbe 21ff 5ebe 247c 21bc 7ee5 473d
000001d0: 9534 833d aef1 5dbe 4fe3 87bd 9afd 21be
000001e0: 919c d6bd b3b6 a0bd 2ee5 adbd 9845 013e
000001f0: 7fdc ad3c f053 c4bd d354 12bd 94a3 b4bd
00000200: 80a5 07be 9285 62be 3b1b 2cbe 637c d2bc
00000210: b06f 2abd 47d3 9cbd 8ee5 173d 6b83 af3d
00000220: 85aa 8abd ab88 cb3d 06bf 423d df45 2f3c
00000230: 6a16 5a3c 26df a9bd 24c0 96bd 0ae9 eb3d
00000240: b266 a83d aab3 9c3d a2b9 e1bc 7c3f f2bd
00000250: 8134 003c 05c0 ab3d a297 4dbd c244 9bbd
00000260: 04ba d43d 90d0 d5bc a8e6 fa3d 4d63 073d
00000270: aff6 0dbd 2b1f e33b a41f 9cbe 077f 673b
00000280: 2f8e 60bc c22d 4abe ae12 05bd 9357 48be
00000290: 7553 e0bd 195e a0bd 814c eabc 5e01 ee3b
000002a0: 5922 603c 93d4 18bc aca3 a9bd 9b65 273d
000002b0: 08c9 503d c2cb 1ebe f99d c33d 880f 363d
000002c0: f82d d9bd cb07 0b3d 8dda f6bd b61b 89bc
000002d0: 25b2 5dbe 327c 673d 5245 d13c 075a 91bc
000002e0: d9c8 92bc 970e 95be ccba 053d 5b1a f63d
000002f0: 7da9 913c 4664 b83c b0da 613c aa3e 8cbc
00000300: f508 c93d a6c5 c33c 9533 c2be d7ec e83c
00000310: af47 9a3c b813 75bd 18d7 0a3d 7aae d4bd
00000320: 21e9 bc3b cf26 7dbc 7074 5ebd d4b8 85bd
00000330: 3f31 d43b b566 b33c 1453 693d 3812 2bbe
00000340: f5ce 23bd 1479 aebd 2a20 c4bc 1db2 51bd
00000350: ac28 e13d 9478 cfbd 8bc3 59be 2266 e6bc
00000360: ca18 01be ccdd 783b a56d 8f3d c2d4 42bd
00000370: ae19 dc3d 9344 8bbd 64b6 cebb ceea 493d
00000380: 9cce da3d 3f2d 103d 6c98 fabd 76dc 84be
00000390: 5943 62bc 53b9 c8bc 427b 01be 14b9 40bd
000003a0: 06ab 83bd 83c4 91bd 4f0c f8bd e2e0 2bbd
000003b0: 168f 8fbd 34a8 a2bd 0ac3 e73d 5f9f c73c
000003c0: 5d7d 9dbc 4cae 1f3e 03f3 8c3d 19bd 0d3e
000003d0: f3a5 e03d fa8c ec3d a769 21bd af11 85be
000003e0: aa34 043b 73ed 93bb e4a1 683c 5e73 293d
000003f0: d01f a83d 5984 28bb eccb d1bd 39aa 23ba

fc2.bias f4 [256]
0.015363455 0.11276005 0.2136026 0.19527934 0.11183348 -0.07511819 -0.16505033 0.17131655
0.2231435 0.11904758 0.14764798 0.13488452 0.16146074 0.17838901 0.16848862 0.13132516
-0.098063625 0.17700508 0.011555988 0.11721605 0.13287465 -0.040068317 -0.10603168 -0.09588218
-0.16838998 -0.11249528 -0.055573266 -0.052124474 -0.11832166 -0.070285894 0.013150319 0.19108321
0.017119829 0.15773866 -0.09265267 0.17081806 0.14306745 -0.13844238 0.20908079 0.17364143
-0.056187436 0.21227135 0.10938358 -0.119249366 -0.07589413 -0.111552544 -0.1238867 0.20086318
0.15993811 0.18336943 0.17003047 0.22386411 0.02463588 0.09136854 0.1929599 -0.06262257
0.19476153 0.22641924 0.12848291 0.13588597 0.17030545 0.19989851 -0.13073088 -0.1118632
0.06979175 -0.05566585 -0.13469103 -0.067610435 0.21273583 -0.016086208 -0.1288201 0.014148741
0.091573015 -0.06812115 0.20641029 -0.024399457 0.047249235 -0.008066998 0.103760995 -0.13240036
-0.15153356 -0.10254142 -0.14311855 -0.071897626 -0.009322976 0.20998974 0.057146177 0.0045463257
0.12647615 0.13074239 -0.009207035 -0.014751804 -0.09460863 -0.07099877 -0.10782726 0.14443578
0.067072555 0.13218664 -0.11261873 -0.11595671 0.21554407 -0.1019334 -0.067999154 -0.045602206
-0.100086875 0.19273925 0.12997073 -0.10078633 0.20634973 -0.06687017 0.07609738 -0.09772296
-0.122908846 0.19957724 0.19901276 -0.033385802 -0.058014754 0.16363005 0.0145504465 -0.09691699
0.12749124 0.14918171 0.021644486 0.108545825 0.16934288 0.12639453 -0.0063909623 0.016033076
0.0032538166 0.13448344 -0.12931405 -0.075528316 -0.13833249 -0.09536496 0.13750848 -0.036019083
-0.01091733 -0.066097975 0.10431479 0.19664674 0.17673053 0.0033847657 -0.024442088 0.13692081
-0.04866827 0.16373017 -0.13307191 -0.12539817 -0.044116054 0.20303488 -0.030722328 0.09862359
0.13976048 -0.03631797 -0.18662405 -0.10666735 -0.1258073 -0.049685754 0.06188318 -0.16022053
0.12519056 -0.11637412 0.21998243 -0.0043913866 0.15202132 0.21223415 0.09120748 0.15135834
0.17049712 0.1629119 0.16235466 -0.08287407 -0.012836367 -0.028030554 0.19668792 0.061321873
-0.014952717 -0.09527094 -0.013483572 0.15015504 -0.09135816 0.14391628 0.14011876 0.07217587
0.1421107 0.1895905 -0.0728883 0.15171205 0.11931206 -0.13107814 0.0043370654 -0.1236064
0.16375728 -0.061165117 -0.14013031 0.17309496 0.18327406 -0.0901048 0.2147039 -0.1038218
-0.07004177 0.16640179 -0.08857264 0.040018912 0.14177509 0.12157982 -0.026937505 -0.05563892
0.19537136 -0.17456862 0.11945491 0.1332703 -0.16722004 0.14729603 0.10051577 -0.07808705
0.042562436 0.1879123 0.005555961 0.004918524 -0.154103 -0.047991507 0.14557004 0.107824385
0.033907544 0.20914975 -0.10623981 -0.030223154 -0.03206833 0.017636206 -0.03838995 0.14078793
-0.0844302 0.20996729 -0.10224684 0.19722599 0.1448843 -0.07334911 -0.18165103 -0.022638045
-0.00490933 0.22520441 0.13633084 -0.014528007 0.23582746 0.091277875 0.20232466 -0.053652924
-0.06924075 -0.040941346 -0.059334647 0.07820524 0.214139 -0.035782017 -0.12395132 0.23181812
00000000: 00b7 7b3c beee e63d a4ba 5a3e 4ff7 473e
00000010: f408 e53d 91d7 99bd f402 29be 9b6d 2f3e
00000020: bb7f 643e 38cf f33d 0831 173e 2b1f 0a3e
00000030: f755 253e 9cab 363e 4888 2c3e 1a7a 063e
00000040: 95d5 c8bd d240 353e 5455 3d3c f80e f03d
00000050: 4b10 083e ad1e 24bd 2327 d9bd e05d c4bd
00000060: 6c6e 2cbe ed63 e6bd cba0 63bd 7980 55bd
00000070: a052 f2bd 0df2 8fbd 7074 573c 51ab 433e
00000080: e23e 8c3c 3e86 213e afc0 bdbd eeea 2e3e
00000090: 4680 123e d7c3 0dbe 4619 563e 0fcf 313e
000000a0: cc24 66bd a95d 593e 8004 e03d 0339 f4bd
000000b0: 626e 9bbd a975 e4bd 4fb8 fdbd 14af 4d3e
000000c0: d1c6 233e 32c5 3b3e 781c 2e3e a23c 653e
000000d0: 2fd1 c93c 6e1f bb3d 4897 453e 4340 80bd
000000e0: 916f 473e 72da 673e 0691 033e b125 0b3e
000000f0: 8d64 2e3e 32b2 4c3e 51de 05be 8918 e5bd
00000100: faee 8e3d e001 64bd 72ec 09be 5777 8abd
00000110: 6cd7 593e 39c7 83bc 6be9 03be 1fd0 673c
00000120: a28a bb3d 1a83 8bbd 385d 533e 5fe1 c7bc
00000130: 6a88 413d 712b 04bc a580 d43d f693 07be
00000140: 9d2b 1bbe 3c01 d2bd ab8d 12be 103f 93bd
00000150: 65bf 18bc 8d07 573e 1c12 6a3d 58f9 943b
00000160: f782 013e 55e1 053e 1bd9 16bc 8db1 71bc
00000170: 2bc2 c1bd ce67 91bd 8ad4 dcbd f9e6 133e
00000180: 565d 893d ef5b 073e a6a4 e6bd b67a edbd
00000190: 96b7 5c3e 75c2 d0bd 2443 8bbd 61c9 3abd
000001a0: 59fa ccbd 705d 453e 0c17 053e 1069 cebd
000001b0: 584d 533e 3af3 88bd f1d8 9b3d fa22 c8bd
000001c0: a2b7 fbbd fa5d 4c3e 00ca 4b3e 8dbf 08bd
000001d0: e1a0 6dbd a38e 273e ff64 6e3c 6a7c c6bd
000001e0: 108d 023e 17c3 183e c74f b13c 464d de3d
000001f0: 3868 2d3e 916d 013e 476b d1bb cc57 833c
00000200: fc3d 553b 07b6 093e e76a 04be 97ae 9abd
00000210: 08a7 0dbe b44e c3bd 06cf 0c3e bf88 13bd
00000220: 9ade 32bc 605e 87bd fea2 d53d c35d 493e
00000230: d9f8 343e f2d2 5d3b c63a c8bc f834 0c3e
00000240: 6158 47bd e2a8 273e 0144 08be 6168 00be
00000250: 09b3 34bd 60e8 4f3e 64ad fbbc 2afb c93d
00000260: 5f1d 0f3e 27c2 14bd 601a 3fbe 6974 dabd
00000270: a1d3 00be 4a83 4bbd 3879 7d3d da10 24be
00000280: f431 003e 8e55 eebd 1343 613e 9fe5 8fbb
00000290: 7aab 1b3e e953 593e fdca ba3d aefd 1a3e
000002a0: cc96 2e3e 61d2 263e 4d40 263e e1b9 a9bd
000002b0: a04f 52bc 55a0 e5bc 8f68 493e a52c 7b3d
000002c0: 3efc 74bc 691d c3bd 33ea 5cbc 3ec2 193e
000002d0: fd19 bbbd ca5e 133e 4b7b 0f3e f1d0 933d
000002e0: 7885 113e 0324 423e 7646 95bd 675a 1b3e
000002f0: e259 f43d 5939 06be f11d 8e3b 5a25 fdbd
00000300: fdaf 273e 4688 7abd 527e 0fbe ce3f 313e
00000310: 32ac 3b3e de88 b8bd 57db 5b3e 86a0 d4bd
00000320: 0f72 8fbd 3b65 2a3e 9365 b5bd dfea 233d
00000330: 7d2d 113e d7fe f83d 0bac dcbc a3e5 63bd
00000340: 6e0f 483e 1ec2 32be c7a4 f43d 0278 083e
00000350: bb3b 2bbe c5d4 163e 36db cd3d 1aec 9fbd
00000360: f355 2e3d 156c 403e c70e b63b 922b a13b
00000370: 2dcd 1dbe be92 44bd 5010 153e 08d3 dc3d
00000380: a3e2 0a3d 5a2b 563e 4294 d9bd 8c96 f7bc
00000390: 155a 03bd ce79 903c c83e 1dbd b62a 103e
000003a0: bee9 acbd aa01 573e cb66 d1bd 9cf5 493e
000003b0: 8d5c 143e 0f38 96bd ba02 3abe 6c73 b9bc
000003c0: 72de a0bb fc9b 663e 509a 0b3e e106 6ebc
000003d0: c17c 713e e5ef ba3d 322e 4f3e 2bc3 5bbd
000003e0: 18ce 8dbd 1db2 27bd e308 73bd 122a a03d
000003f0: 4147 5b3e 2a90 12bd 31da fdbd bb61 6d3e

fc_actor.weight f4 [20, 256]
0.0010231097 0.008110227 0.0009610547 0.033741158 -0.17111667 0.00031021488 -0.012149484 -0.00020878678
-0.06129197 0.0004333036 -0.10412495 0.01217017 0.037923593 -0.002120674 -0.0031265842 -0.03333004
-0.0018130136 -0.059895687 -0.023816116 0.060522597 0.049730062 -0.0066156336 0.031420782 -0.019299608
-0.011792002 0.0014128486 0.015575387 0.0033549496 -0.0046812976 0.0050790296 0.015510156 -0.019995045
-0.0069282935 -0.04808918 -0.0064942115 -0.03059917 -0.010392438 -0.034699854 0.04106161 0.0019074462
-0.07557075 0.011657473 0.028772056 -0.0059030065 -0.005579574 -0.006129193 -0.0067806365 -0.01105894
0.027827624 -0.048556797 0.030611439 0.028257104 0.012752363 0.06263507 0.006224905 -0.004190572
-0.010034915 -0.040492583 0.07779122 0.2821566 -0.0111462865 0.052325986 -0.007944945 -0.0071119475
-0.001182804 -0.012351582 0.00020550397 0.00826768 -0.007252345 0.014342844 0.006314889 0.0094279405
-0.066516474 0.022973673 0.0029466664 0.01240194 0.002000955 -0.01555295 -0.03620926 -0.028335867
0.02687214 0.06705142 -0.015302607 0.026781097 -0.015006379 0.05228645 -0.027711835 0.014868562
0.0138169825 0.08055136 0.0093269255 -0.016218986 -0.012961146 -0.0034749545 0.008158586 -0.057651486
0.008569516 0.013552876 -0.011773344 -0.0056424625 -0.026820995 0.013166683 0.015055832 0.013681966
0.018205374 -0.04773652 -0.03938777 -0.016814835 0.045893822 -0.020347996 0.0038825744 0.01268075
-0.011418721 -0.0122481035 0.029925412 -0.024505347 -0.011046584 -0.0037345204 0.019568907 0.009822365
-0.0070844814 0.026703488 -0.006796729 -0.012702162 -0.056320995 -0.0107253725 0.018621271 -0.020477865
0.016165515 -0.0036402475 -0.0005493948 0.0017954881 0.01887887 -0.0062379725 -0.0066265557 -0.014943108
-0.0056818253 0.028136853 -0.07551577 -0.009452568 0.0014101124 0.028359408 -0.005743452 0.034693174
0.117480814 0.019888295 0.014692265 0.017184759 -0.0073552304 -0.0023770223 0.0076160734 -0.0014404969
-0.097452536 -0.019463152 0.008367521 0.023137057 0.0033176395 0.0014057683 0.008440734 -0.019232618
-0.01177118 -0.00857539 0.059162173 0.0020898255 0.025968084 -0.0022137754 0.03224249 0.050837237
-0.0044389055 -0.044360664 -0.03803223 0.013930279 -0.035541177 -0.027567776 -0.046097852 -0.004232525
-0.03229276 0.014993218 -0.0009865661 -0.0034116858 -0.023262449 0.01710753 -0.0014004193 -0.0065655895
-0.0464631 0.010102507 0.025214812 0.027221391 0.1672214 -0.0013636772 -0.008694832 0.004073023
0.05770624 0.0528035 -0.013146782 0.039204035 0.025890356 -0.04952708 0.032788184 0.00021115925
0.011504644 -0.002474357 0.048423648 0.003512774 -0.017679585 -0.03208473 0.0023671484 0.0057795066
-0.04116468 0.004302758 0.03477322 -0.07618306 -0.009320045 -0.04262466 -0.16583952 -0.025949303
-0.019448973 -0.017614124 -0.013006846 -0.00725787 0.0060757287 0.049101584 -0.049634054 -0.038980555
0.0018681026 -0.004747786 0.01212266 -0.006561021 -0.00052507984 -0.0491932 0.022595368 -0.06225311
0.013487201 0.034026448 -0.006938243 0.015982337 0.04430669 0.0034450914 0.04194797 0.008599259
-0.003805372 -0.0023926457 -0.040955976 -0.028755993 0.048011087 0.12454483 0.028041106 0.022922957
-0.0020812985 -0.08032908 0.005316002 0.0037288722 0.028258303 0.015715286 -0.021603618 0.02333811
00000000: dd19 863a c2e0 043c 4aef 7b3a 2b34 0a3d
00000010: 3539 2fbe 56a4 a239 a10e 47bc c6ed 5ab9
00000020: 4a0d 7bbd 062d e339 763f d5bd 6565 473c
00000030: c555 1b3d 01fb 0abb 61e7 4cbb 1485 08bd
00000040: a4a2 edba 2e55 75bd 041a c3bc 8be6 773d
00000050: c0b1 4b3d f5c7 d8bb 14b3 003d 361a 9ebc
00000060: 3e33 41bc 552f b93a e82f 7f3c b7de 5b3b
00000070: 9265 99bb fd6d a63b 4f1e 7e3c a6cc a3bc
00000080: bd06 e3bb 29f9 44bd 65cd d4bb 1cab fabc
00000090: 0b45 2abc 6f21 0ebd 3830 283d 4603 fa3a
000000a0: d6c4 9abd fcfe 3e3c 60b3 eb3c 026e c1bb
000000b0: dcd4 b6bb 66d7 c8bb 1a30 debb 8e30 35bc
000000c0: c2f6 e33c 7ee3 46bd d7c4 fa3c 717b e73c
000000d0: 4aef 503c d146 803d 4afa cb3b 1151 89bb
000000e0: 7c69 24bc 8ddb 25bd 0151 9f3d d476 903e
000000f0: ea9e 36bc c653 563d 842b 02bc 570b e9bb
00000100: 5108 9bba 4a5e 4abc 8d7c 5739 2a75 073c
00000110: 14a5 edbb 3ffe 6a3c 21ed ce3b a677 1a3c
00000120: ca39 88bd 4933 bc3c dc1c 413b 8231 4b3c
00000130: 7422 033b cdd1 7ebc 2950 14bd 9f20 e8bc
00000140: f622 dc3c 4152 893d c9b7 7abc 0864 db3c
00000150: 51dd 75bc 512a 563d ee03 e3bc 459b 733c
00000160: a060 623c 1df8 a43d f6cf 183c aedd 84bc
00000170: fd5a 54bc 10bc 63bb 97ab 053c f723 6cbd
00000180: 2867 0c3c e20c 5e3c fce4 40bc 68e4 b8bb
00000190: b4b7 dbbc 12b9 573c bdac 763c 532a 603c
000001a0: 7023 953c 5f87 43bd 1255 21bd 44bf 89bc
000001b0: 29fb 3b3d d7b0 a6bc ca72 7e3b ecc2 4f3c
000001c0: 9615 3bbc 45ac 48bc 2326 f53c 70bf c8bc
000001d0: bbfc 34bc dbbe 74bb f94e a03c fced 203c
000001e0: f024 e8bb 46c1 da3c 18b7 debb bb1c 50bc
000001f0: d8b0 66bd 79b9 2fbc a38b 983c 32c1 a7bc
00000200: 8b6d 843c 3891 6ebb 4305 10ba 9556 eb3a
00000210: dca7 9a3c e867 ccbb 9423 d9bb f0d3 74bc
00000220: 9b2e babb 427f e63c 03a8 9abd f2de 1abc
00000230: 85d3 b83a fd51 e83c 9133 bcbb 6e1a 0e3d
00000240: c899 f03d c7ec a23c d3b7 703c 0dc7 8c3c
00000250: 2504 f1bb d1c7 1bbb 4190 f93b 0ecf bcba
00000260: 3295 c7bd 3071 9fbc ed17 093c ed89 bd3c
00000270: c16c 593b c241 b83a 014b 0a3c b98d 9dbc
00000280: e8db 40bc cb7f 0cbc 0954 723d 74f5 083b
00000290: 05bb d43c fd14 11bb b410 043d b53a 503d
000002a0: 3d74 91bb 87b3 35bd afc7 1bbd d33b 643c
000002b0: a093 11bd d1d5 e1bc 1ad1 3cbd feb0 8abb
000002c0: 6a45 04bd 1da6 753c aa4f 81ba 9796 5fbb
000002d0: e490 bebc 1725 8c3c 468e b7ba 2824 d7bb
000002e0: 1750 3ebd fc84 253c 4b8f ce3c 65ff de3c
000002f0: 163c 2b3e 6abd b2ba c574 0ebc fe76 853b
00000300: 615d 6c3d 7c48 583d 9a65 57bc 6994 203d
00000310: 0318 d43c e8dc 4abd e74c 063d a16a 5d39
00000320: f97d 3c3c d228 22bb e057 463d 9136 663b
00000330: c7d4 90bc 476b 03bd 2922 1b3b 0462 bd3b
00000340: 4c9c 28bd 26fe 8c3b 5d6e 0e3d dd05 9cbd
00000350: 1ab3 18bc 3297 2ebd d6d1 29be a293 d4bc
00000360: 7453 9fbc 7f4b 90bc ab1a 55bc 6dd3 edbb
00000370: e816 c73b be1e 493d 144d 4bbd 13aa 1fbd
00000380: 1fdb f43a 5193 9bbb 1f9e 463c d5fd d6bb
00000390: 83a5 09ba cf7e 49bd ec19 b93c 1efd 7ebd
000003a0: 6cf9 5c3c 515f 0b3d 335a e3bb 64ed 823c
000003b0: ef7a 353d 0bc7 613b a2d1 2b3d e8e3 0c3c
000003c0: 8c63 79bb efcd 1cbb 74c1 27bd b091 ebbc
000003d0: 46a7 443d 5c11 ff3d 76b6 e53c edc8 bb3c
000003e0: 6566 08bb 9383 a4bd db31 ae3b 1860 743b
000003f0: f57d e73c 58bd 803c 12fa b0bc 902f bf3c

fc_actor.bias f4 [20]
-0.05490007 0.011793583 -0.07329022 0.03977798 -0.0636279 -0.034593556 -0.04088302 0.007470804
-0.06663057 0.035637353 -0.022427836 -0.037740473 -0.011779029 0.017372008 0.09164255 -0.0028312937
-0.024660747 0.0033708971 -0.0012666411 -0.046737473
00000000: e5de 60bd df39 413c 2f19 96bd 3cee 223d
00000010: 584f 82bd f9b1 0dbd f474 27bd a5cd f43b
00000020: 9c75 88bd 79f8 113d 95ba b7bc c195 1abd
00000030: d4fc 40bc be4f 8e3c 17af bb3d 3a8d 39bb
00000040: 5605 cabc 45ea 5c3b 6c05 a6ba cb6f 3fbd

fc_critic.weight f4 [1, 256]
0.79519755 0.10104128 0.23352984 0.2749883 0.032682076 -0.4709742 -1.4483049 0.20564641
0.23836382 0.39336866 0.069191344 0.22212681 0.100531414 0.21262068 0.21661066 0.11585842
-0.3821436 0.22157554 0.46930975 0.11531493 0.11675372 -1.748241 -0.20747587 -0.49048308
-0.59220177 -0.3790808 -0.5649032 -0.71679354 -0.42154524 -0.38217163 1.4005922 0.2221176
-0.6708387 0.17967291 -0.37732598 0.20617191 0.40812975 -0.24322158 0.21470046 0.21745484
-0.20917624 0.17607535 0.09328522 0.8173758 -0.52999187 -1.1914272 -0.8654336 0.27094036
0.1766767 0.19799867 0.19947223 0.27895746 -1.2458259 0.1075374 0.25184685 -0.5148678
0.21674368 0.26845348 0.08778143 0.039283406 0.13081205 0.31160998 -0.4430011 -0.23303913
-0.7109696 -0.6369381 -0.43950662 -0.3833703 0.23140329 -0.32789907 -1.1568203 -1.6722213
0.094299525 -1.1677728 0.23706323 0.6110135 -1.3965029 -0.5665386 0.047891855 -0.39945447
-0.46965277 -0.39012703 -0.48458302 -0.32611632 -0.59548813 0.26414177 -0.96270746 -0.5027226
0.10794397 0.35737938 -1.3442907 0.4273387 -0.9479485 -1.1726545 -0.45756572 0.18746173
0.91809607 0.10487818 -0.42391446 -0.4321984 0.23557371 -0.51344436 -0.35213208 -0.37619102
-0.23503096 0.22695847 0.1033213 0.6042014 0.15815413 -0.4306809 1.0054928 -0.84055597
-1.4920478 0.16828302 0.13284363 -0.36627638 -1.2202498 0.22666599 -1.5682397 -0.46837184
0.14360833 0.36603665 -0.5889815 0.06429586 0.093946084 0.119894885 -0.64665765 1.1431162
-0.8410809 0.15723722 -0.71105146 -0.44173262 -0.6096507 -1.1900423 0.2559863 0.99717456
-0.83924556 -0.44854197 0.26416597 0.19675809 0.19430313 -0.68895245 -1.0766975 0.22440392
-0.039654076 0.29625666 -1.0305178 -0.41577682 -0.54336315 0.23775844 0.35412195 -0.564063
0.07444562 -0.9949947 -2.041279 -0.62710565 -0.7937085 -0.4480196 1.1673162 -1.1169055
0.39198932 -0.9536191 0.2499352 -0.5529963 0.13944066 0.24073784 0.49630967 0.17177178
0.1780413 0.17833552 0.26116553 -0.3066496 -0.5736284 -0.45861596 0.25491038 -0.72559017
-0.89387393 -0.5002941 -0.68036914 -1.6688328 -0.4354899 0.47802296 0.23480846 0.5737458
0.19144592 0.24952634 -0.48073176 0.07833291 0.038211465 -0.88336414 -0.6679141 -1.1744616
0.246248 -0.42919207 -0.49345145 0.09316562 0.08289737 -0.75937724 0.27339575 -1.3247411
-1.7054305 0.2607329 -0.3041517 0.66273886 0.073580906 0.13889928 -0.5717567 -0.6221638
0.26879042 -0.77116394 0.5222001 0.15700512 -0.28490505 0.19878039 0.11916908 -0.3920243
0.93118584 0.25883126 -0.8129964 -0.45974353 -1.4798344 -0.5430605 0.20751204 0.027621001
0.8856723 0.24939945 -1.4900888 -0.30787024 -0.4451434 -0.07165175 -0.8849674 0.06760871
-1.4331543 0.2103553 -0.6405206 0.311676 0.17525084 -0.73391116 -0.2568786 -0.4545953
-0.47214955 0.21697733 0.10740195 -0.6032683 0.27398345 0.07284942 0.2241034 -0.6821112
-1.8386227 0.0018029393 -0.59144974 0.55662626 0.19718716 -0.5423164 -0.26626784 0.22999646
00000000: 1192 4b3f bbee ce3d 7222 6f3e 44cb 8c3e
00000010: a4dd 053d 8823 f1be 0e62 b9bf f994 523e
00000020: a515 743e 9e67 c93e 31b4 8d3d 3675 633e
00000030: 6ae3 cd3d 3cb9 593e 2fcf 5d3e 2e47 ed3d
00000040: 53a8 c3be b3e4 623e 5e49 f03e 3c2a ec3d
00000050: 931c ef3d 5cc6 dfbf 8e74 54be 9920 fbbe
00000060: 899a 17bf e116 c2be 7f9d 10bf c87f 37bf
00000070: c7d4 d7be 00ac c3be 9b46 b33f cc72 633e
00000080: 16bc 2bbf 2dfc 373e df30 c1be bb1e 533e
00000090: 62f6 d03e 140f 79be 70da 5b3e 7bac 5e3e
000000a0: 4c32 56be 194d 343e 520c bf3d 8a3f 513f
000000b0: 8cad 07bf b080 98bf 0e8d 5dbf b2b8 8a3e
000000c0: bdea 343e 2ac0 4a3e 7342 4c3e 83d3 8e3e
000000d0: 3977 9fbf 923c dc3d 12f2 803e 60ce 03bf
000000e0: 0ef2 5d3e bc72 893e c0c6 b33d a3e7 203d
000000f0: 98f3 053e 588b 9f3e 0ad1 e2be cfa1 6ebe
00000100: 1b02 36bf 600e 23bf 0307 e1be 1d49 c4be
00000110: fcf4 6c3e 63e2 a7be b012 94bf 590b d6bf
00000120: 1c20 c13d 9479 95bf b4c0 723e 616b 1c3f
00000130: 9bc0 b2bf ac08 11bf 402a 443d 4c85 ccbe
00000140: 5476 f0be bbbe c7be 441b f8be b8f8 a6be
00000150: e971 18bf 973d 873e ff73 76bf 6eb2 00bf
00000160: ba11 dd3d 6efa b63e b811 acbf 23cc da3e
00000170: c1ac 72bf 8b19 96bf 0e46 eabe f8f5 3f3e
00000180: 5808 6b3f 5fca d63d 510b d9be 1c49 ddbe
00000190: 3c3a 713e 1771 03bf a84a b4be 1c9c c0be
000001a0: f5ab 70be cd67 683e 1e9a d33d f1ac 1a3f
000001b0: 28f3 213e 3582 dcbe fdb3 803f ad2e 57bf
000001c0: 6cfb bebf 6252 2c3e 2908 083e 9488 bbbe
000001d0: 2531 9cbf 211b 683e 14bc c8bf 6fce efbe
000001e0: 100e 133e 2869 bb3e 7ec7 16bf 8cad 833d
000001f0: ce66 c03d 738b f53d 5b8b 25bf a251 923f
00000200: 1451 57bf cb02 213e 7807 36bf c72a e2be
00000210: 1112 1cbf 4e53 98bf a310 833e d546 7f3f
00000220: ccd8 56bf 4ba7 e5be c340 873e f47a 493e
00000230: 66f7 463e 305f 30bf 39d1 89bf 24ca 653e
00000240: 506c 22bd f4ae 973e 02e8 83bf b3e0 d4be
00000250: d919 0bbf f376 733e 794f b53e 6f66 10bf
00000260: f276 983d f9b7 7ebf 51a4 02c0 ff89 20bf
00000270: 7b30 4bbf d362 e5be 9e6a 953f c2f6 8ebf
00000280: d3b2 c83e 6220 74bf 03ef 7f3e 2a91 0dbf
00000290: 88c9 0e3e fb83 763e 4d1c fe3e f1e4 2f3e
000002a0: 7550 363e 969d 363e 7db7 853e 2d01 9dbe
000002b0: 50d9 12bf b6cf eabe 9d83 823e 47c0 39bf
000002c0: ecd4 64bf 4613 00bf ac2c 2ebf 509c d5bf
000002d0: 88f8 debe 6dbf f43e a171 703e 01e1 123f
000002e0: 660a 443e d583 7f3e 7922 f6be 016d a03d
000002f0: a083 1c3d 2724 62bf 6bfc 2abf c254 96bf
00000300: 7028 7c3e 10bf dbbe aba5 fcbe 9ecd be3d
00000310: 19c6 a93d 8c66 42bf 87fa 8b3e 1e91 a9bf
00000320: 8c4b dabf c87e 853e c6b9 9bbe 41a9 293f
00000330: 96b1 963d 9d3b 0e3e a65e 12bf 2046 1fbf
00000340: e69e 893e 006b 45bf e8ae 053f f3c5 203e
00000350: 13df 91be 168d 4b3e eb0e f43d 69b7 c8be
00000360: 3262 6e3f 8885 843e 8820 50bf 8163 ebbe
00000370: 376b bdbf 0306 0bbf 097e 543e 7045 e23c
00000380: 6bbb 623f 9262 7f3e 3bbb bebf 2ba1 9dbe
00000390: d6e9 e3be 27be 92bd 398d 62bf 6f76 8a3d
000003a0: 9a71 b7bf 6167 573e 28f9 23bf ff93 9f3e
000003b0: f574 333e 9ae1 3bbf 9885 83be b7c0 e8be
000003c0: 96bd f1be 4e2f 5e3e 8ef5 db3d cb6f 1abf
000003d0: 8f47 8c3e 1432 953d 5d7b 653e d79e 2ebf
000003e0: fd57 ebbf 9b50 ec3a 4069 17bf 0f7f 0e3f
000003f0: 6eeb 493e 3fd5 0abf 4254 88be 3184 6b3e
