saved_models/crawler_ppo.ckpt (torch_old, 835520 bytes, 10 tensors)

std f4 [1, 20]
0	0x00000000	0.0
1	0x00000000	0.0
2	0x00000000	0.0
3	0x00000000	0.0
4	0x00000000	0.0
5	0x00000000	0.0
6	0x00000000	0.0
7	0x00000000	0.0
8	0x00000000	0.0
9	0x00000000	0.0
10	0x00000000	0.0
11	0x00000000	0.0
12	0x00000000	0.0
13	0x00000000	0.0
14	0x00000000	0.0
15	0x00000000	0.0
16	0x00000000	0.0
17	0x00000000	0.0
18	0x00000000	0.0
19	0x00000000	0.0

fc1.weight f4 [512, 129]
0	0xbdcf66e2	-0.10127045
1	0xbee6dcfb	-0.4509047
2	0x4027e39e	2.6232677
3	0x3d95b2f1	0.07309521
4	0xbddaced4	-0.106839806
5	0x3eef203c	0.4670428
6	0x3c957cd0	0.018247992
7	0xbea65157	-0.32483932
8	0xbe9d02ca	-0.3066619
9	0x3f5b081c	0.8555925
10	0xbda76e39	-0.0817532
11	0xbcfc6382	-0.030809168
12	0xbda5a3a6	-0.08087854
13	0x3dd8d1cc	0.105868906
14	0x3d7b269a	0.06131611
15	0x3d61a240	0.055086374
16	0xbd89f717	-0.06736582
17	0xbd491146	-0.04908874
18	0x3da6ef85	0.081511535
19	0x3d1f73ae	0.03892868
20	0xbd67088e	-0.056404643
21	0x3d7465e9	0.0596675
22	0x3d3befbd	0.04588293
23	0x3dae0de3	0.084987424
24	0xbdb70ad6	-0.08937614
25	0x3cfc4773	0.030795788
26	0xbce8887c	-0.028385393
27	0xbbcc45b5	-0.0062338957
28	0x3c6e54a5	0.014546548
29	0x3c9996b0	0.018748611
30	0xbd43567c	-0.0476899
31	0x3bba5de1	0.005687461
32	0x3cb400e1	0.021973075
33	0xbd89c1f3	-0.06726446
34	0x3cd38e29	0.025824623
35	0x3d4fce4c	0.05073385
36	0x3d904646	0.070446536
37	0x3d383f89	0.044982467
38	0x3dc963fa	0.09833522
39	0x3cada170	0.021195143
40	0xbd5b7499	-0.053577993
41	0xbc852152	-0.01625124
42	0x3d97fc62	0.07421185
43	0x3d06db00	0.0329237
44	0xbcc7b04d	-0.024376059
45	0xbd9d5a67	-0.076832585
46	0x3de3796e	0.11107145
47	0xbd737acc	-0.05944328
48	0xbda6ce00	-0.0814476
49	0x3dc03978	0.09385961
50	0x3d5d7e06	0.054075263
51	0x3daf28d2	0.08552708
52	0x3d9b4f4a	0.075834826
53	0xbe005ff0	-0.12536597
54	0x3d847b78	0.06468862
55	0x3dc867e7	0.09785443
56	0xbccde42e	-0.025133219
57	0xbd4a14cf	-0.04933625
58	0x3dc87194	0.09787288
59	0x3e498d92	0.19682911
60	0x3dd64b9a	0.104636386
61	0xbdcfcf19	-0.101469226
62	0x3d894f45	0.067045726
63	0x3cbfd44f	0.023416666
64	0xbc34891a	-0.011019016
65	0x3c867648	0.016413823
66	0xbb615a35	-0.0034386043
67	0xbebe9a64	-0.37227166
68	0x3d5d4b14	0.05402668
69	0x3de86e99	0.1134922
70	0x3cd809ac	0.0263718
71	0xbdaf09fa	-0.08546825
72	0xbda0de6f	-0.07854926
73	0xbcf2949a	-0.029611874
74	0x3abd2a4a	0.0014432159
75	0x3ce20f67	0.027595235
76	0x3ddeec08	0.10884863
77	0x3c350f89	0.011051067
78	0x3cf2da05	0.029644975
79	0xbd13f65d	-0.036123622
80	0x3d206371	0.039157335
81	0xbdb9f66d	-0.09080205
82	0x3d9e1a5f	0.07719874
83	0x3d1352c8	0.03596762
84	0x3d0c08f3	0.034188222
85	0xbd3424ff	-0.043980595
86	0x3b8663db	0.004101259
87	0x3db5e600	0.0888176
88	0xbc084d3a	-0.0083191935
89	0x3d324328	0.043521076
90	0x3d91e27d	0.07123277
91	0x3dae82e8	0.08521062
92	0x3d86e6ce	0.06586991
93	0x3d040173	0.032227945
94	0x3d729eba	0.059233405
95	0xbe8f9cc0	-0.28049278
96	0x3d682cea	0.05668346
97	0x3c7d243a	0.015450532
98	0xbd4a09ae	-0.049325638
99	0xbd8f988f	-0.0701152
100	0x3c9e68c9	0.019337075
101	0xbd98d56b	-0.07462581
102	0xbca0b644	-0.019618161
103	0x3d8087ba	0.06275888
104	0x3db329e3	0.08748224
105	0x3db4d9ec	0.08830628
106	0x3b854520	0.004067078
107	0xbd479a0f	-0.048730906
108	0xbd202c76	-0.0391049
109	0x3e040d2e	0.12895653
110	0x3caaba38	0.02084075
111	0xbc95c4da	-0.018282343
112	0xbce2735f	-0.027642904
113	0x3d222c1c	0.039592847
114	0xbd18226a	-0.037142195
115	0xbe097c40	-0.13426304
116	0xbd4ad56e	-0.04951995
117	0x3c4a2d02	0.012339832
118	0x3bcd6b4e	0.006268895
119	0x3da1fa70	0.07909095
120	0xbc947bae	-0.018125381
121	0x3d96d636	0.07365076
122	0x3e30083f	0.17190646
123	0x3ee398f2	0.44452626
124	0xbc06b93e	-0.008222876
125	0xbe8141a0	-0.2524538
126	0xbcfa9f6e	-0.0305936
127	0x3ca4d158	0.020119354
128	0x3d3ce0db	0.046112876
129	0x3d77511a	0.06038008
130	0xc0302821	-2.7524493
131	0x400de40d	2.217044
132	0xbc461d7d	-0.0120919915
133	0x3dd2e270	0.10297096
134	0x3dd4eaea	0.10396369
135	0x3e393847	0.18087874
136	0xbe0edfb2	-0.1395252
137	0xbe195119	-0.14972343
138	0xbd71e46d	-0.059055734
139	0x3b9228b0	0.0044604167
140	0x3d116cc0	0.035504103
141	0xbc3e4665	-0.011613463
142	0xbdb9a0ee	-0.09063898
143	0xbd70f2e6	-0.058825396
144	0x3e0f61e5	0.14002188
145	0xbca6873e	-0.02032816
146	0x3cffeb94	0.031240262
147	0x3d905746	0.07047896
148	0x3d365e32	0.044523425
149	0xbbc47982	-0.00599593
150	0xbcb87127	-0.022514893
151	0xbdb8e058	-0.09027165
152	0x3d6438ab	0.055718105
153	0x3d7404b7	0.05957481
154	0xbe1c5a7c	-0.15268892
155	0xbdbff96a	-0.09373744
156	0x3d9b5197	0.075839214
157	0xbc5dde76	-0.013541808
158	0x3d4f0a80	0.050547123
159	0xbd2d0e2e	-0.04224985
160	0x3b3a471b	0.002842373
161	0x3bfd0351	0.0077213426
162	0x3d632f2a	0.0554649
163	0xbd9583a3	-0.07300498
164	0x3d9a4e30	0.07534444
165	0x3c00de62	0.00786552
166	0x3d4df74d	0.050284673
167	0x3c3181fe	0.010834215
168	0xbe1553d6	-0.14582762
169	0xbd6773a6	-0.056506775
170	0x3d7536b2	0.059866615
171	0xbc9167f4	-0.017749764
172	0xbda8d622	-0.082439676
173	0x3d9570f9	0.072969384
174	0xbc62e648	-0.013848849
175	0x3e086f37	0.13323675
176	0xbd30b496	-0.04314097
177	0x3abf3367	0.0014587463
178	0xbcd481bf	-0.025940774
179	0xbcfcc282	-0.030854467
180	0x3d81e8aa	0.06343205
181	0xbd62bb53	-0.055354428
182	0x3dd51d14	0.10405937
183	0xbe0b53b3	-0.13606147
184	0x3da2c050	0.07946837
185	0xbbb4f898	-0.0055227987
186	0xbd990ca9	-0.07473118
187	0x3d9618bd	0.07328937
188	0x3d4837a1	0.048881177
189	0x3d10b4cb	0.035328668
190	0x3d8acdbc	0.06777522
191	0x3d886118	0.06659144
192	0x3d48ed64	0.04905452
193	0x3ce429eb	0.02785202
194	0x3cafd108	0.021461979
195	0xbd551b9b	-0.05202828
196	0xbdd09a37	-0.10185664
197	0xbe16e3da	-0.14735356
198	0x3e2593c9	0.16169657
199	0x3da60a0e	0.081073865
200	0xbd4f526e	-0.05061572
201	0x3d1ecc55	0.038769085
202	0xbd9536c1	-0.07285834
203	0x3d9319c4	0.07182649
204	0xbd5b092b	-0.05347554
205	0xbd2f39e1	-0.042779807
206	0x3d33ddb6	0.043912612
207	0xbce9dcc4	-0.028547652
208	0xbd34aecb	-0.044112008
209	0xbe19055e	-0.14943454
210	0xbd553230	-0.052049816
211	0x3ce7d103	0.028297907
212	0x3aa8b370	0.0012870859
213	0x3c9fd777	0.019511921
214	0x3d0c3e72	0.03423924
215	0xbd1f4193	-0.038880896
216	0x3e3b2ac0	0.18278027
217	0xbd880341	-0.06641246
218	0xbd40bab5	-0.047053058
219	0xbd44677f	-0.047950264
220	0xbcb1b575	-0.02169297
221	0x3d7b8e5d	0.061415065
222	0x3bb7d473	0.0056100427
223	0xbe14b5de	-0.14522502
224	0x3e1f0bf5	0.15531905
225	0xbc13602f	-0.0089951
226	0xbc918005	-0.01776124
227	0xbd120a85	-0.035654563
228	0x3dafa9ea	0.085773304
229	0x3d0fd3e3	0.03511418
230	0x3db19180	0.0867033
231	0x3deffedc	0.117185324
232	0xbd10211a	-0.035187818
233	0x3bf6bca2	0.007529811
234	0xbd24ad80	-0.040204525
235	0xbdaa3754	-0.08311334
236	0x3c96e205	0.018418321
237	0xbd1aebfa	-0.0378227
238	0xbdff6af4	-0.124715716
239	0x3d83a5a7	0.0642808
240	0x3e223730	0.15841365
241	0x3c203364	0.0097778775
242	0x3d8b7a48	0.06810433
243	0x3cfe7c69	0.031065183
244	0xbc4e9d3c	-0.01261073
245	0x3d2939d3	0.04131491
246	0x3d979515	0.07401482
247	0xbba3a5a9	-0.0049941135
248	0xbc9c932e	-0.01911315
249	0xbd9438e3	-0.07237413
250	0xbd683ca2	-0.05669845
251	0xbc8762fb	-0.01652669
252	0xbcb175e7	-0.021662666
253	0x3e259233	0.16169052
254	0xbdacecca	-0.084436014
255	0xbb43af60	-0.002985917

fc1.bias f4 [512]
0	0x3d28c82c	0.041206524
1	0x3cc2449b	0.023714354
2	0xbd1d58de	-0.03841483
3	0xbc86d527	-0.01645906
4	0x3e07e2cb	0.13270108
5	0x3cba6e55	0.022757689
6	0xbde03771	-0.109480746
7	0xbd992566	-0.07477836
8	0x3e2132fd	0.15742107
9	0x3d72c1fb	0.059267025
10	0xbc60735f	-0.013699382
11	0x3e5bbdf0	0.21459174
12	0xbde07b50	-0.1096102
13	0x3d80dbb3	0.06291904
14	0xbdb4dfc1	-0.0883174
15	0xbd0b2827	-0.03397384
16	0x3c42ead5	0.011896809
17	0xbe220186	-0.15820894
18	0x3d6e1b31	0.0581314
19	0x3d600fb4	0.054702476
20	0xbda48e6c	-0.08034977
21	0xbd44f880	-0.04808855
22	0x3d2d9c2e	0.042385273
23	0x3c79b100	0.015239954
24	0xbce9c980	-0.028538465
25	0xbd5eae4e	-0.05436545
26	0xbd908246	-0.07056098
27	0xbe574b82	-0.21024898
28	0x3d1ee994	0.038796976
29	0x3e23d7cd	0.1600029
30	0x3dab944f	0.08377897
31	0x3d023e19	0.031797502
32	0x3ba7a302	0.0051158676
33	0x3e37d52e	0.17952415
34	0x3dee68de	0.116410956
35	0x3de230c5	0.11044458
36	0xbc84ad30	-0.016195863
37	0xbd9098d5	-0.070604004
38	0xbcf03312	-0.029321227
39	0x3db8f5c6	0.090312526
40	0xbe819db8	-0.25315642
41	0x3dd13e3e	0.1021695
42	0x3ca0431c	0.01956325
43	0x3e408340	0.18800068
44	0xbd92000c	-0.07128915
45	0xbd6bdb3a	-0.057582118
46	0xbd848eed	-0.064725734
47	0x3deff5e5	0.117168225
48	0x3e599f49	0.21252169
49	0xbd8414d2	-0.06449284
50	0x3cf69aa9	0.030103045
51	0x3d92a6cb	0.071607195
52	0x3df82bf6	0.1211776
53	0x3ca928b1	0.020649286
54	0x3dc8e10c	0.09808549
55	0xbd3149be	-0.043283217
56	0x3de43510	0.11142933
57	0x3d5c35bf	0.053762194
58	0xbe1d6d83	-0.15373807
59	0x3d971c52	0.073784485
60	0xbc4fd6a5	-0.012685453
61	0xbbdb9181	-0.006700695
62	0x3e052cb6	0.13005337
63	0x3dedb790	0.116072774
64	0x3e1231cc	0.14276809
65	0x3c99c2ff	0.01876974
66	0x3df87ddc	0.12133381
67	0xbcc92754	-0.024554886
68	0x3d15241e	0.036411397
69	0x3da0b7f2	0.07847585
70	0x3e0485fe	0.12941739
71	0xbc2230e4	-0.009899352
72	0x3d96a420	0.07355523
73	0x3da3eadb	0.080037795
74	0x3e38d711	0.18050791
75	0x3e05269e	0.13003013
76	0x3d3bed44	0.04588057
77	0xbdb4f6aa	-0.0883611
78	0xbe101d92	-0.1407378
79	0xbd9233e8	-0.071388066
80	0x3defea05	0.117145576
81	0x3d981291	0.07425416
82	0x3ce18a83	0.027531868
83	0x3c8cf930	0.017208666
84	0xbe10e63e	-0.1415033
85	0x3e5399cc	0.20664138
86	0x3d9bb3ca	0.076026514
87	0xbd9d1ee7	-0.0767191
88	0x3c697406	0.014248854
89	0xbd5bea8c	-0.05369048
90	0xbc8e2e7f	-0.017356155
91	0x3dad57b0	0.08463991
92	0xbe433227	-0.190621
93	0xbccf2283	-0.025285011
94	0xbd230c33	-0.039806556
95	0xbd0b9eb4	-0.034086898
96	0x3e410f9a	0.18853608
97	0x3e140683	0.14455609
98	0x3e260046	0.16211042
99	0xbd67559b	-0.056478124
100	0x3de7643e	0.112984166
101	0xbe005858	-0.125337
102	0x3c1f63b5	0.009728362
103	0xbd3a5ddc	-0.045499668
104	0x3d0988b6	0.033577643
105	0x3e2b33cd	0.16718979
106	0x3e1154ea	0.14192548
107	0xbe467ac7	-0.19382773
108	0x3e54642b	0.20741336
109	0x3e22ff1e	0.15917632
110	0x3e6ec373	0.23316745
111	0x3e00ba24	0.12571007
112	0x3e7cf401	0.24702455
113	0xbd39db36	-0.04537507
114	0x3b9fcb90	0.0048765615
115	0x3d980d77	0.07424443
116	0x3d84adae	0.06478439
117	0x3d48c5d5	0.049016792
118	0x3c9463cc	0.018113993
119	0x3d85fe5a	0.06542654
120	0x3c965ca8	0.018354729
121	0x3ddec985	0.108782806
122	0x3d54eb1a	0.051982023
123	0x3daa5fb1	0.08319033
124	0xbd5ed81c	-0.054405317
125	0xbd0bc312	-0.03412158
126	0x3dad7b39	0.084707685
127	0xbdbfe350	-0.09369528
128	0x3dbb6fbb	0.0915217
129	0x3c87d56c	0.01658126
130	0xbdc004a8	-0.09375888
131	0x3cd7ccb5	0.02634273
132	0x3d848d5d	0.064722754
133	0x3c4ebec9	0.012618729
134	0xbb97277f	-0.0046128626
135	0x3de84ca6	0.113427445
136	0x3d84d53f	0.06485986
137	0xbbbfd436	-0.005854155
138	0x3d619ff2	0.055084176
139	0x3e0546e7	0.13015328
140	0x3d830e22	0.0639918
141	0x3dee9909	0.11650283
142	0x3db55244	0.088535815
143	0xbdfad5e0	-0.12247825
144	0xbd6de16f	-0.05807632
145	0xbd6539db	-0.05596338
146	0x3e2e3217	0.17011295
147	0xbdbfaaf6	-0.0935878
148	0xbd63fa31	-0.055658523
149	0x3d872ddc	0.06600544
150	0x3d1c41a1	0.038148526
151	0xbd1614b9	-0.036640856
152	0x3da63b20	0.08116746
153	0xbd035d39	-0.032071326
154	0x3b7ef8cf	0.0038905626
155	0x3c50eb5e	0.012751428
156	0x3dd3ce0b	0.10342034
157	0x3dee6c73	0.11641779
158	0x3c2e1942	0.010626139
159	0x3cf65e63	0.030074304
160	0x388bc04e	6.663856e-05
161	0x3d115be5	0.035488028
162	0xbe455ce4	-0.19273716
163	0xbcef8279	-0.029237019
164	0x3da7d653	0.08195176
165	0xbd9e9b98	-0.07744521
166	0xbe06792e	-0.13132164
167	0xbdf795aa	-0.12089093
168	0x3da6aa2d	0.08137927
169	0xbe501249	-0.20319475
170	0x3d9ba7c0	0.07600355
171	0x3d8ffa68	0.07030183
172	0x3e209ca9	0.15684761
173	0xbe21db05	-0.15806206
174	0x3d856ee7	0.065152936
175	0xbcf14fb2	-0.029456947
176	0xbde0bf93	-0.1097404
177	0xbe037395	-0.1283706
178	0x3d919fa0	0.07110524
179	0x3e3dde22	0.18541768
180	0xbddff4e2	-0.109353796
181	0x3db8dd1d	0.09026549
182	0x3d99e748	0.075148165
183	0x3e00d91e	0.12582824
184	0xbda05fd9	-0.078307815
185	0x3e0084b9	0.1255063
186	0xbdd10d2e	-0.10207592
187	0x3d7e53eb	0.06209175
188	0x3de0ef17	0.10983103
189	0xbdc53238	-0.09628719
190	0x3d1e5162	0.03865183
191	0xbc9866bd	-0.018603677
192	0xbdbcbf9a	-0.092162326
193	0xbde75ac3	-0.11296608
194	0xbd82875a	-0.063734725
195	0xbc77d377	-0.015126101
196	0xbd0ec560	-0.0348562
197	0xbe50d732	-0.2039459
198	0x3ce174d5	0.02752153
199	0xbd72a2f0	-0.05923742
200	0xbd3d89ea	-0.046274103
201	0x3e19fa5b	0.1503691
202	0x3dca88ac	0.09889349
203	0x3e1e9b15	0.15488847
204	0x3e68b9d7	0.22727142
205	0xbdd75d43	-0.10515835
206	0xbd6bb8aa	-0.057549156
207	0x3e163efd	0.14672466
208	0xbd69f3ec	-0.057117388
209	0x3e1f0888	0.15530598
210	0x3d7633ba	0.060107924
211	0x3c443859	0.011976325
212	0x3db02905	0.08601574
213	0xbccb5d2d	-0.024824703
214	0x3e085691	0.13314272
215	0x3d6c47cb	0.057685655
216	0xbd2190be	-0.039444678
217	0x3e5c14b1	0.21492268
218	0xbdbb0a2a	-0.09132798
219	0x3d9b971c	0.07597181
220	0xbd031a01	-0.03200722
221	0xbdb76959	-0.0895564
222	0x3e0df314	0.13862258
223	0x3cea2b2f	0.028585045
224	0x3e3dcbb5	0.1853474
225	0x3d399488	0.045307666
226	0xbc58b38e	-0.013226403
227	0x3d9b9f9b	0.07598802
228	0xbde78501	-0.11304665
229	0x3ca89005	0.020576486
230	0x3dfeb9a9	0.124377556
231	0xbc41a4c5	-0.011819069
232	0x3ddd43eb	0.1080397
233	0x3d4cd449	0.05000714
234	0x3e274c03	0.1633759
235	0x3df9f02c	0.12204012
236	0x3dd7fd7f	0.105463974
237	0x3e4e0e51	0.20122649
238	0x3e52b693	0.20577459
239	0x3e1b1cbe	0.15147683
240	0x3c5f32dc	0.013622966
241	0x3d7a643f	0.06113076
242	0x3e1f5521	0.15559818
243	0x3e1f2f44	0.15545374
244	0x3dc2c137	0.09509509
245	0x3daee769	0.08540232
246	0x39232878	0.00015559967
247	0x3e02b7f4	0.12765485
248	0x3e10a0c2	0.14123824
249	0x3e0027cc	0.12515181
250	0xbd6428ef	-0.0557031
251	0xbb591fe0	-0.0033130571
252	0x3e4d4559	0.20045985
253	0x3da9cfaa	0.08291562
254	0x3d8bfbb1	0.06835116
255	0x3d5f6567	0.054540064

fc2.weight f4 [256, 512]
0	0x3c7ab09d	0.015300897
1	0xbc828c2c	-0.01593598
2	0x3cac712b	0.021050056
3	0x3ce53099	0.027977275
4	0xbd65be05	-0.05608942
5	0x3d24b1e7	0.040208723
6	0x3af8db33	0.0018986225
7	0x3d999405	0.074989356
8	0x3c727636	0.0147986915
9	0xbb252cab	-0.0025203626
10	0x3d088960	0.033334136
11	0xbdc7e682	-0.09760763
12	0x3c81409c	0.015777878
13	0xbd270891	-0.040779654
14	0x3e06abdf	0.13151501
15	0x3dea2acf	0.11433946
16	0xbd9f33ab	-0.07773527
17	0x3ba0d4f0	0.0049081966
18	0xbd62e001	-0.055389408
19	0x3b5fde5b	0.0034159634
20	0x3e4a9574	0.19783574
21	0xbb2bb324	-0.0026199305
22	0x3cdd1642	0.026988152
23	0x3df097c8	0.117477
24	0xbcd830e4	-0.0263905
25	0xbd30584f	-0.043052968
26	0xbdb9e9d3	-0.090778016
27	0x3dbe47b4	0.0929102
28	0x3d23b106	0.039963745
29	0x3c35b42c	0.01109032
30	0x3da8ad16	0.082361385
31	0xbc93fdc7	-0.018065346
32	0x3d794ede	0.06086623
33	0xbd18b72e	-0.03728407
34	0xbddb2ef3	-0.10702314
35	0xbddf6dc9	-0.10909612
36	0x3c06094e	0.008180929
37	0x3bd6fd36	0.006560947
38	0xbe138515	-0.14406236
39	0xbd16898f	-0.03675228
40	0x3da1460f	0.07874691
41	0x3d0c1a3a	0.0342047
42	0xbc351d03	-0.01105428
43	0x3db5e290	0.08881104
44	0x3d5c1836	0.053734027
45	0x3dfa2913	0.122148655
46	0x3d172fdd	0.03691088
47	0x3db0a1cf	0.086246125
48	0xbd3736bd	-0.044729937
49	0x3d5f832b	0.05456845
50	0x3db1970a	0.086713865
51	0x3c54e68a	0.012994418
52	0xbe00e888	-0.12588704
53	0x3d970d8c	0.07375631
54	0x3d99ed9f	0.07516026
55	0x3d3862ca	0.045016088
56	0xbddf45c0	-0.10901976
57	0x3cde5d15	0.027143994
58	0xbad9adac	-0.0016607544
59	0x3cdb9f0d	0.02680924
60	0xbc90a5f3	-0.017657256
61	0x3dff4904	0.124650985
62	0x3e0be7b0	0.136626
63	0x3c8cddc8	0.017195597
64	0xbd20f0e1	-0.03929222
65	0x3d31ff2a	0.043456234
66	0x3d800305	0.06250576
67	0x3e076b6c	0.13224572
68	0xbe167c87	-0.14695941
69	0xbe584092	-0.21118382
70	0x3db3e7c6	0.08784442
71	0xbcc4867f	-0.023989914
72	0x3a4c62c4	0.00077966996
73	0x3d241ffc	0.040069565
74	0xbc9dd131	-0.01926479
75	0x3d982096	0.0742809
76	0x3c93560d	0.017985368
77	0x3cc717d7	0.02430336
78	0x3d1079b1	0.035272304
79	0x3d580b0c	0.05274491
80	0xbc970887	-0.018436683
81	0x3dc78186	0.097415015
82	0xbbb289a8	-0.005448539
83	0xbd17fe57	-0.03710779
84	0xbdd948a7	-0.106095605
85	0xbc9a94b3	-0.018869733
86	0xbc4cdb83	-0.012503508
87	0xbd99362e	-0.07481037
88	0xbcc3a65b	-0.023883035
89	0xbe0b2518	-0.13588369
90	0xbcb1140f	-0.02161601
91	0xbe2ba294	-0.16761237
92	0xbd727f4c	-0.05920343
93	0xbdd3bbc0	-0.10338545
94	0x3d1b5386	0.03792145
95	0xbd2d5a4e	-0.04232245
96	0x3bcbaa3b	0.0062153614
97	0x3d1f414c	0.03888063
98	0xbc1db7e2	-0.009626361
99	0x3d26b13a	0.04069636
100	0x3d88da5d	0.066822745
101	0x3d840838	0.0644688
102	0x3d496573	0.049169015
103	0x3cd31470	0.025766581
104	0xbd89da53	-0.06731095
105	0xbdcff438	-0.10154003
106	0xbc8a976b	-0.016917905
107	0xbd4b4d92	-0.049634524
108	0x3d0844c2	0.033268698
109	0xbd04cea8	-0.032423645
110	0xbd3cbbaf	-0.046077427
111	0x3db36b84	0.08760741
112	0xbe0eafba	-0.13934222
113	0x3d863f24	0.06555012
114	0x3ccb04ee	0.024782624
115	0xbe0057c6	-0.12533483
116	0xbc44f748	-0.012021847
117	0xbd855eb9	-0.065122075
118	0xbd5da150	-0.054108918
119	0xbd7f3687	-0.06230786
120	0xbe10676c	-0.14101952
121	0x3d006560	0.03134668
122	0xbddb9e43	-0.107235454
123	0xbc78c5d0	-0.015183881
124	0x3dd8f13f	0.10592889
125	0xbe0a377f	-0.13497733
126	0x3deecf45	0.11660627
127	0xbe5ba225	-0.21448572
128	0xbc83914d	-0.016060496
129	0xbe0221d6	-0.1270822
130	0x3d28d2b5	0.04121657
131	0xbd9c6fbc	-0.07638499
132	0x3dc4d304	0.096105605
133	0xbc8b8777	-0.017032368
134	0x3daefbb7	0.085441045
135	0x3c70e15d	0.014702168
136	0xbdc090c9	-0.094026156
137	0xbb9ec65d	-0.004845424
138	0xbda55258	-0.080723464
139	0x3d9c5700	0.076337814
140	0x3d513b73	0.051082086
141	0xbc6ead87	-0.014567739
142	0xbde5407e	-0.111939415
143	0xbc886241	-0.016648414
144	0x3ddb8982	0.10719587
145	0x3c44d5ab	0.012013833
146	0x3d807797	0.0627281
147	0xbddfe5ac	-0.10932478
148	0xbde8beb9	-0.113645025
149	0x3dbcf98a	0.09227283
150	0xbcb5e1aa	-0.022202332
151	0x3ce2c703	0.027682787
152	0x3d80fae2	0.06297852
153	0x3c43e5fc	0.011956688
154	0xbdfa07e1	-0.12208534
155	0x3dc3c9b6	0.09559958
156	0xbce10af8	-0.02747105
157	0x3de87b92	0.11351694
158	0x3d8bad59	0.06820173
159	0x3df68c1a	0.12038441
160	0xbd0d483d	-0.03449272
161	0x3c91649a	0.017748166
162	0x3bacb991	0.0052711447
163	0x3c867591	0.016413482
164	0x3d4d47d3	0.050117325
165	0x3d82b7ca	0.06382711
166	0x3ca87889	0.020565288
167	0xbb74edcd	-0.0037373186
168	0xbcf2acc0	-0.02962339
169	0xbd2d6fe1	-0.042343024
170	0x3ce14faf	0.027503816
171	0x3d539d4d	0.051663686
172	0xbe2c8f6c	-0.16851586
173	0x3e056ab2	0.13028982
174	0xbd481fdc	-0.04885851
175	0x3d4011b9	0.0468919
176	0xbda058b9	-0.078294225
177	0xbc31847d	-0.01083481
178	0xbd3e3981	-0.04644156
179	0xbdcea46a	-0.10089953
180	0x3d931708	0.07182127
181	0xbc27c5ec	-0.010240059
182	0xbd22ef90	-0.039779246
183	0x3d8d4609	0.06898124
184	0x3cdf29a5	0.027241537
185	0xbc3daba5	-0.011576568
186	0x3dc4bbb4	0.09606114
187	0x3c52ba59	0.012861812
188	0x3e117bf5	0.14207442
189	0xbcfd639e	-0.03093129
190	0x3ddfcf70	0.109282374
191	0x3b0a83d7	0.0021135712
192	0x3d9072ca	0.07053144
193	0x3cd49a2a	0.025952417
194	0x3d01b2a7	0.031664517
195	0xbd36ea87	-0.044657256
196	0x3d606e59	0.054792736
197	0x3d628164	0.055299178
198	0x3dbad6ef	0.091230266
199	0x3e406eba	0.18792239
200	0x3db5034b	0.08838519
201	0x3d454938	0.04816553
202	0x3c99b641	0.018763663
203	0xbd595c68	-0.05306664
204	0xbcdb4bfc	-0.02676963
205	0x3d65baba	0.05608628
206	0xbd2e61f7	-0.042573895
207	0x3a50ab79	0.0007960122
208	0x3d7db590	0.06194073
209	0xbe394faf	-0.18096803
210	0x3d90a9f5	0.07063667
211	0xbd3ec66b	-0.046575945
212	0xbd571e79	-0.052519295
213	0x3a543e89	0.00080964767
214	0xbd044d4e	-0.032300286
215	0xbd95b18a	-0.073092535
216	0x3da223bc	0.07916972
217	0xb8349d01	-4.3061566e-05
218	0x3d064827	0.032783654
219	0xbe02b05a	-0.12762585
220	0xbd5309e2	-0.051523097
221	0xbcf25dd5	-0.029585758
222	0xbe5a0f4e	-0.21294901
223	0xbd6d1af3	-0.05788703
224	0x3d13ac37	0.03605291
225	0x3d0e6b8d	0.034770537
226	0x3ce33299	0.027734088
227	0xbd45c970	-0.04828781
228	0x3d01f53d	0.031728018
229	0xbcf83e5a	-0.030303169
230	0x3d90d3e5	0.07071666
231	0x3ba77b24	0.005111115
232	0x3d87d908	0.06633192
233	0xbd3c0266	-0.045900725
234	0x3d2665c7	0.040624406
235	0x3d8b4940	0.06801081
236	0x3cd49575	0.025950173
237	0x3cbb6216	0.02287392
238	0xbb29a54f	-0.0025885885
239	0x3e0aded9	0.13561572
240	0xbd47ce42	-0.048780687
241	0xbaad0849	-0.0013201322
242	0xbc2fd22b	-0.01073126
243	0x3c8a39d4	0.016873278
244	0x3c45ef6b	0.0120810075
245	0x3b17805a	0.0023117275
246	0xbd4ce65b	-0.05002437
247	0xbd48eb2c	-0.049052402
248	0x3d2e4f3e	0.04255604
249	0x3da70fcf	0.08157312
250	0x3d4f4a88	0.050608188
251	0x3d97b4c1	0.07407523
252	0xbbf4685c	-0.0074587297
253	0x3e1273c6	0.14301977
254	0x3b74c550	0.0037349053
255	0x3d297fbd	0.041381586

fc2.bias f4 [256]
0	0x3c9e3ab8	0.019315109
1	0x3e422098	0.18957746
2	0x3e1258f7	0.1429175
3	0x3d26704a	0.04063443
4	0x3e1c2f55	0.1525243
5	0xbdf61187	-0.12015062
6	0x3dcfe1e3	0.10150506
7	0xbcf2f119	-0.02965598
8	0x3e2c844c	0.16847342
9	0xbc4ae75a	-0.01238426
10	0xbd4cd817	-0.050010767
11	0x3c1c0c6e	0.009524448
12	0x3dde21ab	0.108462654
13	0x3d85953b	0.06522604
14	0xbd54a7e6	-0.051917933
15	0x3dad5d93	0.084651135
16	0x3d0a18c3	0.03371502
17	0x3e2f79e8	0.17136347
18	0xbdc42208	-0.095768034
19	0x3e148a28	0.14505827
20	0xbc2cca0f	-0.010546221
21	0x3ddbc67d	0.10731218
22	0xbce83a98	-0.028348252
23	0x3e048022	0.12939504
24	0x3e14d506	0.14534387
25	0xbc77e847	-0.015131063
26	0xbd99eaaf	-0.075154655
27	0x3d80637c	0.06268975
28	0xbda8b016	-0.08236711
29	0x3e008f7c	0.12554735
30	0x3dd4fca6	0.10399751
31	0x3dd68f6e	0.10476576
32	0xbd70df49	-0.05880669
33	0xbdc1a270	-0.094548106
34	0x3dff35cd	0.124614336
35	0x3de17f15	0.11010567
36	0xbde6f442	-0.11277057
37	0x3e1eb9e2	0.15500596
38	0x3d697e8b	0.057005446
39	0xbd86cfc6	-0.065825984
40	0x3dfcc9e7	0.12343197
41	0xbd287420	-0.04112637
42	0x3e410a51	0.18851592
43	0x3e1699a8	0.14707053
44	0xbc88b7fd	-0.016689295
45	0x3d722bdd	0.059123863
46	0xbe0be6f8	-0.13662326
47	0x3e07105c	0.13189834
48	0x3d5e0a8f	0.05420929
49	0x3c1ad59e	0.009450344
50	0x3e334716	0.17507586
51	0x3c4ce389	0.0125054205
52	0x3d2fb29d	0.04289495
53	0xbc9bab9e	-0.019002732
54	0x3e1535bd	0.14571281
55	0x3e17d84a	0.14828601
56	0xbc2d2305	-0.010567431
57	0x3e63553a	0.2220048
58	0x3e2093db	0.15681402
59	0x3d7fb2ee	0.0624265
60	0x3e4c9e9d	0.19982381
61	0xbd2838ca	-0.041069783
62	0xbd714d68	-0.05891171
63	0xbd56cdbe	-0.052442305
64	0xbd86edd8	-0.06588334
65	0xbd9d6be9	-0.07686598
66	0x3e04c3d8	0.12965333
67	0x3e21732d	0.15766592
68	0x3df5aebc	0.119962186
69	0x3e03648d	0.12831326
70	0x3ddb2ddd	0.10702107
71	0xbdc85e30	-0.0978359
72	0xbdf79b35	-0.1209015
73	0x3de338e3	0.11094835
74	0x3e2bfcba	0.16795626
75	0x3e298b26	0.16556987
76	0x3e0279db	0.12741797
77	0x3bbfb7b4	0.0058507565
78	0xbc84ac13	-0.016195333
79	0x3dab7507	0.083719306
80	0x3e54ea7f	0.20792578
81	0xbd6a6fd6	-0.05723556
82	0x3dd3f428	0.103493035
83	0x3e35555e	0.17708346
84	0xbb6aed52	-0.003584702
85	0x3d1c42eb	0.038149755
86	0x3ded752e	0.11594616
87	0x3dfe2778	0.12409872
88	0x3e29bd7b	0.16576187
89	0x3e2f67b9	0.17129411
90	0x3e09b1aa	0.1344668
91	0x3e3d9d3e	0.18517014
92	0x3e10255c	0.14076751
93	0xbde7ca1d	-0.11317847
94	0xbca107ec	-0.019657098
95	0xbd1484c7	-0.03625944
96	0x3e3d3ed7	0.18481003
97	0xbdc3aa4b	-0.09553965
98	0xbd589130	-0.052872837
99	0x3e171570	0.14754272
100	0x3e0f190b	0.13974397
101	0x3d32c118	0.04364118
102	0xbd0c4ee3	-0.03425492
103	0xbcdf9bbd	-0.027295941
104	0xbd85c2ce	-0.06531297
105	0xbdcb3b32	-0.099234
106	0xbdced0c2	-0.10098411
107	0xbc8c404f	-0.017120508
108	0x3e0c058b	0.1367399
109	0x3e2ae9a8	0.16690695
110	0xbe22cdcd	-0.1589882
111	0x3e2da4eb	0.16957442
112	0xbddaa582	-0.10676099
113	0x3dd721a4	0.10504463
114	0xbd6ce57d	-0.057836045
115	0x3e11b71a	0.14230004
116	0x3e09868c	0.13430232
117	0xbd892bad	-0.066977836
118	0x3e014aee	0.1262624
119	0x3cc9fea5	0.024657557
120	0x3ddcac36	0.10775034
121	0xbd8a4ca4	-0.06752899
122	0x3e275b18	0.16343343
123	0x3dd5b84d	0.10435543
124	0xbdc39199	-0.09549255
125	0x3dfa0be4	0.12209299
126	0x3e07831c	0.13233608
127	0x3defd7c1	0.11711074
128	0xbd384caa	-0.044994988
129	0xbcc4740e	-0.02398112
130	0x3c6ea47c	0.014565583
131	0x3e48fbc7	0.19627295
132	0x3e17717c	0.14789385
133	0x3e1cace7	0.15300332
134	0xbc84da2a	-0.01621731
135	0x3c348281	0.011017443
136	0x3d587517	0.05284604
137	0x3e2d33ce	0.16914293
138	0x3dce0693	0.10059848
139	0xbd2f9897	-0.04287013
140	0x3e1de7ff	0.1542053
141	0x3e23d542	0.1599932
142	0xbc144392	-0.009049313
143	0xbd8c67e8	-0.06855756
144	0x3e366578	0.17812145
145	0x3e1eb683	0.1549931
146	0xbd2c6206	-0.04208567
147	0x3cb7f917	0.022457642
148	0xbd858bc9	-0.065208025
149	0x3de8002e	0.11328159
150	0x3dd40ec0	0.10354376
151	0xbd6ea2d8	-0.05826077
152	0xbca94256	-0.020661514
153	0x3e082300	0.13294601
154	0x3e0dcf8c	0.13848704
155	0x3d45fa33	0.04833431
156	0xbd92953a	-0.07157369
157	0x3b7de770	0.0038742684
158	0xbc66c493	-0.014084953
159	0x3cfd4a16	0.030919116
160	0xbd795cbf	-0.060879465
161	0x3e07f811	0.13278224
162	0xbe0e0af6	-0.13871369
163	0x3dc2767e	0.09495257
164	0x3e0ef124	0.13959175
165	0x3e3c8742	0.18410972
166	0xbcf326a3	-0.02968151
167	0x3c8a6d1b	0.016897729
168	0xbd8a292f	-0.067461364
169	0xbd984fee	-0.074371204
170	0x3e448764	0.19192272
171	0xbe045fce	-0.12927172
172	0x3ce314e9	0.027719932
173	0x3b18895d	0.0023275234
174	0xbdd43983	-0.10362532
175	0xbdf056a6	-0.11735277
176	0x3e40c5a4	0.18825394
177	0x3de5ebd9	0.11226625
178	0x3e13e0b4	0.14441186
179	0x3d81acd5	0.06331793
180	0x3d09bf7d	0.033629883
181	0x3de01911	0.10942281
182	0xbe02ca3a	-0.12772456
183	0xbdeb22ce	-0.11481248
184	0xbd088a2a	-0.03333489
185	0xbc3a762d	-0.011380714
186	0x3c45558c	0.012044322
187	0xbd7cc92a	-0.061715282
188	0xbde8671f	-0.11347794
189	0xbd6dc101	-0.05804539
190	0x3e100a5f	0.14066456
191	0xbd73b903	-0.059502613
192	0x3dd9965a	0.106243804
193	0x3ba0ee26	0.004911202
194	0xbd65b9ec	-0.056085512
195	0x3e23dd4f	0.16002391
196	0x3d0fccdb	0.035107475
197	0xbdee0382	-0.11621763
198	0x3cf76b35	0.030202487
199	0x3de44957	0.11146801
200	0xbd3c4a4e	-0.0459693
201	0x3c7bb51e	0.015363006
202	0xbd75ddf5	-0.060026128
203	0x3e04575e	0.12923953
204	0xbdc9bdd9	-0.09850664
205	0x3e1a6094	0.15075904
206	0xbdbcad8e	-0.092127904
207	0xbe00716b	-0.12543266
208	0x3d85ba4a	0.065296724
209	0x3e443821	0.19162036
210	0x3e08257c	0.13295549
211	0x3df5bbf3	0.11998739
212	0x3c6378e5	0.013883804
213	0x3e2a1a24	0.16611534
214	0x3e25a1f3	0.1617506
215	0x3de98a3e	0.11403321
216	0xbdc69515	-0.09696404
217	0xbd953f11	-0.072874196
218	0x3de35ba5	0.11101464
219	0x3dfd1f95	0.123595394
220	0xbd445e84	-0.0479417
221	0x3dc5f841	0.09666491
222	0x3e01e5b6	0.12685284
223	0x3e3b0015	0.1826175
224	0xbdec6f75	-0.11544696
225	0x3e238be0	0.15971327
226	0x3dc04b9d	0.09389422
227	0x3e1216ed	0.14266558
228	0xbd5198bc	-0.05117105
229	0x3e27dc5f	0.16392659
230	0x3de1e631	0.11030234
231	0xbdcf47b3	-0.101210974
232	0xbd9615f6	-0.073284075
233	0xbdd01e90	-0.10162079
234	0xbbe90be8	-0.007112015
235	0xbd625e88	-0.055265933
236	0xbd20c07d	-0.03924607
237	0xbd97066a	-0.0737427
238	0xbdfcbb89	-0.12340457
239	0x3e1d733a	0.15375987
240	0xbdf6766c	-0.12034306
241	0xbc3c34bc	-0.011487182
242	0x3e430c0e	0.19047567
243	0x3c7444e9	0.014909008
244	0xbd8d96ee	-0.06913553
245	0xbd611858	-0.054954857
246	0xbd5111a4	-0.051042214
247	0x3d6d759f	0.0579735
248	0xbcc5c519	-0.024141835
249	0xbae879fd	-0.0017736551
250	0x3e6b30ea	0.22967878
251	0x3e163176	0.14667305
252	0xbd080ec2	-0.0332172
253	0xbddaa3d2	-0.106757775
254	0x3dcd7ef4	0.1003398
255	0xbd8c0dc7	-0.06838565

fc_actor_mean.weight f4 [20, 256]
0	0x3d669e85	0.05630352
1	0x3c0d276d	0.008615357
2	0xbd8c271c	-0.06843397
3	0xbb944220	-0.0045244843
4	0xbbbfa231	-0.005848192
5	0x3dc0b2d0	0.09409106
6	0x3d843e3c	0.06457183
7	0x3c300a4f	0.010744645
8	0x3beeb95c	0.00728528
9	0x3c33a456	0.010964474
10	0xbc8f755a	-0.017512012
11	0x3a72e787	0.00092660676
12	0xbcd4730d	-0.025933767
13	0xbccbf1b8	-0.024895534
14	0xbd6737d2	-0.05644972
15	0x3b9cd345	0.0047859275
16	0xbd80e004	-0.062927276
17	0x3d36097b	0.044442635
18	0xbb78014d	-0.0037842572
19	0x3cad6ed6	0.021171015
20	0xba86b716	-0.0010277953
21	0xb8babd98	-8.904486e-05
22	0xbca05a18	-0.01957421
23	0xbc952a93	-0.018208778
24	0xbde8544d	-0.11344204
25	0x3e05afa0	0.13055277
26	0x3c0ed1f7	0.008717052
27	0x3bcc70bc	0.006239025
28	0x3c930558	0.017946884
29	0x3daf5898	0.0856182
30	0xbc63d703	-0.013906243
31	0xbc21bf23	-0.009872231
32	0x3ce34537	0.027742965
33	0x3d17d426	0.037067555
34	0xbccf9af6	-0.025342446
35	0x3d005de3	0.031339537
36	0x3c7ff62d	0.015622658
37	0x3d68ceba	0.056837775
38	0x3cc237e9	0.0237083
39	0xbce27402	-0.027643207
40	0xbd15afff	-0.036544796
41	0xbba860c2	-0.0051384876
42	0x3ce7fa39	0.028317558
43	0x3d3eeb06	0.046610855
44	0xbafe2b49	-0.0019391562
45	0x3d15433a	0.036441065
46	0x3cd5ceb6	0.026099544
47	0xbd02b423	-0.031910073
48	0x3bdaa9dc	0.006673081
49	0xbccccc09	-0.024999635
50	0x3d06afbe	0.032882445
51	0xbdce7599	-0.10081024
52	0x3d0b95c0	0.03407836
53	0xbcc9be62	-0.024626914
54	0xbd2d95b9	-0.042379115
55	0x3aec32e1	0.0018020534
56	0x3c434e50	0.011920527
57	0x3d54f72a	0.051993527
58	0xbd6efbf7	-0.05834576
59	0xbbe9f89e	-0.007140233
60	0x3d333096	0.043747507
61	0xbd52261a	-0.051305868
62	0xbc1ab1b1	-0.009441779
63	0xbca55f95	-0.020187179
64	0x3d47bef3	0.048766088
65	0x3d496fb3	0.04917879
66	0x3c7c7ec6	0.0154110845
67	0x3b91a3be	0.0044445684
68	0xbd0fa75f	-0.035071727
69	0x3d749f4f	0.05972224
70	0xbb8d36e0	-0.00430952
71	0x3cc47e5b	0.023986032
72	0xbc01a475	-0.007912745
73	0xbd71d2c1	-0.05903888
74	0xbcd80552	-0.026369724
75	0x3d63373a	0.05547259
76	0xbd767ad0	-0.060175717
77	0xbc9cf8ad	-0.019161547
78	0x3c4068e1	0.011743755
79	0x3c491d66	0.012275076
80	0x3af20f41	0.0018467681
81	0x3d1892f9	0.03724954
82	0xbce4bcec	-0.027922116
83	0x3c99b00e	0.018760707
84	0x3c4dec25	0.012568508
85	0x3c3214c1	0.010869206
86	0x3d1dab91	0.038493697
87	0xbcfbb507	-0.030725969
88	0xbd10c5fa	-0.035345055
89	0xbc09481a	-0.008379007
90	0x3d433b0a	0.047663726
91	0xbd057278	-0.03257987
92	0xbdaa98bf	-0.08329915
93	0x3d1f5093	0.0388952
94	0x3c8af483	0.016962295
95	0xbcbd3890	-0.02309826
96	0x3d3644e8	0.044499308
97	0x3ce19ecc	0.02754154
98	0x3c1061be	0.008812366
99	0xbda166bd	-0.07880924
100	0xbd404677	-0.0469422
101	0x3d1a0c39	0.037609313
102	0xbcf9a1c5	-0.030472646
103	0xbc6394c9	-0.013890454
104	0x3c6376a5	0.0138832675
105	0x3cc3758c	0.023859762
106	0x3c81305e	0.015770134
107	0xbc9bad94	-0.019003667
108	0xbd361f1b	-0.04446326
109	0x3d14c2d9	0.036318634
110	0xbc08117e	-0.008304952
111	0x3d855d76	0.06511967
112	0x3dae80c5	0.085206546
113	0x3d2a241e	0.04153835
114	0xbd34882d	-0.04407518
115	0xbb29acf1	-0.0025890435
116	0x3d1711f3	0.036882352
117	0x3bce1e09	0.0062902016
118	0xbd1de289	-0.03854612
119	0x3ba43acf	0.0050118933
120	0x3cf2080e	0.029544856
121	0x3bf7f824	0.0075674225
122	0xbd71a939	-0.058999274
123	0x3d30033d	0.04297184
124	0x3c98cbf3	0.018651938
125	0xbb3dbb7b	-0.0028950858
126	0xbb0894d6	-0.0020840666
127	0xbca4a0d4	-0.02009622
128	0x3c978b9a	0.018499184
129	0x3d40d31f	0.04707634
130	0x3d6cee9d	0.057844747
131	0x3d56abba	0.052409865
132	0x3d5ad4a9	0.053425465
133	0xbd092aa9	-0.03348795
134	0x3cdacbd9	0.02670853
135	0xba8bccf3	-0.0010665938
136	0x3c8fbc7e	0.017545935
137	0xbd3b563f	-0.045736548
138	0xbd6ecba4	-0.058299676
139	0xbd9d7744	-0.07688764
140	0x3d4b5e60	0.04965055
141	0x3d025079	0.031815026
142	0x3cb0f68c	0.021601938
143	0xbbca95ae	-0.006182394
144	0x3d61cae7	0.055125143
145	0xbc28d23d	-0.010304031
146	0xb8ac3db9	-8.213096e-05
147	0x3c4b86ac	0.012422245
148	0x3b80444f	0.003914393
149	0xbd1b15a7	-0.037862446
150	0x3d50cc0e	0.05097585
151	0x3c4bfea2	0.012450846
152	0x3dbc1076	0.09182827
153	0xbc73ae61	-0.014873118
154	0x3d4f8af6	0.050669633
155	0x3cbf30a4	0.023338623
156	0x3d06024d	0.032717038
157	0x3c3c0811	0.011476533
158	0xbcce84f1	-0.025209876
159	0xbb004901	-0.0019574764
160	0xbd3a3384	-0.045459285
161	0xbcca00d0	-0.02465859
162	0x3ded8a3c	0.11598632
163	0xbc2b85d3	-0.010468918
164	0x3d93bd11	0.07213796
165	0x3c9edc8f	0.01939228
166	0x3d08e268	0.033419043
167	0x3cc0c776	0.02353261
168	0x3d1a5f06	0.037688278
169	0xbd45b530	-0.048268497
170	0xbd7e82b2	-0.06213636
171	0x3d25bf05	0.040465374
172	0xbc114be7	-0.008868194
173	0x3b6d7cca	0.003623771
174	0xbdde1464	-0.10843733
175	0x3c86c4f5	0.016451338
176	0x3d4ae01e	0.04953014
177	0x3c3e5d08	0.01161886
178	0xbd2d5819	-0.042320345
179	0xbd2ac043	-0.04168726
180	0x3b588736	0.0033039576
181	0x3d395348	0.04524544
182	0x3d7e79ca	0.062127866
183	0x3cf2f92f	0.029659836
184	0x3b913c23	0.0044322177
185	0xbc033a55	-0.008009513
186	0xbd190931	-0.03736228
187	0xbd12eb93	-0.035869192
188	0xbc279751	-0.010228948
189	0x3bcdbc02	0.006278516
190	0x3ccb70fa	0.024834145
191	0xbcf2644e	-0.029588845
192	0x3da8a663	0.08234861
193	0x3d0354e2	0.032063372
194	0xbc706333	-0.014672088
195	0x3d53266d	0.051550318
196	0x3c020c25	0.007937466
197	0xbbb89e78	-0.0056341253
198	0xbdaaba88	-0.08336359
199	0xbcd9d809	-0.026592271
200	0xbc6efc4d	-0.01458652
201	0x3d576ece	0.052595906
202	0xbbca8799	-0.0061807153
203	0xbc038401	-0.008027078
204	0xbb5ae880	-0.003340274
205	0xbd073a1b	-0.033014398
206	0x3d8fd97d	0.070239045
207	0xbe00e9f9	-0.12589253
208	0xbd0ca893	-0.034340452
209	0xbd26c468	-0.04071465
210	0xbab556ab	-0.0013835033
211	0xbc95afbc	-0.018272273
212	0xbd67d0dc	-0.05659567
213	0xbb98b9f2	-0.0046608383
214	0x3cb41ad7	0.021985454
215	0x3d0ebe21	0.03484929
216	0xbd00496e	-0.031320028
217	0x3ae571ee	0.0017505267
218	0xbd3da30e	-0.04629808
219	0x3d3b4d81	0.04572821
220	0x3d021642	0.031759508
221	0xbd79aed7	-0.060957756
222	0x3d2b7100	0.041855812
223	0x3d670023	0.056396615
224	0x3e0543b6	0.13014111
225	0xbd3797ef	-0.04482263
226	0xbb24635c	-0.0025083637
227	0xbd19c6e1	-0.03754318
228	0x3cb68f5e	0.02228516
229	0xbcfb8b7b	-0.030706158
230	0xbd950a76	-0.07277386
231	0x3dcacbb4	0.099021345
232	0xbc28e56f	-0.0103086075
233	0xbcc64d56	-0.024206799
234	0x3ce4c50e	0.027925994
235	0x3cbd1ec5	0.023085961
236	0x3cfff4f5	0.031244734
237	0x3d01dd04	0.031704918
238	0xbd03cc93	-0.03217752
239	0xbd121e82	-0.035673626
240	0x3b8ffc95	0.004394124
241	0x3c807f37	0.01568566
242	0xbcf7be91	-0.030242236
243	0xbc16e0c2	-0.00920886
244	0x39250bf6	0.00015740082
245	0xba996b6b	-0.0011704987
246	0xbd9e9858	-0.07743901
247	0xbc0c4200	-0.0085606575
248	0xbcf3489f	-0.029697714
249	0x3d8238bf	0.0635848
250	0xbd094e81	-0.033522133
251	0xbc112277	-0.008858315
252	0x3d641e4b	0.055692952
253	0xbdbc446d	-0.09192739
254	0xbba011a4	-0.0048849154
255	0x3d1e4b59	0.038646076

fc_actor_mean.bias f4 [20]
0	0x3c88b2db	0.016686847
1	0xbb02fb82	-0.0019986336
2	0x3ccdd338	0.025125131
3	0xbd4a427f	-0.049379822
4	0x3c9370c8	0.017998114
5	0x3d3036f5	0.04302116
6	0xbb57e0d3	-0.0032940402
7	0x3cd1d892	0.025615964
8	0xbd391464	-0.04518546
9	0xbd4305c8	-0.047612935
10	0x3c563dfc	0.013076302
11	0xbcd050b6	-0.025429111
12	0xbd5849e1	-0.05280483
13	0x3ced8a0b	0.028996488
14	0xbb7e5709	-0.0038809201
15	0x3d0440c7	0.03228834
16	0xbcc960d7	-0.02458231
17	0xbbc2ce34	-0.0059449915
18	0xbd4674b2	-0.048451133
19	0x3ce3886f	0.027775018

fc_actor_std.weight f4 [20, 256]
0	0x3d8d4730	0.068983436
1	0xbc50fab7	-0.012755088
2	0xbc82ea3a	-0.015980829
3	0x3d3d7410	0.046253264
4	0xbc30d290	-0.0107923895
5	0x3d9f3361	0.077734716
6	0xbc9ea28a	-0.019364614
7	0xbd7289bc	-0.059213385
8	0xbc1722e7	-0.00922463
9	0xbd03afea	-0.032150187
10	0x3d428934	0.04749413
11	0xbc8ba724	-0.017047472
12	0x3cb137fc	0.02163314
13	0xbb3570d7	-0.0027685666
14	0x3d32fcc6	0.043698095
15	0xbd0a034c	-0.03369455
16	0x3da96546	0.082712695
17	0xbcbd6a09	-0.02312185
18	0xbcda3e0c	-0.026640914
19	0x3d2f6025	0.0428163
20	0x3d4b4202	0.049623497
21	0x3d6a0bc8	0.05714014
22	0x3ca1f381	0.019769432
23	0x3cdd823d	0.027039642
24	0x3da104b6	0.07862227
25	0xbe08731b	-0.13325159
26	0xbd282487	-0.04105046
27	0xbcb64c83	-0.02225328
28	0x3d64dcfc	0.05587481
29	0xbcf5f5a5	-0.030024359
30	0x3bbb7ad7	0.0057214308
31	0x3d65434a	0.055972375
32	0x3df4bd5f	0.11950182
33	0xbd6feb35	-0.05857392
34	0x3ce78085	0.028259525
35	0xbd42927f	-0.04750299
36	0xbb8e5af6	-0.0043443395
37	0xbd702a74	-0.058634236
38	0x3bfd37ed	0.007727614
39	0xb8517fff	-4.994869e-05
40	0xbcca51e5	-0.024697253
41	0x3cb12a1c	0.021626525
42	0xbd0175c8	-0.031606466
43	0xbba220b3	-0.0049477457
44	0xbb63adcc	-0.0034741042
45	0x3d60ec15	0.054912645
46	0x3d6841f9	0.05670354
47	0x3cfbd11f	0.030739365
48	0xbbeb2bc2	-0.007176847
49	0x3cfe7900	0.031063557
50	0xbc599694	-0.0132805295
51	0x3df880fb	0.12133976
52	0xbcd3c272	-0.025849555
53	0xbcd158c3	-0.02555502
54	0xbd76db6f	-0.060267862
55	0xbdfaa97a	-0.12239356
56	0x3bd41967	0.0064727548
57	0xbccd88e7	-0.025089694
58	0x3cc1d405	0.02366067
59	0xbd35e4ea	-0.044407763
60	0xbc34bc6f	-0.011031254
61	0x3cd6ecbf	0.026235936
62	0x3d29159c	0.041280374
63	0x3c636356	0.013878664
64	0xbdf4fbdd	-0.119621016
65	0x3d19f9e8	0.037591845
66	0x3cb92359	0.022599863
67	0xbcb48bb2	-0.022039268
68	0x3bc2b9f2	0.0059425766
69	0xbc62bdb8	-0.013839178
70	0x3c190670	0.009339914
71	0xbca3aee9	-0.019980865
72	0x3d8b0af4	0.067891985
73	0xbd65e27a	-0.056124188
74	0x3a8cddd8	0.0010747267
75	0xbbe4ec89	-0.006986205
76	0xbd3770e2	-0.044785388
77	0xbda62f42	-0.081144825
78	0x3cc7a9d8	0.02437298
79	0xbcc9b615	-0.024622956
80	0x3ccb83bd	0.024843091
81	0x3d3a5430	0.045490444
82	0x3d7f4905	0.062325496
83	0x3d5fe271	0.05465931
84	0x3a8fa95d	0.0010960508
85	0x3da8ff4a	0.082518175
86	0xbbc4cb0c	-0.0060056504
87	0x3c7585b3	0.01498549
88	0xbd07179f	-0.03298151
89	0x3d85e882	0.06538488
90	0x3c96755a	0.018366504
91	0xbab0ca77	-0.0013488074
92	0xbe0b7710	-0.13619637
93	0xbd7ce8eb	-0.061745565
94	0xbb29b0b6	-0.0025892681
95	0xbbe81249	-0.007082258
96	0xbd648cf1	-0.055798475
97	0xbc94d114	-0.018166102
98	0xbaa4e9b8	-0.0012581861
99	0xbbe69365	-0.0070366138
100	0x3c47a99f	0.012186437
101	0xbd2d04e1	-0.04224098
102	0x3d1593ec	0.036518022
103	0x3d8256a3	0.06364181
104	0x3d3448c8	0.044014722
105	0xbd3d4849	-0.046211515
106	0x3cd66fba	0.026176322
107	0x3c1e90e0	0.009678096
108	0xbd29b59e	-0.04143297
109	0x3d20d900	0.039269447
110	0xba55fd29	-0.0008163029
111	0x3ce42bec	0.027852975
112	0x3e2d655d	0.16933198
113	0x3c765f43	0.015037361
114	0xbc93092a	-0.017948706
115	0xbcd9e9a9	-0.026600676
116	0xbcbfb94a	-0.023403782
117	0x3d2c7817	0.042106714
118	0xbc7123a6	-0.014717972
119	0x3d4e3bd5	0.05035003
120	0x3cbf3ece	0.023345377
121	0x3ba824d0	0.0051313415
122	0xbb9e1a78	-0.0048249327
123	0x3d9dfbf5	0.077140726
124	0xbb31ab68	-0.0027110223
125	0xbc0ae160	-0.008476585
126	0xbc90d964	-0.017681785
127	0xbcafb9f4	-0.021450974
128	0xbd5032f3	-0.05082984
129	0xbb2cc3ff	-0.002636194
130	0xbd3d4828	-0.04621139
131	0xbdae5c11	-0.08513654
132	0xbda586f1	-0.08082379
133	0x3d00cf7c	0.031447873
134	0xbc98c665	-0.01864929
135	0x3b760007	0.0037536637
136	0x3d8e2718	0.0694105
137	0xbd3773d2	-0.04478819
138	0xbd139296	-0.036028467
139	0xbc3377ae	-0.010953827
140	0xbccb9524	-0.02485139
141	0x3d7648e4	0.060128108
142	0x3d27467f	0.040838715
143	0x3d018cec	0.031628534
144	0x3c171034	0.009220172
145	0xbca869bf	-0.020558236
146	0x3c1392aa	0.009007135
147	0xbd79d50d	-0.060994197
148	0x3d6aa810	0.057289183
149	0xbc925fa7	-0.017867876
150	0x3c90c052	0.01766983
151	0x3d365ad7	0.044520225
152	0x3cc5f3ef	0.024164168
153	0xbcaa24fa	-0.020769585
154	0xbc5c1dce	-0.01343484
155	0xbc2026a9	-0.009774842
156	0xbc33b675	-0.010968794
157	0xbb369291	-0.0027858356
158	0x3d28783e	0.041130297
159	0xbce8abdd	-0.028402263
160	0x3cba9dd5	0.022780338
161	0x3d393a5a	0.045221664
162	0x3c8c63f8	0.017137513
163	0xbd1548b1	-0.036446277
164	0x3d656333	0.056002807
165	0xbc3ec4f8	-0.011643641
166	0xbc83e15e	-0.016098674
167	0x3c9f93a7	0.019479586
168	0x3c061078	0.008182637
169	0x3d60ce90	0.054884493
170	0xbdc1d988	-0.09465319
171	0x3d8953ee	0.067054614
172	0xbcd3c1fb	-0.025849333
173	0x3daa6132	0.0831932
174	0x3d146fe0	0.036239505
175	0xbd141a3f	-0.036157843
176	0x3c38bbe3	0.011275264
177	0xba921fbc	-0.0011148374
178	0x3d2208c8	0.039559156
179	0x3dcc45a6	0.09974222
180	0x3b4f08cb	0.0031590934
181	0x3c2b60de	0.010460107
182	0x3dcee01d	0.1010134
183	0xbc6e4bd6	-0.014544448
184	0xbc9f146d	-0.01941892
185	0x3c1355c7	0.008992619
186	0x3d0d28f9	0.034462903
187	0xbbc60b6f	-0.0060438435
188	0x3d6eb9b0	0.058282554
189	0xbbf918b7	-0.007601823
190	0x3b7c2496	0.0038473955
191	0x3d78495d	0.06061684
192	0xbc4ab921	-0.01237324
193	0x3d301787	0.042991187
194	0xbd5676fd	-0.05235957
195	0xbd6454fe	-0.055745117
196	0xbd85db87	-0.06536012
197	0x3d6df6b0	0.058096588
198	0xbd1c47e8	-0.038154513
199	0xbd1f89fa	-0.038949944
200	0x3c2b3779	0.010450237
201	0x3d814ffd	0.06314085
202	0x3d6c0419	0.057621095
203	0x3d69665e	0.05698239
204	0xbcc3d4e6	-0.023905229
205	0x3ca5a190	0.02021864
206	0xbd418ccd	-0.04725342
207	0x3dc0e10f	0.094179265
208	0x3d32ef53	0.04368527
209	0xbc8a9356	-0.016915958
210	0x3c36a06e	0.011146648
211	0x3d255943	0.04036833
212	0x3b90b045	0.004415544
213	0xbcf1e33d	-0.029527301
214	0xbce5b2d2	-0.02803937
215	0xbcefc9d6	-0.029271048
216	0x3d0a24f4	0.033726647
217	0x3dcc77c1	0.09983779
218	0xbd4686aa	-0.04846827
219	0xbd2bc721	-0.04193795
220	0x3cca7822	0.024715487
221	0xbb3a7a13	-0.002845411
222	0x3cbcb42e	0.023035135
223	0xbd20dedd	-0.03927504
224	0x3b560f6b	0.0032662998
225	0xbcbce715	-0.023059407
226	0x3cf041f1	0.029328318
227	0xbd81bee7	-0.0633524
228	0xbc0632ac	-0.008190792
229	0xbde32a83	-0.11092093
230	0x3cfc3f11	0.030791791
231	0x3ac316d2	0.001488412
232	0xbc4d9efe	-0.012550114
233	0xbdb3a9c4	-0.087726146
234	0x3d9029dc	0.07039234
235	0x3d11e0b7	0.035614695
236	0x3b86d8c2	0.004115195
237	0xbbeb361e	-0.007178082
238	0x3cc2bd5c	0.023771934
239	0x3d1e2c63	0.03861655
240	0x3ce68e09	0.0281439
241	0x3cf1799b	0.029476931
242	0x3c802ad3	0.01564542
243	0xbcd7441b	-0.026277592
244	0x3d8e49af	0.06947648
245	0xbda3b68f	-0.07993805
246	0x3d8257da	0.063644126
247	0xbc14f13d	-0.009090719
248	0xbcd5ff1f	-0.026122628
249	0x3dbcf128	0.092256844
250	0xbdbd6cd4	-0.09249273
251	0x3d2c2242	0.04202486
252	0x3ca05245	0.01957048
253	0x3d17dac4	0.037073866
254	0x3bd08a39	0.0063641337
255	0xbc7b2147	-0.015327758

fc_actor_std.bias f4 [20]
0	0xbe080a35	-0.13285144
1	0xbe0152eb	-0.12629287
2	0xbe1d73fd	-0.15376277
3	0xbd04b868	-0.032402426
4	0xbd8f0cc3	-0.06984856
5	0xbd3444db	-0.04401098
6	0xbe191780	-0.14950371
7	0xbdca5cd0	-0.09880984
8	0xbe1278d9	-0.14303912
9	0xbdc5d4bb	-0.09659716
10	0xbd9a0e33	-0.075222395
11	0xbd34e662	-0.044165023
12	0xbdfe48f7	-0.12416261
13	0xbdec014b	-0.11523684
14	0xbd5aee39	-0.053449843
15	0xbdd1ef3b	-0.10250708
16	0xbdfbc872	-0.12294091
17	0xbcda0b27	-0.026616646
18	0xbddf60ce	-0.10907136
19	0xbdbc6b2c	-0.09200129

fc_critic.weight f4 [1, 256]
0	0xbf24f0be	-0.64429843
1	0x3de5ac45	0.112144984
2	0x3e5ef93c	0.21774763
3	0xbf176bc8	-0.59148836
4	0x3e04a520	0.12953615
5	0xbe393259	-0.18085612
6	0x3e489275	0.19587119
7	0xbeea20d5	-0.45728174
8	0x3dfa498f	0.122210614
9	0xbf1d8198	-0.6152587
10	0xbec8e20e	-0.39234966
11	0xbee025a6	-0.43778723
12	0x3df3d49c	0.119057864
13	0x3db14fb1	0.08657778
14	0xbe8ccff9	-0.2750242
15	0x3f0c01e7	0.546904
16	0x3ed4e362	0.4157973
17	0x3e8fa0a5	0.2805225
18	0xbf015e71	-0.5053473
19	0x3e5296ce	0.2056534
20	0x3f5b0864	0.8555968
21	0x3eaeaade	0.34114736
22	0xbe9eb5c2	-0.30998045
23	0x3e652fe9	0.22381558
24	0x3e2bfb32	0.16795042
25	0xbd2cb7d6	-0.042167507
26	0xbe80f85e	-0.2518949
27	0xbeec748c	-0.46182668
28	0xbde933f8	-0.113868654
29	0x3dbbdae3	0.09172609
30	0x3e8db6c2	0.27678496
31	0x3e2cc16f	0.16870664
32	0xbf42e944	-0.76137185
33	0xbf034d92	-0.5129024
34	0x3e3ad269	0.18244328
35	0x3e588e8d	0.21148129
36	0x3f8c905f	1.0981559
37	0x3e7e4c5f	0.24833821
38	0x3e05509a	0.13019028
39	0xbeb3e407	-0.3513491
40	0x3e7962ed	0.24354143
41	0xbed4f473	-0.4159275
42	0x3dd4a2a8	0.10382587
43	0x3dc3d71a	0.09562512
44	0xbf0e0e3b	-0.55490464
45	0x3d5bf346	0.0536988
46	0xbedf4721	-0.43608955
47	0x3e118517	0.14210926
48	0x3f071d19	0.52778774
49	0xbecc1044	-0.3985616
50	0x3e55296c	0.20816582
51	0xbebf248f	-0.3733258
52	0xbf13205b	-0.57471246
53	0x3f562946	0.8365673
54	0x3e7d37a4	0.24728256
55	0x3e2f7d49	0.17137636
56	0xbf3daa53	-0.7408802
57	0x3dd42721	0.10359026
58	0x3dfe2129	0.124086685
59	0x3f38f941	0.7225533
60	0x3e84ce3f	0.25938603
61	0xbeac74e9	-0.33682945
62	0xbee5e754	-0.44903052
63	0xbf3fe668	-0.7496095
64	0xbdde135d	-0.10843537
65	0xbee1e4a0	-0.4411974
66	0x3e6f0953	0.233434
67	0x3e324398	0.17408597
68	0x3dbc68e4	0.09199694
69	0x3e570eea	0.21001783
70	0xbf81464a	-1.0099576
71	0xbee9a23c	-0.45631588
72	0xbf33bc91	-0.70209605
73	0x3e681afb	0.22666542
74	0x3dfeced3	0.12441792
75	0x3e1c2315	0.15247758
76	0x3ea98e82	0.33116537
77	0x3f99ef5b	1.202617
78	0x3f12169d	0.57065755
79	0x3de1c516	0.11023919
80	0x3e068b63	0.1313911
81	0xbead75e0	-0.33878994
82	0x3e525323	0.20539527
83	0x3e93eb0e	0.2889027
84	0xbecbac0d	-0.39779702
85	0x3e1267fb	0.14297478
86	0x3e7c01ef	0.24610113
87	0x3e941974	0.2892567
88	0x3e88b6c6	0.26701945
89	0x3e50fab6	0.20408139
90	0x3e865deb	0.2624353
91	0x3e405b35	0.18784793
92	0x3d8c1d57	0.06841534
93	0xbe522915	-0.20523484
94	0xbf01ae28	-0.50656366
95	0xbec0b6f9	-0.37639597
96	0x3e4f128c	0.20221919
97	0xbe9f09dc	-0.3106221
98	0xbee2aee0	-0.44274044
99	0x3dd4ebb7	0.103965215
100	0x3ea9f1e3	0.33192357
101	0xbf402af4	-0.7506554
102	0xbf084189	-0.53225
103	0xbf11dfef	-0.5698232
104	0xbedece50	-0.4351678
105	0xbec6341d	-0.38711634
106	0xbf010747	-0.5040173
107	0xbe5b8c6e	-0.21440288
108	0x3ea100aa	0.3144582
109	0x3e291468	0.1651169
110	0xbf033c8c	-0.5126426
111	0x3e03dafa	0.12876502
112	0xbe47a3b2	-0.19496039
113	0x3da47f10	0.08032048
114	0xbeea9d17	-0.45822975
115	0x3e749591	0.2388518
116	0x3e96f8b1	0.2948661
117	0xbf09a6d4	-0.53770185
118	0x3dd156c7	0.102216296
119	0xbf41b26e	-0.7566289
120	0x3e5a3ee0	0.21313047
121	0xbf24ea5a	-0.6442009
122	0x3e128930	0.14310145
123	0x3e3da4ad	0.1851985
124	0xbf37c958	-0.717916
125	0x3e4b7bb6	0.1987141
126	0x3e37821f	0.17920731
127	0x3e361378	0.17780864
128	0xbf07672f	-0.5289182
129	0xbeb28d4e	-0.34873432
130	0xbf4c9a20	-0.79922676
131	0x3e0f1ba8	0.13975394
132	0x3e43bca5	0.19114931
133	0x3e0787af	0.13235353
134	0xbf72a6ab	-0.94785565
135	0xbf27d2da	-0.6555611
136	0x3edff26c	0.4373964
137	0x3e38905c	0.18023819
138	0x3e2b2a0e	0.16715261
139	0xbd52a377	-0.051425423
140	0x3de0ffd9	0.10986299
141	0x3e54e258	0.20789468
142	0xbf58bf02	-0.84666455
143	0xbec03d18	-0.3754661
144	0x3e006fbe	0.12542626
145	0x3e2ae288	0.16687977
146	0xbf23d5f1	-0.63998324
147	0x3f67e542	0.90584195
148	0xbf331757	-0.6995749
149	0x3e09977f	0.13436697
150	0x3dff6245	0.12469915
151	0x3faa532c	1.3306632
152	0xbed6164e	-0.41813892
153	0x3e811e86	0.252186
154	0x3e3c4622	0.18386129
155	0x3f2e6595	0.6812375
156	0xbeacd947	-0.3375952
157	0x3f9e173e	1.2350843
158	0xbef81ccf	-0.4845948
159	0xbf2ec719	-0.6827255
160	0xbf280107	-0.6562657
161	0x3e758522	0.23976567
162	0xbeba8528	-0.36429715
163	0xbf3f4ff2	-0.7473136
164	0x3db2561e	0.08707832
165	0x3e5f0936	0.21780857
166	0xbee16732	-0.44024044
167	0xbf4d1245	-0.80106
168	0xbece6a13	-0.40315303
169	0xbf3bc18f	-0.7334222
170	0x3e04badb	0.12961905
171	0xbef26538	-0.4734285
172	0xbf2990ab	-0.6623637
173	0xbf15a5f6	-0.5845636
174	0xbf08ea66	-0.53482664
175	0xbeff9f16	-0.4992606
176	0x3ea616c5	0.32439247
177	0x3ee33afe	0.44380945
178	0x3e0b1fdc	0.13586372
179	0x3e6780a1	0.22607662
180	0xbf4ad0da	-0.7922493
181	0x3e11cd95	0.1423858
182	0xbf070af3	-0.5275108
183	0xbeb851bf	-0.35999867
184	0xbe973670	-0.2953372
185	0xbf51efb2	-0.8200637
186	0xbf5f0ff0	-0.87133694
187	0xbe73618e	-0.23767683
188	0xbe9033a8	-0.2816441
189	0xbea89026	-0.32922477
190	0x3d8f09c1	0.06984282
191	0xbf2320b8	-0.637218
192	0x3dc91536	0.09818499
193	0xbf5077c6	-0.8143276
194	0xbeeace51	-0.45860532
195	0x3de6d986	0.11271958
196	0xbf3a21ea	-0.72708
197	0xbf069ddd	-0.5258463
198	0x3eb29fdf	0.34887597
199	0x3e0cb4fb	0.13740914
200	0xbf16b3e5	-0.5886825
201	0x3d8cecf1	0.068811305
202	0xbf34ece6	-0.7067398
203	0x3ec63f71	0.38720277
204	0xbeec761b	-0.46183857
205	0x3e8768b6	0.26447076
206	0xbeb86ec9	-0.36022022
207	0xbe824ec2	-0.25450712
208	0x3ecac517	0.39603493
209	0x3e8186fd	0.252983
210	0x3e8d2db0	0.2757392
211	0x3eb23f45	0.34813896
212	0xbf5bc974	-0.8585427
213	0x3decbfc1	0.11560012
214	0x3e36dde7	0.17858087
215	0x3e8f6eb6	0.28014153
216	0xbeb1e12a	-0.347421
217	0xbf0d4e2d	-0.5519741
218	0x3e4ad4a3	0.19807677
219	0x3e6a8aab	0.2290446
220	0xbf144bba	-0.5792805
221	0x3d90805b	0.07055732
222	0x3e7f03e7	0.24903832
223	0x3df3b21b	0.11899205
224	0xbeb0e909	-0.34552792
225	0x3e723b13	0.23655348
226	0x3f089803	0.5335695
227	0x3e5b40ec	0.21411484
228	0xbeeca086	-0.4621622
229	0x3e38b8b5	0.1803921
230	0x3e380d39	0.17973794
231	0xbe67e957	-0.22647606
232	0xbec174a0	-0.3778429
233	0xbec8bfdc	-0.39208877
234	0xbf3cdaa0	-0.73771095
235	0xbf26a383	-0.6509325
236	0xbf338a3a	-0.7013279
237	0xbe875972	-0.2643543
238	0xbf1142ac	-0.5674236
239	0x3e5fdf07	0.21862422
240	0xbf0403a8	-0.5156808
241	0xbf3482e5	-0.7051223
242	0x3ea77908	0.32709527
243	0xbf1eb6db	-0.61997765
244	0xbf2f41da	-0.68459857
245	0xbf1090f0	-0.5647116
246	0xbb928c15	-0.0044722655
247	0xbf32293f	-0.69594187
248	0xbec734a4	-0.3890735
249	0xbf1be0e6	-0.6089004
250	0x3ddc705d	0.10763619
251	0x3e828ed2	0.25499588
252	0xbf013a8e	-0.5047997
253	0xbe29ec5b	-0.16594069
254	0x3db3a23e	0.087711796
255	0xbf1d9519	-0.6155563
