saved_models/crawler_ppo_4.ckpt (torch_old, 835520 bytes, 10 tensors)

std f4 [1, 20]
0	0x00000000	0.0
1	0x00000000	0.0
2	0x00000000	0.0
3	0x00000000	0.0
4	0x00000000	0.0
5	0x00000000	0.0
6	0x00000000	0.0
7	0x00000000	0.0
8	0x00000000	0.0
9	0x00000000	0.0
10	0x00000000	0.0
11	0x00000000	0.0
12	0x00000000	0.0
13	0x00000000	0.0
14	0x00000000	0.0
15	0x00000000	0.0
16	0x00000000	0.0
17	0x00000000	0.0
18	0x00000000	0.0
19	0x00000000	0.0

fc1.weight f4 [512, 129]
0	0xbd4730f8	-0.048630685
1	0x3f74b3b9	0.95586735
2	0x3f801dd1	1.0009099
3	0x3c0498bb	0.008093054
4	0xbdf87b8d	-0.121329404
5	0x3c5f0740	0.013612568
6	0xbd230a80	-0.039804935
7	0xbe91b8d3	-0.28461322
8	0x3c46bbb9	0.0121297175
9	0xbe4d8a9a	-0.20072404
10	0x3cb06a40	0.021535039
11	0xbc0c5129	-0.008564272
12	0x3cf78441	0.03021443
13	0xbd8c09fb	-0.06837841
14	0x3cb93218	0.022606894
15	0xbe029c9d	-0.12755056
16	0x3d687083	0.056747925
17	0x3c07f8d0	0.008299068
18	0x3cb46b71	0.022023888
19	0x3d63ace1	0.055584792
20	0xbd109bbf	-0.03530478
21	0x3da85c7e	0.082207665
22	0x3cb454c9	0.022013085
23	0x3da23805	0.07920841
24	0x3d3d9f3e	0.046294443
25	0x3e31d6e8	0.17367136
26	0x3d5e462a	0.054266132
27	0xbdb2ed5b	-0.08736678
28	0xbd91739c	-0.07102129
29	0xbd14258b	-0.036168616
30	0x3d1fac5f	0.038982745
31	0x3d58dbab	0.052943867
32	0xbd8d7d5b	-0.06908675
33	0xbda8a921	-0.08235384
34	0xbd603c9e	-0.05474531
35	0x3d1af853	0.037834477
36	0x3d24e42c	0.040256664
37	0x3d4f654c	0.050633714
38	0x3d64656b	0.055760782
39	0xbd187c33	-0.03722782
40	0x3da9713a	0.082735494
41	0x3dfe12fa	0.12405963
42	0xbd14d5cd	-0.03633671
43	0x3c9e72f4	0.019341923
44	0xbdc585ca	-0.09644659
45	0xbdb231a3	-0.08700874
46	0xbd5f9b0f	-0.054591235
47	0x3d8faa9f	0.07014965
48	0xbdf6f1f9	-0.12057871
49	0x3d57c7b2	0.05268068
50	0xbdce1ddb	-0.10064288
51	0x3c8e9ef7	0.017409785
52	0xbdb2cf07	-0.087308936
53	0x3aaf9ee3	0.0013398792
54	0x3d1324e8	0.03592387
55	0xbc837ed4	-0.016051687
56	0x3da480af	0.08032357
57	0xbda8ed21	-0.08248354
58	0xbd5e37d4	-0.05425246
59	0xbcb584c7	-0.02215804
60	0x3daee411	0.08539594
61	0x3afdfc8d	0.0019377634
62	0x3d0f2a0f	0.03495222
63	0x3c31a7ef	0.010843261
64	0x3d0c7f3e	0.034301035
65	0xbd83f2bf	-0.064427845
66	0xbb78e9df	-0.0037981195
67	0xbe087972	-0.13327578
68	0x3dabf596	0.08396451
69	0x3dd1f166	0.10251121
70	0xbb494fc0	-0.00307177
71	0xb970dc00	-0.0002297014
72	0x3d382bae	0.04496353
73	0xbd5054c9	-0.050862107
74	0xbd876384	-0.06610778
75	0xbdc4e789	-0.09614474
76	0x3c69fd22	0.014281543
77	0x3c294fd2	0.010333972
78	0xbc4dcbbe	-0.012560783
79	0xbc9871a2	-0.018608872
80	0xbdc8ec83	-0.09810736
81	0xbb8a50b2	-0.0042210454
82	0xbd9f0303	-0.07764246
83	0x3cf8e9ee	0.030384984
84	0xbbe3ceb4	-0.006952131
85	0x3d5dd720	0.054160237
86	0xbd1ed112	-0.038773604
87	0x3d0dce28	0.034620434
88	0xbd77e4b5	-0.060520846
89	0x3d4e5076	0.050369702
90	0xbd8d6b61	-0.069052465
91	0xbd136622	-0.035986073
92	0xbcf348c8	-0.02969779
93	0x3d1ad429	0.037799988
94	0xbc7bb339	-0.015362554
95	0xbdd507ea	-0.104019
96	0x3da6480b	0.0811921
97	0x3d77855c	0.060429916
98	0x3d9dfc2c	0.077141136
99	0x3ba7e2a0	0.0051234514
100	0x3d446d5f	0.047955867
101	0xbc072ba8	-0.008250155
102	0x3ca36d73	0.01994965
103	0x3c34600e	0.011009229
104	0x3d86cadd	0.06581662
105	0xbd4be43b	-0.049778204
106	0xbd66fe60	-0.056394935
107	0xbdc70d62	-0.097193494
108	0x3d97df77	0.074156694
109	0x3e349a53	0.17636995
110	0xbb1cdd0a	-0.002393546
111	0xbd03f4b6	-0.032215796
112	0x3cd9d0a6	0.02658875
113	0x3cb5a340	0.02217257
114	0x3aa65b83	0.0012692068
115	0x3da03fe0	0.07824683
116	0x3d218ad2	0.03943903
117	0xbce24b75	-0.027623871
118	0xbc181c7b	-0.009284134
119	0xbd814299	-0.063115306
120	0xbda14a91	-0.078755505
121	0x3d7a718f	0.061143454
122	0x3d7fbb1a	0.062434293
123	0x3d7891fd	0.0606861
124	0xbd8037c6	-0.06260638
125	0x3dd3df0e	0.10345279
126	0x3ca08e6c	0.019599162
127	0xbd8998b0	-0.06718576
128	0x3c5f9b88	0.013647921
129	0x3cf8fb8c	0.030393384
130	0xbfde1be6	-1.7352264
131	0xbee493a0	-0.4464388
132	0x3c093f8c	0.008376967
133	0x3e747c1b	0.23875467
134	0xbdbd2170	-0.09234893
135	0x3d1634e3	0.03667153
136	0x3da81072	0.08206262
137	0x3ece674a	0.40313178
138	0xbb0438d0	-0.0020175464
139	0xbd01d1eb	-0.031694334
140	0x3d593647	0.05303028
141	0x3d2b0c65	0.041759867
142	0xbd02e8d4	-0.031960323
143	0x3dc478e3	0.0959337
144	0x3d42210f	0.04739481
145	0x3cbeacea	0.023275811
146	0xbc574b88	-0.013140567
147	0xbd935b9a	-0.07195206
148	0xbd771158	-0.060319275
149	0xbcf6ce1a	-0.030127574
150	0xbad1a9a8	-0.0015995996
151	0xbd01dc2f	-0.031704124
152	0xbd2a3ee8	-0.0415639
153	0x3de0b702	0.10972406
154	0xbd43c0f5	-0.04779144
155	0xbd367572	-0.0445456
156	0xbd37f085	-0.04490711
157	0xbaf4770b	-0.00186512
158	0xbda78a1b	-0.081806384
159	0xbc928010	-0.01788333
160	0xbc9a3acb	-0.018826863
161	0xbcd3909e	-0.025825795
162	0x3d2a6cc5	0.041607637
163	0x3b6cda27	0.003614077
164	0xbd39e160	-0.04538095
165	0xbd0d17a7	-0.034446385
166	0xbd85dc90	-0.065362096
167	0x3d8e379f	0.06944203
168	0x3d57251a	0.052525617
169	0x3d2d38a1	0.042290334
170	0xbcf8df2e	-0.030379858
171	0xbd401d0d	-0.046902705
172	0x3d972558	0.0738017
173	0x3d7ad7c7	0.061240938
174	0x3c717690	0.01473774
175	0x3cacbc4d	0.021085883
176	0xbbd0ba46	-0.006369862
177	0x3d591128	0.052994877
178	0xbd1d158d	-0.03835063
179	0x3d865c33	0.06560554
180	0xbd5f3984	-0.05449821
181	0xbcbfc4db	-0.023409298
182	0xbdbc67dc	-0.09199497
183	0xbdd319ba	-0.10307641
184	0xbc99ce6c	-0.018775187
185	0x3da091a0	0.07840276
186	0xbda65076	-0.081208155
187	0x3d1e1f31	0.038603965
188	0xbd93253e	-0.07184838
189	0xbcba4bb9	-0.022741186
190	0x3d2e123b	0.042497855
191	0x3d06308a	0.032761134
192	0xbc78694b	-0.015161823
193	0xbd906fc6	-0.07052569
194	0xbdd11243	-0.10208561
195	0x3ce6821a	0.02813821
196	0xbda5143e	-0.080605015
197	0x3d1bbe5f	0.03802335
198	0xbd62753e	-0.055287592
199	0xbd11a86b	-0.035561007
200	0xbda532da	-0.0806634
201	0xbae50e7b	-0.0017475629
202	0x3d55a868	0.052162558
203	0xbcb0a528	-0.021563128
204	0xbc1b495a	-0.009477938
205	0xbda27808	-0.079330504
206	0xbc9ce758	-0.019153282
207	0xbd0041ce	-0.031312756
208	0x3db2fe49	0.08739907
209	0xbc094b47	-0.008379764
210	0xbd76d6ef	-0.06026357
211	0x3d4286fa	0.047492005
212	0x3d0340f5	0.03204437
213	0x3cc8103e	0.024421807
214	0xbcafca98	-0.021458909
215	0xbd670711	-0.056403223
216	0xbdb1e10c	-0.086855024
217	0x3c675d64	0.014121387
218	0x3c64e4df	0.013970583
219	0xbc48841d	-0.0122385295
220	0xbd97d163	-0.07412984
221	0xbd040a24	-0.032236233
222	0x3dadba3a	0.084827855
223	0x3d3b907e	0.045792095
224	0x3ceecc7b	0.029150238
225	0x3dc4e7bc	0.09614512
226	0x3d149f67	0.03628483
227	0x3d792674	0.060827687
228	0xbd7c5354	-0.061602905
229	0xbd6db609	-0.05803493
230	0xbcfe8994	-0.031071462
231	0xbd95b552	-0.07309975
232	0xbd12fe83	-0.035887253
233	0x3db8bf72	0.0902089
234	0x3dcc1257	0.099644355
235	0xbc4730b4	-0.012157608
236	0xbd2e1376	-0.04249903
237	0x3d463230	0.048387706
238	0xbd3972de	-0.04527556
239	0x3dac1658	0.08402699
240	0xbd9bb8d6	-0.07603614
241	0x3d843da3	0.06457069
242	0x3d8b3030	0.067963004
243	0x3d56e62e	0.05246561
244	0x3b2dc546	0.002651529
245	0x3d06af3b	0.032881957
246	0xbcb4294c	-0.021992348
247	0xbcb7455d	-0.022371942
248	0x3d93e56d	0.07221494
249	0xbd137d6f	-0.036008295
250	0xbb5c677b	-0.0033631015
251	0x3d9777f7	0.07395928
252	0x3d9d1d79	0.07671637
253	0x3da34b42	0.07973339
254	0x3d922c1c	0.071373194
255	0x3c78da38	0.015188746

fc1.bias f4 [512]
0	0x3d87e594	0.066355854
1	0xbad7d632	-0.0016467033
2	0x3c3b861f	0.011445551
3	0x3df4d3f8	0.11954492
4	0x3d01362a	0.031545796
5	0x3d2efe06	0.042722724
6	0x3d7cee33	0.061750602
7	0x3d6f4d69	0.058423433
8	0x3d94a1a6	0.072573945
9	0xbc9a70a9	-0.018852549
10	0xbd3321b4	-0.043733314
11	0x3d3594a3	0.044331204
12	0xbbd003b8	-0.0063480996
13	0x3de49f62	0.11163212
14	0x3c55733c	0.013027962
15	0x3d48a994	0.048989847
16	0x3d145a0d	0.03621869
17	0x3ce493d9	0.02790253
18	0x3e2d6531	0.16933133
19	0x3d7048a2	0.058663018
20	0x3d1d27ac	0.038367912
21	0x3ce5fe4d	0.028075362
22	0x3da05eba	0.07830568
23	0x3dc39382	0.09549619
24	0x3d4475a9	0.047963772
25	0x3d93d02a	0.072174385
26	0xbcbe76d9	-0.02325003
27	0x3db164f9	0.08661837
28	0x3e032095	0.12805398
29	0x3d9910f6	0.07473938
30	0x3dcc00e1	0.09961105
31	0xbcf2a451	-0.029619368
32	0x3d86e96f	0.06587493
33	0x3baf6ca9	0.0053535295
34	0xbd759010	-0.05995184
35	0x3de32d2d	0.11092601
36	0x3c8ba9ac	0.01704868
37	0x3d97c7f6	0.074111864
38	0x3dcdeb87	0.10054689
39	0x3e134573	0.14381962
40	0xbc942841	-0.0180856
41	0xbd8275d4	-0.0637013
42	0xbcba9030	-0.022773832
43	0x3cdb5c92	0.02677754
44	0x3db2520f	0.08707058
45	0x3d572224	0.052522793
46	0xbd8a8c03	-0.06764986
47	0x3db1a3fa	0.08673854
48	0xbdb0d3a8	-0.0863412
49	0xbd097964	-0.033563033
50	0x3e2edea3	0.17077117
51	0xbcb76bbe	-0.022390243
52	0xbd55d274	-0.052202657
53	0x3d38d9df	0.045129653
54	0x3caca7df	0.02107614
55	0x3cc3cb59	0.023900675
56	0xbc015f62	-0.007896276
57	0x3db4608e	0.08807479
58	0x3d221689	0.039572272
59	0x3bf3c994	0.0074398015
60	0x3c8ca57d	0.017168755
61	0xbd57c2be	-0.052675955
62	0x3b7e6a46	0.0038820668
63	0x3c3d2356	0.011544069
64	0x3c1704e1	0.009217472
65	0x3c1b09a8	0.009462751
66	0x3d15c767	0.036567118
67	0x3d7615d9	0.06007943
68	0x3d90e498	0.07074851
69	0xbca58a98	-0.020207688
70	0x3bcbd65c	0.006220622
71	0xbd3eb346	-0.046557687
72	0x3d7153b8	0.05891773
73	0x3d2f84e1	0.042851333
74	0xbd5fef19	-0.05467138
75	0x3d5feca2	0.05466903
76	0x3b8eb15d	0.0043546394
77	0xbda4b061	-0.08041454
78	0x3a8ad8a0	0.0010593124
79	0x3d13dfca	0.036102094
80	0xbcb7e2b2	-0.022446964
81	0xbc715400	-0.0147295
82	0x3d82547c	0.0636377
83	0x3d0ce8b3	0.034401607
84	0x3c9e0d1f	0.019293366
85	0xbcbf5c82	-0.02335954
86	0x3d5583fe	0.05212783
87	0xbcf6d2f9	-0.030129896
88	0xbb7841ef	-0.0037881096
89	0xbd408905	-0.047005672
90	0x3d2bcad9	0.041941497
91	0x3d6f828c	0.05847411
92	0x3d82e3c5	0.063911
93	0xbd187dc3	-0.03722931
94	0xbc94725d	-0.018120939
95	0x3d8a3628	0.06748611
96	0xbcf6d468	-0.03013058
97	0x3d449305	0.04799177
98	0x3ddc1f6d	0.107481815
99	0x3dff17fa	0.12455745
100	0xbba99c24	-0.005176084
101	0xbd45ed35	-0.04832192
102	0xbd26783f	-0.04064202
103	0xbc7cf368	-0.015438892
104	0x3dc09b70	0.09404647
105	0xbd3b1e1e	-0.04568302
106	0xbd516ef5	-0.051131207
107	0x3de92667	0.11384278
108	0x3df84530	0.121225715
109	0x3cbbb54c	0.022913598
110	0x3cfc3a54	0.030789532
111	0xbdb01ec7	-0.0859962
112	0x3dfbc784	0.12293914
113	0x3e227826	0.15866145
114	0xbdf4093e	-0.11915825
115	0x3cd32f88	0.0257795
116	0x3dbb2449	0.0913778
117	0x3dabf4ab	0.08396276
118	0xbcbca97f	-0.02303004
119	0xbd1ce18d	-0.03830104
120	0xbd126819	-0.035743807
121	0xbccd815e	-0.025086101
122	0xbdf8b798	-0.12144393
123	0x3de622c3	0.11237099
124	0xbcca0177	-0.024658902
125	0x3d331cf7	0.043728795
126	0x3cc17e52	0.023619805
127	0xbc9e678d	-0.019336486
128	0xbcc3047d	-0.023805851
129	0xbd8de75e	-0.069288954
130	0x3b8c9412	0.0042901123
131	0x3d4cdb03	0.050013553
132	0x3de6008a	0.112305716
133	0xbcc572d0	-0.024102598
134	0xbcfaffb7	-0.030639512
135	0x3d2e2ee7	0.0425252
136	0xbd814b1f	-0.06313156
137	0x3cd6f163	0.026238149
138	0x3da23874	0.07920924
139	0xbaf745fd	-0.0018865463
140	0x3ddf8593	0.10914149
141	0xbc856f81	-0.01628852
142	0xbd19a7ca	-0.03751353
143	0x3dd1d303	0.102453254
144	0x3d7b8dad	0.06141441
145	0xbd99688e	-0.07490645
146	0x3d6f1472	0.058369108
147	0xbd86c404	-0.06580356
148	0x3d98cb33	0.07460632
149	0xbd7b9a20	-0.061426282
150	0x3d85f07b	0.06540009
151	0xbd057a5f	-0.032587405
152	0x3d8de451	0.069283135
153	0x3bcf199c	0.0063201915
154	0x3decd275	0.11563579
155	0xbe0294d3	-0.12752084
156	0xb9bf67d1	-0.00036507708
157	0x3e167348	0.14692414
158	0x3e11b708	0.14229977
159	0xbd340e0f	-0.04395872
160	0x3d276f8e	0.04087787
161	0xbced8c4a	-0.02899756
162	0x3e09e52e	0.13466331
163	0x3dc17a18	0.09447116
164	0xbd88450c	-0.06653795
165	0xbd14e805	-0.036354084
166	0x3c937d6e	0.018004145
167	0x3dfd32b0	0.123631835
168	0xbca637b4	-0.020290233
169	0x3dc293a3	0.09500816
170	0x3bf1367c	0.0073612314
171	0xbdd244b0	-0.10267007
172	0x3e0ea7c0	0.13931179
173	0x3d6d583d	0.05794548
174	0x3dcab95c	0.09898636
175	0x3da0503a	0.07827802
176	0x3db396c0	0.08768988
177	0x3d804b12	0.062643185
178	0xbd8c0580	-0.068369865
179	0xbc6876b1	-0.0141884545
180	0xbddb673c	-0.1071305
181	0xb81517a2	-3.5546378e-05
182	0x3cf1f7ff	0.029537199
183	0x3dacb921	0.08433748
184	0xbd6dc3c0	-0.05804801
185	0x3d4b1c1c	0.049587354
186	0xbc6d9b85	-0.014502411
187	0x3e145c8e	0.14488432
188	0x3d959d20	0.0730536
189	0x3decf244	0.11569646
190	0xbd29427a	-0.041323163
191	0x3d8090eb	0.06277641
192	0x3e0712d5	0.13190778
193	0xbe255a13	-0.16147642
194	0x3cd2ae76	0.025717955
195	0xbc64f2d8	-0.013973914
196	0x3d5cf25f	0.05394208
197	0x3c85ad6d	0.016318047
198	0xbd8db528	-0.069193184
199	0x3cd664af	0.026171057
200	0x3e15dbd0	0.14634633
201	0x3d39fe2b	0.04540841
202	0x3e10d948	0.14145386
203	0x3ced6d97	0.02898292
204	0x3da08042	0.07836963
205	0xbd27873a	-0.040900446
206	0xbcecc88f	-0.028904228
207	0xbd41f927	-0.04735675
208	0xbd29d9ce	-0.04146748
209	0xbdaa7108	-0.0832234
210	0x3c0ceccf	0.008601381
211	0x3dd101f9	0.102054544
212	0xbc1beb0b	-0.009516488
213	0x3e0c1ed9	0.13683642
214	0xbd89002a	-0.066894844
215	0x3e23c7d1	0.15994193
216	0x3d98ea35	0.074665464
217	0x3e03f651	0.12886931
218	0xbdb1c343	-0.08679821
219	0x3dc0909e	0.094025835
220	0xbd4a0d18	-0.049328893
221	0xbd231119	-0.039811227
222	0x3d83b353	0.06430688
223	0x3dfe92a8	0.12430316
224	0xbdcab33a	-0.09897466
225	0xbdb1d078	-0.086823404
226	0x3cf3667a	0.02971195
227	0xbcdca60d	-0.026934648
228	0xbe02d743	-0.12777428
229	0xbbcc8564	-0.0062414873
230	0x3d0fc8f9	0.03510377
231	0xbc8d21f3	-0.017228102
232	0x3dfe5aac	0.12419638
233	0x3e04858d	0.1294157
234	0xbcf37432	-0.029718492
235	0xbd159963	-0.036523234
236	0x3c0d3bb7	0.008620194
237	0xbd5ef5f7	-0.05443379
238	0xbd913058	-0.07089299
239	0x3c242e9e	0.01002088
240	0x3c742af3	0.014902818
241	0xbd0e17d0	-0.034690678
242	0xbdd07b5c	-0.10179779
243	0xbd54939d	-0.051898587
244	0xbc693139	-0.014232927
245	0x3bd62e5f	0.0065362896
246	0x3e27cd1a	0.16386834
247	0x3c9ea468	0.019365504
248	0xbd0b53fa	-0.034015633
249	0x3b6e09bf	0.0036321727
250	0x3daea8f1	0.08528317
251	0xbcf08a2d	-0.029362762
252	0xbdcb16aa	-0.09916432
253	0xbc477363	-0.012173506
254	0x3e1380e3	0.14404635
255	0x3d172d85	0.036908645

fc2.weight f4 [256, 512]
0	0x39b639f5	0.00034756926
1	0x3d799256	0.060930572
2	0xbd494eb0	-0.049147308
3	0x3acc47f2	0.0015585406
4	0x3d0ccf9c	0.03437768
5	0x3d11866a	0.035528578
6	0x3d348156	0.044068657
7	0xbca6d0aa	-0.02036317
8	0x3c9d1bc1	0.019178273
9	0x3c8a2758	0.016864464
10	0x3c0cd5e8	0.008595921
11	0xbb88499a	-0.0041591646
12	0x3d4bb0d1	0.049729172
13	0x3c9c6e1c	0.019095473
14	0x3d402fc5	0.046920557
15	0xb9b07b85	-0.00033661365
16	0xbcb3589d	-0.02189284
17	0x3c95055e	0.018191036
18	0x3b32aa25	0.0027262059
19	0xbcb06a62	-0.021535102
20	0x3d253d3c	0.0403416
21	0xbcb162f3	-0.021653628
22	0x3d3d69b3	0.04624338
23	0x3d4f25b5	0.05057307
24	0x3d74c496	0.05975779
25	0x3d7445ec	0.059636995
26	0xbbb5ccad	-0.005548081
27	0xbd7eb328	-0.062182575
28	0x3d0e94ba	0.034809805
29	0xbde0a223	-0.10968425
30	0x3c95a17d	0.01826548
31	0x3d1b275e	0.03787934
32	0xbd00cd6c	-0.031445906
33	0x3ce28b37	0.027654273
34	0xbc79a03f	-0.01523596
35	0x3d6d4178	0.057923764
36	0x3d39ee05	0.04539301
37	0xbd6afad8	-0.05736813
38	0x3be0e091	0.006862708
39	0x3c12335f	0.008923381
40	0x3d778c23	0.06043638
41	0xbc8885f5	-0.016665438
42	0x3960f436	0.0002145328
43	0x3cdd9c47	0.027052058
44	0x3da9fc4c	0.08300075
45	0x3d1d6102	0.038422592
46	0xbd616bc4	-0.055034414
47	0x3ce3ec22	0.027822558
48	0xbcce894b	-0.02521195
49	0x3d40c96a	0.047067083
50	0x3da7301b	0.08163472
51	0x3d44db36	0.04806062
52	0x3ccac7c5	0.02475346
53	0x3cbf07a5	0.023319075
54	0xbd374ec4	-0.04475285
55	0xbd16cdbe	-0.036817305
56	0x3ce1d292	0.027566228
57	0x3d0fd61f	0.03511631
58	0x3a816f95	0.0009875173
59	0xbd03c6e8	-0.032172114
60	0xbc509f8f	-0.012733354
61	0x3ce8ccfa	0.028418053
62	0x3d4638e2	0.04839409
63	0x3d431e5d	0.04763638
64	0x3c338e6e	0.010959251
65	0xbd26ffa6	-0.04077115
66	0xbc4262ec	-0.011864405
67	0x3d3bafd8	0.045821995
68	0x3cedd4e7	0.029032184
69	0xbd6a7141	-0.057236914
70	0x3c192b4b	0.009348701
71	0x3c14b55d	0.0090764435
72	0x3d487666	0.04894104
73	0xbd9fc07a	-0.07800384
74	0x3d0abb88	0.03387025
75	0x3d6a9633	0.057272147
76	0x3be9a4de	0.0071302494
77	0x3c53cd7d	0.01292741
78	0x3d88cccc	0.06679687
79	0x3d5e2fd1	0.05424482
80	0xbdb96320	-0.0905211
81	0xbdc66e31	-0.09688986
82	0xbd85e1a1	-0.06537176
83	0xbd5cf368	-0.053943068
84	0x3cb08438	0.021547422
85	0x3c7f7c6a	0.0155936275
86	0xbceb5d26	-0.02873094
87	0xbcf6b24f	-0.030114321
88	0x3c232957	0.009958587
89	0xbd54f4e3	-0.051991355
90	0x3d75ee6f	0.06004184
91	0x3b7f4292	0.003894959
92	0x3d5a575f	0.05330598
93	0xbd569935	-0.052392203
94	0x3d24d177	0.040238824
95	0xbd6f1ed3	-0.058379006
96	0xbd30beb9	-0.043150637
97	0xbbbebdbe	-0.005820959
98	0x3b17d4b7	0.002316756
99	0xba888a80	-0.0010417253
100	0x3d505c83	0.050869476
101	0xbcb8b592	-0.022547517
102	0x3d22249a	0.039585687
103	0x3b08999c	0.0020843511
104	0x3d805755	0.06266657
105	0x3c7bc27e	0.015366195
106	0xbd054a28	-0.032541424
107	0xbb898665	-0.0041969293
108	0x3cbc98dd	0.02302211
109	0x3d8ed17f	0.06973552
110	0xbad8881c	-0.0016520056
111	0xbd02f918	-0.031975836
112	0xbc3451d0	-0.011005834
113	0x3c9f1b28	0.019422129
114	0xbcd56136	-0.02604733
115	0x3bf53012	0.007482537
116	0x3d0b3891	0.033989493
117	0x3d05cc11	0.032665316
118	0x3cb88eb0	0.022528976
119	0xbd5e5736	-0.05428239
120	0xbd4243a3	-0.047427785
121	0x3d606ecf	0.054793175
122	0xbe0fb1fb	-0.14032738
123	0x3d039b7f	0.032130715
124	0xbc203dd2	-0.009780364
125	0xbd49ac99	-0.049236868
126	0xbc609b5f	-0.013708918
127	0xbd0f8dde	-0.035047404
128	0x3d6f6176	0.058442555
129	0xbd503f1e	-0.050841443
130	0x3d87be22	0.06628062
131	0xbcf260e7	-0.029587222
132	0x3d288dfc	0.04115103
133	0x3c2ad163	0.010425898
134	0x3ccbb7d3	0.024867928
135	0x3bc3c8a5	0.0059748464
136	0xbbd4a23d	-0.006489067
137	0xbba43ef1	-0.005012386
138	0xbd10d76a	-0.035361685
139	0x3c797232	0.01522498
140	0x3cbcff77	0.023071034
141	0xbdb3dcc9	-0.08782346
142	0x39a6d6dc	0.0003182207
143	0x3da411e1	0.08011223
144	0xbc901128	-0.017586306
145	0xbd992de7	-0.07479458
146	0xbd6f87dc	-0.058479175
147	0x3bfe6152	0.0077630663
148	0xbc932376	-0.017961245
149	0xbc92efd9	-0.017936634
150	0x3c81fd97	0.015867991
151	0xbd49e2a3	-0.049288403
152	0x3cbe2444	0.023210652
153	0x3d33d328	0.043902546
154	0xb9ad22ed	-0.00033023153
155	0xbd98b364	-0.07456091
156	0x3c07bf2c	0.008285325
157	0x3caa428a	0.020783681
158	0x3d20ffda	0.0393065
159	0xbc5271ac	-0.012844484
160	0x3d32a717	0.04361638
161	0xbc4f8dd4	-0.012668092
162	0x3d2f6485	0.042820472
163	0x3d2d4d88	0.042310268
164	0x3a0a9cc3	0.00052876415
165	0x3c086e84	0.00832713
166	0x3a9eba15	0.00121099
167	0x3cbf8bc5	0.023382077
168	0x3d2a37ff	0.04155731
169	0x3d32ed6f	0.043683466
170	0xbde3298b	-0.11091908
171	0xbd48548c	-0.048908755
172	0xbd030d2b	-0.03199498
173	0x3ccd6f4a	0.02507748
174	0xbb3b347a	-0.0028565214
175	0x3cfe9ca4	0.031080551
176	0xbd894ddb	-0.06704303
177	0xbcfc426a	-0.030793387
178	0xbd29eb74	-0.04148431
179	0xbc7ea398	-0.0155419335
180	0xbce2ead5	-0.027699867
181	0xbef20bba	-0.47274572
182	0x3ce15d9d	0.027510459
183	0x3d085419	0.033283327
184	0xbe2f211d	-0.17102475
185	0xbcbc86ff	-0.02301359
186	0xbce4df19	-0.027938413
187	0x3ba63ba4	0.0050730277
188	0x3ce525c2	0.027972106
189	0x3d9908b0	0.0747236
190	0x3cbcad87	0.023031963
191	0x3d64151a	0.055684187
192	0x3d8997db	0.06718417
193	0xbe8f6097	-0.2800338
194	0x3bfd79a8	0.00773545
195	0x3cc351d2	0.023842726
196	0x3d335798	0.043784708
197	0xbb42b873	-0.002971199
198	0xbdbcf7c7	-0.09226947
199	0xbcdee0b4	-0.027206756
200	0xbc6a00fa	-0.014282459
201	0x3d454bb7	0.04816791
202	0x3d3f4144	0.0466931
203	0xbd9c5e31	-0.07635153
204	0xbc8800f9	-0.016602026
205	0x3a970d0c	0.0011524274
206	0xbf25a5ca	-0.647061
207	0xbcbc93dc	-0.023019724
208	0x3d17a0d6	0.03701862
209	0x3d145bca	0.03622035
210	0x3cc04ecd	0.023475075
211	0x3da59700	0.080854416
212	0xbdb42b9b	-0.087973796
213	0x3d8ea6ac	0.06965384
214	0xbcaa43d3	-0.020784294
215	0xbcb566b6	-0.022143703
216	0xbd1596cb	-0.03652076
217	0xbc9d037a	-0.019166697
218	0xbdcdccd0	-0.100488305
219	0x3d05cf93	0.03266866
220	0xbdb2e4a2	-0.087350145
221	0xbd540a86	-0.05176785
222	0xbb7ea4ea	-0.003885562
223	0x3cf86266	0.030320358
224	0xbd5369aa	-0.05161444
225	0xbd1f0212	-0.038820334
226	0xbdef36ea	-0.11680396
227	0xbda5dba2	-0.08098532
228	0xbddb451e	-0.107065424
229	0x3c8d9854	0.01728455
230	0x3c15329c	0.0091063045
231	0x3d23822f	0.039919075
232	0x3bcc8370	0.0062412545
233	0x3d0c76dd	0.034293044
234	0xbbf8544d	-0.007578409
235	0x3d3d9329	0.04628292
236	0xbc6b4059	-0.014358603
237	0xbd675371	-0.05647606
238	0xbd423605	-0.0474148
239	0xbb1fa421	-0.0024359303
240	0x3d2ae926	0.041726254
241	0x3d6dcd28	0.05805698
242	0xbc73d4e5	-0.014882301
243	0xbc35580e	-0.011068357
244	0xbd07bfb3	-0.033141803
245	0xbba7ad5f	-0.005117103
246	0xbcc3de20	-0.023909628
247	0xbc0307dc	-0.007997479
248	0x3d1437b7	0.036185946
249	0x3d3b599c	0.045739755
250	0x3cab283a	0.020893205
251	0xbc3e4017	-0.01161196
252	0x3b92d0b9	0.004480448
253	0x3c9ea1ca	0.019364256
254	0xbcbca507	-0.02302791
255	0xbd6be4fb	-0.05759142

fc2.bias f4 [256]
0	0x3d7ff3de	0.06248843
1	0xbbf7ec86	-0.0075660376
2	0x3d472920	0.048623204
3	0x3cedbf43	0.029021865
4	0x3c432ad8	0.01191207
5	0x3d4dfc54	0.050289467
6	0x3ca537f4	0.020168282
7	0x3b2d2540	0.0026419908
8	0x3d8b005f	0.0678718
9	0x3d8a5806	0.067550704
10	0x3d8743b7	0.066047125
11	0x3cb7ecb9	0.022451745
12	0x3dc3171e	0.09525894
13	0x3c2788bd	0.010225472
14	0xbcebca5d	-0.028783018
15	0x3d8ed75a	0.06974669
16	0xbb0d9e63	-0.0021609298
17	0xbd0ac6a1	-0.033880834
18	0x3d706415	0.058689196
19	0xbd4476be	-0.047964804
20	0x3d1c0f76	0.038100682
21	0x3da02749	0.07819993
22	0x3c33dbcf	0.010977699
23	0xbd2e6bc3	-0.04258324
24	0xbdce8616	-0.100841686
25	0x3ca8e207	0.02061559
26	0x3ab54bc0	0.0013831779
27	0x3d8c9eaa	0.068662
28	0x3d823072	0.063568965
29	0xbd7d35fa	-0.061819054
30	0x3d66e8d2	0.05637438
31	0x3db834de	0.089944586
32	0x3d37aabf	0.04484057
33	0x3d9c735a	0.07639189
34	0x3d173d39	0.03692362
35	0x3d7e2832	0.062050052
36	0xbd4b2908	-0.049599677
37	0xbd1c575b	-0.038169246
38	0x3d767c21	0.060176972
39	0x3d54185c	0.051781043
40	0x3c9beb14	0.019032992
41	0x3dbed7db	0.09318515
42	0x3d74da9a	0.059778787
43	0xba12604a	-0.0005583806
44	0xbd42f52c	-0.047597095
45	0x3c309024	0.010776553
46	0xbd2094c8	-0.03920439
47	0xbd9cb0b4	-0.07650891
48	0xbd69349b	-0.056934934
49	0x3d9202d6	0.07129447
50	0x3da18f39	0.07888646
51	0xbd4ec8ee	-0.05048459
52	0x3dc27538	0.09495014
53	0x3d8db063	0.06918409
54	0x3cc8d0a1	0.024513545
55	0x3d85d5b6	0.06534903
56	0xbd8822f7	-0.06647294
57	0xbd2ab60b	-0.041677516
58	0x3c4e66b8	0.012597732
59	0x3c3fd003	0.011707309
60	0xbb676826	-0.003530988
61	0x3cd8ce88	0.02646567
62	0xbc4e07f3	-0.012575137
63	0x3d8b0c70	0.06789482
64	0xbcbc0119	-0.022949742
65	0xbc2e3517	-0.010632775
66	0x3de82e65	0.11336974
67	0x3da8a83b	0.082352124
68	0xbd44e5db	-0.04807077
69	0x3dd9226e	0.1060227
70	0x3daf8ec9	0.08572156
71	0xbd8ecb84	-0.06972411
72	0x3cf4bfad	0.029876554
73	0x3d019acc	0.031641766
74	0x3d25642a	0.040378727
75	0xbc212bed	-0.009837133
76	0xbd128ab0	-0.035776794
77	0x3dcf64ce	0.10126649
78	0x3d3b40de	0.04571616
79	0x3d4d9256	0.050188385
80	0xbb529b14	-0.003213589
81	0xbd80c696	-0.06287877
82	0x3c7154e2	0.01472971
83	0x3d83d99f	0.06437992
84	0x3bf47b52	0.00746099
85	0x3d53d054	0.05171235
86	0xbc97c613	-0.018527066
87	0xbd457ff9	-0.048217747
88	0x3e131a91	0.14365603
89	0x3da7a976	0.08186619
90	0x3d3eb8e3	0.04656304
91	0xbbcd63f1	-0.0062680175
92	0x3dbb79f4	0.0915412
93	0x3d2332b8	0.03984329
94	0xbc87f206	-0.016594898
95	0xbd9852d6	-0.07437675
96	0xbd9d877b	-0.076918565
97	0x3d74f49e	0.059803598
98	0x3bd615f4	0.0065333787
99	0x3a83db63	0.0010059889
100	0xbc79e2b8	-0.015251808
101	0x3d35032d	0.04419248
102	0x3a452962	0.000752112
103	0x3d58636b	0.052829187
104	0xbd238ba4	-0.039928094
105	0x3d1dd4ed	0.03853314
106	0x3dd48f15	0.10378853
107	0xbd5970ff	-0.053086277
108	0x3d96ba4a	0.073597506
109	0x3da5a4fd	0.0808811
110	0x3daae3b1	0.0834421
111	0x3cd46cdb	0.025930813
112	0xba0bca0d	-0.0005332537
113	0xbd4f0d59	-0.05054984
114	0x3d816bea	0.06319411
115	0x3abac952	0.0014250672
116	0x3d445d21	0.047940377
117	0x3d382a5d	0.044962276
118	0xbd93241b	-0.07184621
119	0xbdb8284c	-0.08992061
120	0x3d429246	0.04750278
121	0x3b904473	0.004402691
122	0xbaa177d3	-0.0012319036
123	0x3d8c6259	0.06854696
124	0x3d57cd34	0.05268593
125	0xbc619d34	-0.01377039
126	0x3d74e7a4	0.059791222
127	0x3d9be85b	0.07612678
128	0x3c45485e	0.012041179
129	0x3dae6a6b	0.08516391
130	0x3d45e3ea	0.04831306
131	0x3def6fe6	0.11691265
132	0xbd7a1740	-0.06105733
133	0xbd064d98	-0.032788843
134	0x3d46f779	0.048575852
135	0x3d457207	0.048204448
136	0x3bcb0827	0.00619604
137	0x3d4dbbd3	0.05022795
138	0x3d5cc2fd	0.053896893
139	0x3d511bec	0.05105202
140	0x3d8a1899	0.06742973
141	0x3d1cc59d	0.038274396
142	0xbb862b87	-0.0040945443
143	0x3d3b3d29	0.045712624
144	0x3def7cef	0.11693751
145	0xbd4b69d6	-0.04966148
146	0x3d3a18f1	0.045433942
147	0xbb545390	-0.003239844
148	0xbc86e8fb	-0.016468516
149	0x3e0ff0a8	0.14056647
150	0x3c3d3eaf	0.011550589
151	0xbc2d6d29	-0.010585108
152	0x3dbe0245	0.09277777
153	0x3da20bd8	0.07912415
154	0xbcc9fa37	-0.024655445
155	0x3d9c9c0f	0.07646953
156	0x3d3f4279	0.046694253
157	0x3ce8c2db	0.028413227
158	0x3da5ed50	0.081019044
159	0xbc39c769	-0.011339047
160	0xbc819e67	-0.015822602
161	0x3d988a24	0.07448223
162	0x3bf39a1d	0.007434143
163	0xbdbca346	-0.092108294
164	0x3d3a2013	0.045440745
165	0xbd35e841	-0.044410948
166	0xbdf52d78	-0.11971563
167	0xbcebf230	-0.028802007
168	0x3b0f5104	0.0021868357
169	0x3d3b77df	0.045768615
170	0x3d823f23	0.063596986
171	0x3d899718	0.06718272
172	0xbd07efad	-0.033187557
173	0x3d384346	0.044986032
174	0xbbdcff30	-0.006744288
175	0x3d4836fd	0.048880566
176	0x3d8e2c13	0.06942
177	0x3d798f09	0.060927425
178	0x3c3b03dc	0.011414494
179	0xbd972264	-0.07379606
180	0x3c4d7d8d	0.012542141
181	0xbd6175d9	-0.05504403
182	0xbd49de04	-0.049283996
183	0xbcc79a93	-0.024365699
184	0xbd42c0f2	-0.04754729
185	0xbc6deb0e	-0.014521373
186	0x3e071d1c	0.13194698
187	0x3cc14d19	0.023596333
188	0x3ce23008	0.027610794
189	0xbc11d898	-0.008901738
190	0x3d8e00f9	0.06933779
191	0x3d6ccb82	0.057811268
192	0x3ddec44c	0.108772844
193	0x3b83a4b2	0.004017436
194	0x3d0ebb70	0.034846723
195	0x3d70e8ea	0.058815874
196	0x3d6e091c	0.058114156
197	0xbb566fac	-0.003272037
198	0x3c7893c0	0.015171945
199	0xbc7ebbc6	-0.015547698
200	0x3dae913a	0.085237935
201	0x3d5c5448	0.053791314
202	0x3d9f9860	0.07792735
203	0x3df002b7	0.11719268
204	0xbd1ae589	-0.037816558
205	0xbc706164	-0.014671657
206	0x3d6282ac	0.0553004
207	0x3badd009	0.0053043407
208	0x3bc7730f	0.006086714
209	0x3d5944ab	0.053044003
210	0x3d67374b	0.056449216
211	0xbd53b6d8	-0.051688045
212	0x3d9c5b06	0.07634549
213	0x3c971bd4	0.018445887
214	0xbc241fb4	-0.010017324
215	0x3da1aa92	0.07893862
216	0x3d89eea7	0.067349724
217	0x3d14c061	0.03631628
218	0x3d7eaa3d	0.06217407
219	0x3cacd98f	0.021099834
220	0xbd53b6fb	-0.051688176
221	0x3dba1550	0.09086096
222	0xbd49bca3	-0.049252164
223	0xbd8c05f3	-0.06837072
224	0x3d5e86ae	0.05432766
225	0xbc1569f5	-0.0091195
226	0x3ce40f4f	0.027839331
227	0xbd35c00b	-0.0443726
228	0x3dab58cf	0.08366548
229	0x3dba4bc7	0.09096485
230	0xbd1a4932	-0.03766746
231	0x3dfe357f	0.12412547
232	0xbdabd269	-0.08389742
233	0x3d9eeb12	0.0775968
234	0xbd6a6ea2	-0.057234414
235	0x3d9ae07c	0.07562348
236	0x3d4049ea	0.04694549
237	0x3c0eae9c	0.008708622
238	0xbca198f4	-0.019726254
239	0xbd5f75b6	-0.054555617
240	0x3dee505b	0.1163642
241	0x3cc28ef7	0.023749812
242	0x3cee880d	0.029117608
243	0x3d1ad314	0.037798956
244	0x3dadaffd	0.08480833
245	0xba6fd008	-0.00091481255
246	0x3cbb152f	0.02283725
247	0xbd06c1c4	-0.032899633
248	0x3d356055	0.044281323
249	0xbcd7ac62	-0.026327316
250	0xbdf784e3	-0.12085893
251	0x3cd2e10f	0.025742082
252	0x3d3e2fe2	0.046432383
253	0x3d053dad	0.03252952
254	0x3dd5a5fe	0.10432051
255	0x3d717721	0.0589515

fc_actor_mean.weight f4 [20, 256]
0	0xbd1b10f1	-0.037857953
1	0xbcb44eb4	-0.022010185
2	0x3c7e7e67	0.015533066
3	0xbd166b75	-0.036723573
4	0xbc7a984d	-0.0152951
5	0xbd7a769e	-0.06114828
6	0xbd591f83	-0.053008568
7	0x3d81f025	0.06344632
8	0x3d18d3fb	0.037311535
9	0x3cfda427	0.030962063
10	0xbba44684	-0.005013289
11	0xbb8cd682	-0.0042980323
12	0xbb4ed8d5	-0.0031562347
13	0x3d69cede	0.05708205
14	0x3c92fce9	0.017942863
15	0xbd4507fc	-0.048103318
16	0xbd223030	-0.039596736
17	0xbd9b82ca	-0.075933054
18	0x3b05f31d	0.0020439096
19	0xbd244f32	-0.04011459
20	0xbc5d4c53	-0.013506967
21	0x3d04d783	0.03243209
22	0x3bf500c8	0.0074769
23	0xbdd72763	-0.10505559
24	0xbd14a835	-0.036293227
25	0xbc5b6614	-0.013391037
26	0x3d17034f	0.03686839
27	0xba79a1d3	-0.000952271
28	0xbd5cf2ee	-0.053942613
29	0x3c890817	0.01672749
30	0x3d512f05	0.051070232
31	0xbd3a1f69	-0.04544011
32	0x3c07c7bc	0.0082873665
33	0x3c299bec	0.010352116
34	0xbd59a917	-0.053139772
35	0x3d763158	0.06010565
36	0x3d0e18a6	0.034691475
37	0xbd2a3b9e	-0.04156076
38	0xbc7ef2ed	-0.015560848
39	0x3c92db6d	0.017926896
40	0x3c7b9c5b	0.015357102
41	0x3c85b8c8	0.016323462
42	0xbd123b27	-0.035700943
43	0x3c4abaed	0.012373668
44	0x3d02ed1d	0.03196441
45	0xbc89369a	-0.016749669
46	0xbd3fa8d1	-0.046791855
47	0x3a6a6308	0.00089411484
48	0x3d66ab3e	0.056315653
49	0xbcb9f3c2	-0.02269924
50	0xbd7a86de	-0.061163776
51	0x3c4f8b4d	0.012667489
52	0xbc686bfd	-0.014185903
53	0x3d458ffc	0.048233017
54	0xbd0d8744	-0.034552827
55	0xbc79bb32	-0.015242385
56	0x3d0d076d	0.03443091
57	0xbb29fa00	-0.0025936365
58	0xbbfe1b7c	-0.0077547412
59	0xbcd44005	-0.025909433
60	0xbcb8ded0	-0.022567183
61	0xbd2bddc5	-0.041959543
62	0x3c05f92f	0.008177086
63	0xbcec0f90	-0.028816015
64	0xbaf8292d	-0.001893317
65	0xbd1af824	-0.0378343
66	0x3d825e36	0.063656256
67	0x3d6c20ac	0.057648346
68	0x3bb89ce4	0.005633937
69	0xbd60cfc7	-0.054885652
70	0xbd3a63b6	-0.045505248
71	0x3c9d269b	0.019183448
72	0x3be6e0a0	0.0070458204
73	0x3d213cb5	0.039364535
74	0xbcd303d0	-0.025758654
75	0x3db376c1	0.08762885
76	0xbb8cf930	-0.0043021664
77	0xbc42bb12	-0.011885421
78	0x3d0f81eb	0.03503601
79	0x3d0cf89f	0.03441679
80	0x3cfad460	0.030618846
81	0x3b99abad	0.004689655
82	0x3b5afdc0	0.0033415407
83	0x3d60e984	0.054910198
84	0x3ca893c4	0.020578273
85	0xbcfbb72c	-0.030726992
86	0xbbb83cf6	-0.0056225015
87	0xbd32460d	-0.043523837
88	0x3d51dd26	0.051236294
89	0x3d0a7614	0.033804014
90	0xbda36914	-0.079790264
91	0xbbbacc77	-0.0057006436
92	0x3ccfa914	0.025349177
93	0x3b7c5d36	0.0038507706
94	0x3bde36e2	0.006781445
95	0xbc1ba928	-0.009500779
96	0xbd8080f3	-0.06274595
97	0x3d4a2692	0.04935319
98	0x3d2171f7	0.039415326
99	0x3c0283a8	0.00796596
100	0x3c224f68	0.009906627
101	0x3c30a5e3	0.010781738
102	0xbd3d8e61	-0.04627836
103	0x3d066837	0.03281423
104	0x3c9e97bc	0.019359462
105	0xbc98711a	-0.018608619
106	0x3cf0f406	0.029413234
107	0xbc4be5c3	-0.012444916
108	0xbc8d504c	-0.017250203
109	0x3d0d4b9b	0.03449593
110	0x3d643bad	0.055720974
111	0xbd7dd4db	-0.061970573
112	0xbce82cc5	-0.02834166
113	0xbc9741da	-0.018464018
114	0x3d142334	0.036166385
115	0x3d4758ef	0.048668798
116	0xbd2be0bd	-0.041962374
117	0xbd0c83d0	-0.034305394
118	0x3dd7439c	0.10510942
119	0xbba577b1	-0.0050496687
120	0xbc30c4f3	-0.010789144
121	0x3caa329e	0.02077609
122	0xbc359728	-0.011083402
123	0x3d0a7e06	0.03381159
124	0x3d735381	0.059405807
125	0xbc1fc18d	-0.009750736
126	0x3d558aaa	0.052134193
127	0x3c9a0389	0.018800514
128	0x3cfccac1	0.0308584
129	0x3c06663e	0.008203087
130	0x3cc51edf	0.024062572
131	0xbb95184c	-0.0045500156
132	0x3d99f0c4	0.075166255
133	0xbb6fe600	-0.0036605597
134	0xbd1df63c	-0.038564906
135	0xbd442a16	-0.0478917
136	0xba0fccfb	-0.00054855616
137	0x3d4f0416	0.050541006
138	0x3ca012d1	0.019540222
139	0x3d0d42e1	0.03448761
140	0x3ca33e68	0.019927219
141	0x3cdc79c4	0.026913531
142	0xbdb32ade	-0.08748411
143	0x3b558e00	0.003258586
144	0xbd1f1942	-0.038842447
145	0xbd3a138d	-0.0454288
146	0xbd0d1371	-0.03444237
147	0xbc8b2d7f	-0.016989468
148	0x3d218e2d	0.03944223
149	0x3d82afaf	0.06381165
150	0x3d12f75a	0.035880424
151	0x3cf035c2	0.029322509
152	0x3d7254bb	0.059162837
153	0xbd1d278e	-0.0383678
154	0xbc606fa0	-0.0136984885
155	0x3c5f7862	0.013639541
156	0xbc6e5b7e	-0.014548181
157	0xbc865614	-0.016398467
158	0x3bebf66f	0.007201008
159	0x3dba1973	0.09086885
160	0xbc25c541	-0.01011783
161	0xbd305a93	-0.04305513
162	0xbce4fcfb	-0.027952662
163	0xbc83e7bc	-0.01610171
164	0x3ca8494f	0.020542769
165	0xbb9b65aa	-0.004742344
166	0x3cc7b1f4	0.024376847
167	0x3d2bfbdf	0.04198825
168	0x3cdf440f	0.027254133
169	0xbcb66fb1	-0.022270055
170	0xbcf03564	-0.029322334
171	0x3d4da5ae	0.050206833
172	0x3d478e2b	0.048719566
173	0x3cc40127	0.02392633
174	0xbbb6ae96	-0.0055750115
175	0xbc8f47db	-0.017490318
176	0xbd16462a	-0.036688007
177	0xbc632cfd	-0.0138657065
178	0x3d5fb957	0.054620113
179	0xbd281b7e	-0.041041844
180	0xbd968fe8	-0.07351667
181	0x3b88edc5	0.004178735
182	0x3c121114	0.008915205
183	0x3d227da2	0.039670594
184	0xbc41fb43	-0.011839691
185	0x3e3238c5	0.17404468
186	0xbcaf205b	-0.021377733
187	0xbd0d96d6	-0.034567676
188	0x3c18bab0	0.0093218535
189	0xbb993f51	-0.0046767374
190	0xbbc41f48	-0.0059851743
191	0xbd2b6576	-0.041844808
192	0x3d3e5c20	0.046474576
193	0xbc6c90ab	-0.014438788
194	0x3d09d422	0.03364957
195	0xbb4adcc2	-0.0030954336
196	0xbc8112a7	-0.015755964
197	0xbcc49a6e	-0.023999419
198	0xbcced1b8	-0.025246486
199	0xbdc38314	-0.095464855
200	0x3d3b3359	0.045703266
201	0xbc5be320	-0.01342085
202	0xbc5d3af4	-0.013502825
203	0x3ca5a572	0.020220492
204	0x3d03ec9d	0.032208074
205	0x3cc5d56d	0.02414962
206	0x3d048dc0	0.032361746
207	0x3d99936a	0.0749882
208	0xbd3d292c	-0.046181843
209	0xbcfefc52	-0.031126175
210	0xbd3b5fd0	-0.04574567
211	0x3cadbb8d	0.021207595
212	0x3d8acb6e	0.067770824
213	0x3d8a3cdf	0.067498915
214	0xbb7a6614	-0.0038207816
215	0x3b83e4ff	0.004025101
216	0xbd8da9f8	-0.069171846
217	0x3c7f1ef0	0.015571341
218	0x3c9b2976	0.018940669
219	0xbd8255f0	-0.063640475
220	0xbc8dc58c	-0.017306112
221	0x3cb74e77	0.022376282
222	0x3d97cb67	0.07411843
223	0xbca3d166	-0.01999731
224	0xbcc130dd	-0.02358287
225	0xbc7d3478	-0.015454404
226	0xbbb4bc9c	-0.005515648
227	0xbcb022f0	-0.021501034
228	0x3bba71c8	0.0056898333
229	0x3bed75e7	0.007246721
230	0x3c5f9686	0.013646727
231	0xbd58e94b	-0.05295686
232	0x3cd7585e	0.026287254
233	0xbbc38fa0	-0.005968049
234	0xbd87a2de	-0.06622861
235	0x3c5a38a7	0.013319171
236	0xbd580cb3	-0.052746486
237	0xbcd11334	-0.025521852
238	0xba29c0e4	-0.00064755813
239	0xbd3a47d7	-0.045478668
240	0x3d26f5ed	0.040761877
241	0x3ad25d9b	0.0016049625
242	0x3c7da6ac	0.015481632
243	0xbc74fa2e	-0.014952226
244	0x3d12629d	0.035738576
245	0x3d074df7	0.033033337
246	0x3cb20984	0.021733053
247	0xbcf22f39	-0.029563533
248	0xbd0de535	-0.034642417
249	0x3d418476	0.047245465
250	0xbc83873b	-0.016055694
251	0xbcb98b45	-0.022649417
252	0xbc8f8eab	-0.017524084
253	0xbbddd939	-0.0067702797
254	0x3bafd1a5	0.0053655677
255	0x3c99427c	0.01870846

fc_actor_mean.bias f4 [20]
0	0x3cfa6ac0	0.03056848
1	0x3d5677da	0.052360393
2	0x3c73d98a	0.014883408
3	0x3bd47a02	0.006484271
4	0x3d0d69fd	0.034524906
5	0x3c9389f6	0.01801012
6	0xbd8633e7	-0.06552868
7	0xbbacf668	-0.0052783974
8	0x3cd5aa45	0.026082167
9	0xbc6cccc2	-0.014453115
10	0xbd5a3268	-0.053270727
11	0x3c2ded6f	0.010615691
12	0xbd283875	-0.041069467
13	0xbd39b036	-0.045334063
14	0xbd46ba73	-0.048517656
15	0xbcc49884	-0.023998506
16	0xbd0440a2	-0.0322882
17	0xbd807767	-0.06272774
18	0xbd55d0aa	-0.05220095
19	0xbd2eb73b	-0.04265521

fc_actor_std.weight f4 [20, 256]
0	0x3b0150a8	0.0019731913
1	0x3cc29455	0.02375237
2	0x3c67d3c6	0.014149612
3	0xbc30f3e8	-0.010800339
4	0x3c52eed6	0.012874326
5	0x3cea33f7	0.028589232
6	0xbcba9a27	-0.022778584
7	0xbd9fbe92	-0.0780002
8	0x3cdb664b	0.026782176
9	0x3cc028cb	0.023456952
10	0x3d1b0205	0.037843723
11	0xbcab37d1	-0.020900639
12	0xbd23be70	-0.039976537
13	0x3d4df785	0.05028488
14	0xbdaebf06	-0.085325286
15	0xbd7308cb	-0.059334558
16	0xbd48b541	-0.049000982
17	0x3dbb1f05	0.09136776
18	0x3c6353f5	0.013874997
19	0x3d0b7489	0.034046683
20	0x3cbf44f4	0.02334831
21	0x3d307402	0.043079384
22	0xbd21632f	-0.03940123
23	0xbd6d3823	-0.057914864
24	0x3c1629ce	0.00916524
25	0xbcce6f42	-0.025199536
26	0x3d386788	0.04502061
27	0xbd9a03f9	-0.07520289
28	0x3c596af7	0.013270131
29	0x3d11d4f5	0.035603482
30	0x3c7eb527	0.01554612
31	0x3d0f889c	0.03504239
32	0xbce34e89	-0.02774741
33	0xbd8c3c88	-0.06847483
34	0xbc999750	-0.01874891
35	0x3cf633d3	0.030054009
36	0x3cb36651	0.021899374
37	0x3cdc54fd	0.026895994
38	0x3d80dcfd	0.0629215
39	0xbd270d51	-0.040784184
40	0x3c1a27dc	0.009408917
41	0xba3e3978	-0.00072564883
42	0xbd6b4ee7	-0.057448294
43	0xbb8c32de	-0.004278525
44	0x3d59fd2f	0.05321997
45	0xbd268395	-0.04065283
46	0x3d762713	0.060095858
47	0xbd690fe9	-0.05689994
48	0x3d083999	0.033258054
49	0xbcaff8fa	-0.021481026
50	0x3b3813b6	0.002808792
51	0xbd2c6328	-0.04208675
52	0xbd0bb7ec	-0.03411095
53	0xbd838f99	-0.064238735
54	0xbce7530c	-0.028237842
55	0xbcd9d8e2	-0.026592676
56	0x3dc0016e	0.09375273
57	0xbd5e5265	-0.054277796
58	0xbd0d80cd	-0.034546662
59	0xbdae049c	-0.08496973
60	0xbd3bf379	-0.04588649
61	0xbd1a783f	-0.03771233
62	0xbca76582	-0.020434145
63	0xbbc8089e	-0.006104543
64	0x3d735c10	0.05941397
65	0xbd1ab88e	-0.03777366
66	0x3b06ebcc	0.0020587323
67	0xbd303dba	-0.043027617
68	0x3d1712b5	0.036883075
69	0xbd774107	-0.06036475
70	0x3cede11e	0.029038008
71	0x3d15db3f	0.036586042
72	0x3d4f2f2b	0.050582092
73	0x3d1f13cb	0.038837235
74	0xbc6d6df2	-0.014491545
75	0x3c06c292	0.0082251
76	0x3c5a45be	0.013322292
77	0x3d1bcd21	0.038037423
78	0x3bd69422	0.0065484205
79	0x3d3a91cc	0.0455492
80	0x3dcfa656	0.10139148
81	0x3c20a94c	0.0098059885
82	0x3d35ccbb	0.0443847
83	0x3d35308b	0.044235747
84	0x3c5db648	0.013532229
85	0x3b96b739	0.0045994786
86	0xbc6de462	-0.014519783
87	0x3d8c1f71	0.068419345
88	0xbcc807b1	-0.02441773
89	0xbdc55a61	-0.09636379
90	0xbd215090	-0.03938347
91	0x3d43fd4f	0.047848996
92	0xbc3d7677	-0.011563889
93	0xbd6eba02	-0.05828286
94	0x3cd5ae83	0.02608419
95	0x3bc6c5df	0.0060660685
96	0x3bf5fe26	0.0075071035
97	0xbd509520	-0.050923467
98	0xbd211860	-0.039329886
99	0xba959a7d	-0.0011413839
100	0x3cfde893	0.03099469
101	0xbd7dfaef	-0.062006887
102	0x3d64a16c	0.055818006
103	0x3cbe71fb	0.02324771
104	0x3c545408	0.012959488
105	0xbc260236	-0.010132363
106	0x3d623417	0.055225458
107	0x3bddc77f	0.0067681666
108	0xbcf928d9	-0.030414985
109	0x3c6a4999	0.014299774
110	0x3be319dd	0.0069305734
111	0xbceaf804	-0.028682716
112	0x3d4001ab	0.04687659
113	0x3d26d8ec	0.040734217
114	0xbd24085a	-0.040047027
115	0xbbeb528a	-0.0071814703
116	0x3ae508f9	0.0017473988
117	0x3d7cb8c1	0.061699633
118	0x3cb1a851	0.021686705
119	0x3d34bb27	0.044123795
120	0x3bb1391e	0.00540842
121	0xbce4daca	-0.027936358
122	0x3cce932c	0.025216661
123	0xbd6975ce	-0.056997113
124	0x3d32c3ba	0.04364369
125	0xbdf2c24e	-0.11853467
126	0x3d3e765c	0.046499595
127	0xbd875a6b	-0.06609043
128	0xbd2961d6	-0.04135307
129	0xbd9804b3	-0.07422771
130	0xbd2a0844	-0.04151179
131	0x3cf30a88	0.029668108
132	0x3bee1074	0.007265145
133	0x3c86555b	0.016398123
134	0x3c70bc66	0.014693355
135	0xbb1eef2a	-0.002425144
136	0x3d37897a	0.044808842
137	0x3cb88116	0.02252249
138	0xbb01c1b4	-0.0019799294
139	0xbb9d1b18	-0.0047944896
140	0x3c412fb6	0.01179116
141	0xbd9196c8	-0.07108837
142	0xbc40bd96	-0.011763951
143	0xbc16c1b8	-0.00920146
144	0xbd6b9818	-0.057518095
145	0x3d452679	0.048132394
146	0xbc55e842	-0.013055863
147	0xbdb7b10d	-0.08969317
148	0x3d6bc1d1	0.057557885
149	0xbce166f4	-0.027514912
150	0x3d0625ec	0.03275101
151	0x3bfc6eb8	0.0077036284
152	0x3cd32823	0.025775975
153	0x3d20c1d0	0.039247334
154	0xbca94f9a	-0.02066784
155	0x3c9b1c56	0.01893441
156	0x3c9b5916	0.018963378
157	0xbcd144e0	-0.025545537
158	0x3d16210d	0.036652613
159	0xbd36620b	-0.044527095
160	0xbd408a49	-0.04700688
161	0xbcbe0ca9	-0.023199396
162	0x3d4f8be1	0.05067051
163	0xbccc08c4	-0.024906524
164	0x3bd8f00c	0.0066204127
165	0x3cdcdc3f	0.02696049
166	0x3d677789	0.056510482
167	0xbd45c307	-0.048281696
168	0x3dc387bd	0.095473744
169	0x3c4ad410	0.012379661
170	0x38296ff9	4.0397023e-05
171	0x3bc43dff	0.005988836
172	0xbd962c04	-0.07332614
173	0x3cd7a061	0.026321592
174	0x3ca8eb55	0.020620028
175	0x3ccd91a3	0.025093859
176	0xbd8ca3c3	-0.068671726
177	0x3d6ef3d1	0.05833799
178	0xbd52b9c1	-0.05144668
179	0x3c7b80e6	0.015350556
180	0xbccc9279	-0.024972187
181	0x3d027a9d	0.031855214
182	0x39615894	0.0002149067
183	0x3dc0c539	0.09412617
184	0xbb8ee4ee	-0.0043607866
185	0xbd97e860	-0.07417369
186	0xbd81fb6c	-0.06346783
187	0x3cedea65	0.029042432
188	0x3d8d53ed	0.06900773
189	0x3ce84243	0.028351909
190	0x3c041e55	0.008063872
191	0xbd10c5b9	-0.035344813
192	0x3d2146d0	0.039374173
193	0x3b846e36	0.0040414585
194	0x3c883a16	0.01662926
195	0xbd9d8511	-0.07691396
196	0xbbc2665b	-0.005932612
197	0xbc99d227	-0.018776966
198	0xbd258c2b	-0.040416878
199	0x3d136ad9	0.03599057
200	0x3cd8a4ae	0.026445713
201	0xbdbba255	-0.09161822
202	0xbcf25486	-0.02958132
203	0xbc100ed1	-0.008792595
204	0x3d176b2c	0.03696744
205	0x3d3952b1	0.045244876
206	0x3cc6aa55	0.024251143
207	0xbcaab4ab	-0.020838102
208	0xbd11f2d1	-0.03563196
209	0x3d159ff3	0.036529493
210	0xbd29d603	-0.041463863
211	0xbd3f3065	-0.046677012
212	0xbcd52490	-0.02601841
213	0x3d4c5c13	0.049892496
214	0xbd8bdb56	-0.068289444
215	0xbd42e4a9	-0.04758135
216	0x3d1496a6	0.036276482
217	0x3cb4ed41	0.022085788
218	0x3c4b98d5	0.012426575
219	0x3ce99b27	0.028516365
220	0xbcf79706	-0.03022338
221	0x3c418a84	0.01181281
222	0x3d1a506a	0.037674345
223	0x3cf20f22	0.029548232
224	0xbd6c7a29	-0.05773369
225	0x3b193844	0.0023379484
226	0x3d222530	0.039586246
227	0x3c05877f	0.008149981
228	0xbd982178	-0.07428259
229	0x3d3a339a	0.045459367
230	0x3ca106ee	0.019656625
231	0xbc086206	-0.008324152
232	0xbc4c02c5	-0.012451832
233	0xbd81fb07	-0.06346708
234	0x3d42dae8	0.047572047
235	0x3acb7012	0.001552107
236	0x3d6c9f71	0.057769243
237	0xbc8b3955	-0.016995111
238	0xbda5fdcf	-0.08105051
239	0x3d1dd694	0.038534716
240	0xbd020202	-0.031740196
241	0xbd590ae0	-0.052988887
242	0xbc49ca2a	-0.012316266
243	0xbd5000fc	-0.05078219
244	0xbcd3aa46	-0.025838029
245	0x3b97b477	0.0046296674
246	0xbc21b6aa	-0.009870211
247	0x3b92b8ba	0.0044775875
248	0x3c0afb25	0.008482729
249	0x3b9faeee	0.004873148
250	0x3d9fd689	0.07804591
251	0x3d1daee6	0.038496874
252	0xbbb0b8f0	-0.00539314
253	0x3cc9e76e	0.024646487
254	0x3bdf1306	0.0068076877
255	0x3c54b28b	0.012982021

fc_actor_std.bias f4 [20]
0	0xbd6faba6	-0.058513306
1	0x3be60ffa	0.0070209475
2	0xbd149b2b	-0.036280792
3	0xbb8401c7	-0.004028532
4	0x3c9ea869	0.019367414
5	0xbd7ecfde	-0.062209956
6	0xbdd6db46	-0.10491042
7	0xbdb9f332	-0.09079589
8	0xbd46268a	-0.048376597
9	0x3cda4034	0.026641943
10	0xbd404d1c	-0.046948537
11	0xbceba989	-0.028767364
12	0xbdb1f5be	-0.0868945
13	0xbdbaf9ec	-0.091297
14	0xbdae8de5	-0.08523158
15	0xbc86a89f	-0.016437827
16	0xbdc04918	-0.093889415
17	0x3caefeff	0.021361826
18	0xbd1753a2	-0.036944993
19	0xbd15e08f	-0.03659111

fc_critic.weight f4 [1, 256]
0	0x3e2b0315	0.16700394
1	0xbea2afd8	-0.31774783
2	0x3e4949c6	0.19657049
3	0xbf4273d5	-0.75957996
4	0xbf0ff281	-0.56229407
5	0x3dcd0611	0.10010923
6	0x3e078319	0.13233604
7	0xbeaeabec	-0.3411554
8	0xbf58ae29	-0.8464075
9	0x3db400ab	0.0878919
10	0x3d933469	0.07187731
11	0x3de9515c	0.11392471
12	0x3e1bdf17	0.15221821
13	0x3d8d02b7	0.068852834
14	0xbe624ddf	-0.22100018
15	0xbf6128ee	-0.8795308
16	0xbf82f23c	-1.0230174
17	0xbe5e5919	-0.21713676
18	0x3e245cac	0.16050977
19	0xbe441f86	-0.1915265
20	0x3e3521fb	0.17688744
21	0x3e46b406	0.19404611
22	0xbf4dbadc	-0.8036325
23	0xbdda3956	-0.10655467
24	0xbebf0f69	-0.37316445
25	0x3def434c	0.11682758
26	0x3dc96c4a	0.098351076
27	0x3e08a049	0.13342394
28	0x3e2f2a0e	0.17105886
29	0xbf32504e	-0.69653785
30	0x3de0c897	0.109757595
31	0x3dc2a6ab	0.09504446
32	0x3da2d5ba	0.07950921
33	0x3dab43bf	0.08362531
34	0x3ddf0556	0.108896896
35	0x3e2c5d46	0.16832456
36	0xbed5657a	-0.41678983
37	0xbe22d231	-0.15900494
38	0x3e00b167	0.12567674
39	0x3e29b1fd	0.16571803
40	0x3e129601	0.14315034
41	0x3dc005a3	0.09376075
42	0x3e61c2c1	0.22046949
43	0xbe72b5a3	-0.23702101
44	0xbe6d77d4	-0.23190242
45	0x3dfbab13	0.12288489
46	0xbeb12a66	-0.3460266
47	0xbe797801	-0.24362184
48	0xbe4ee709	-0.2020532
49	0x3e7be81d	0.24600263
50	0x3e0b5573	0.13606815
51	0xbf113d4e	-0.5673417
52	0x3e1c1a94	0.15244514
53	0x3e188b24	0.14896828
54	0x3e206a75	0.1566561
55	0x3e07db87	0.13267337
56	0xbe90b188	-0.28260446
57	0xbe797126	-0.24359569
58	0xbebd92be	-0.37026018
59	0x3db78a6d	0.089619495
60	0xbeb3ccb3	-0.3511711
61	0x3e49ad96	0.19695124
62	0xbe921d86	-0.2853815
63	0x3e0ac0b8	0.13550079
64	0xbe7408ac	-0.23831433
65	0x3da94e42	0.082668796
66	0x3e0047a4	0.12527329
67	0x3e4be350	0.19910932
68	0xbe5fce5a	-0.2185606
69	0x3dcbb92e	0.099474296
70	0x3e096a5a	0.13419476
71	0xbe3df176	-0.18549141
72	0x3e3fe2de	0.18738887
73	0x3e3daf7d	0.18523975
74	0xbf64a796	-0.89318216
75	0x3d32fad7	0.04369625
76	0xbe926e94	-0.2859999
77	0x3e2bdf89	0.1678449
78	0x3e0e3af2	0.13889673
79	0xbf4ed883	-0.8079912
80	0xbede99ba	-0.4347666
81	0xbea248b8	-0.31696105
82	0x3e1df142	0.15424064
83	0x3e5fd55e	0.21858737
84	0xbe14db8f	-0.1453688
85	0x3dcc678c	0.099806875
86	0xbe966da4	-0.29380524
87	0xbf05a43c	-0.52203727
88	0x3e00140e	0.1250765
89	0x3db33f3f	0.087522976
90	0x3e0294ec	0.12752122
91	0xbf48b76c	-0.7840488
92	0x3e2188de	0.15774867
93	0x3e2654a6	0.16243228
94	0xbe7defe6	-0.24798545
95	0xbeb4cdfb	-0.353134
96	0xbe8c0ff9	-0.27355936
97	0x3e22137c	0.15827745
98	0xbf2c015c	-0.67189574
99	0x3f4dc0f6	0.8037256
100	0xbeeff1f8	-0.46864295
101	0xbf603137	-0.87575096
102	0x3d9ff6e4	0.078107625
103	0x3dae5bd1	0.08513606
104	0xbe9c5309	-0.305321
105	0xbf5d0f2a	-0.86351264
106	0x3ddaa2c4	0.10675576
107	0xbf25db03	-0.6478731
108	0xbec86d1d	-0.39145747
109	0x3dbba133	0.09161606
110	0x3e53e1b5	0.20691569
111	0xbe1c0b8e	-0.15238783
112	0xbf561244	-0.8362162
113	0xbe636512	-0.22206524
114	0x3e3444be	0.17604348
115	0xbebf9791	-0.37420323
116	0x3e0f6cfe	0.14006421
117	0x3d9d226f	0.07672583
118	0xbdd6ea34	-0.104938895
119	0xbe9d3f2b	-0.30712256
120	0x3e2bebc8	0.16789162
121	0xbf47d325	-0.78056556
122	0xbec0156f	-0.37516353
123	0x3ddf80f4	0.10913268
124	0x3e045878	0.12924373
125	0xbe61e5c0	-0.22060299
126	0x3e21d606	0.158043
127	0x3e57d2d5	0.2107652
128	0x3e295cf7	0.1653937
129	0x3df5b8a9	0.11998112
130	0x3e10ed34	0.14152986
131	0x3df96748	0.121779025
132	0xbe512a88	-0.2042638
133	0xbe8adcaf	-0.27121493
134	0x3e14ff7f	0.14550589
135	0x3e10770b	0.14107911
136	0xbf65fb0c	-0.8983619
137	0x3e337873	0.17526416
138	0x3e07ea39	0.13272943
139	0x3dbd10c7	0.09231716
140	0x3e447d98	0.19188535
141	0x3d176d37	0.03696939
142	0xbe3a3457	-0.18184029
143	0x3e00b35d	0.12568422
144	0x3e2ff50a	0.17183319
145	0xbe426792	-0.18984821
146	0x3dd454ba	0.10367723
147	0xbf1c4acd	-0.61051637
148	0xbdc7a680	-0.09748554
149	0x3e10a83d	0.14126678
150	0x3d59fc58	0.05321917
151	0xbe97a10b	-0.29615054
152	0x3df07328	0.11740714
153	0x3e2d20c4	0.1690703
154	0xbe661e8c	-0.2247259
155	0x3e05c278	0.13062465
156	0x3e4374b3	0.19087486
157	0xbf0f24f3	-0.55915755
158	0x3e071899	0.13192977
159	0xbea73012	-0.32653862
160	0xbea9563c	-0.33073604
161	0x3dba1bdf	0.09087347
162	0xbe154001	-0.14575197
163	0xbf2ed5bd	-0.6829489
164	0x3d944d2f	0.07241284
165	0xbe7d6607	-0.24745952
166	0xbef7e1cc	-0.48414457
167	0xbe73cfe1	-0.23809768
168	0xbf6b8522	-0.9200002
169	0x3e4a41a6	0.19751605
170	0x3e4513cd	0.19245835
171	0x3e48983c	0.19589323
172	0xbd5039f6	-0.050836526
173	0xbe8283fe	-0.25491327
174	0xbeaf3d5a	-0.34226495
175	0x3e2ff95c	0.17184967
176	0x3e553136	0.20819554
177	0xbf49c5ce	-0.7881745
178	0xbd9aee91	-0.07565034
179	0xbe8f50a0	-0.279912
180	0x3d9db539	0.07700581
181	0xbe8d92a4	-0.2765094
182	0xbe571502	-0.21004108
183	0xbe1acd3e	-0.15117356
184	0xbec76fbc	-0.38952434
185	0xbe123344	-0.14277369
186	0x3e044214	0.12915832
187	0x3e170127	0.14746533
188	0xbf5074bd	-0.8142813
189	0xbf4b77c8	-0.79479647
190	0x3e12b0bc	0.14325231
191	0x3e3e55c1	0.185874
192	0x3dd37dc2	0.10326721
193	0x3dde6105	0.10858349
194	0x3f60f7d5	0.8787816
195	0x3f80a085	1.0048987
196	0x3e62061a	0.2207264
197	0xbec48400	-0.38381958
198	0x3f7dee80	0.9919205
199	0xbdd3892a	-0.10328896
200	0x3e175a9f	0.14780663
201	0xbe9530a0	-0.2913866
202	0x3e1f89f4	0.15579969
203	0x3e02c241	0.12769414
204	0xbc64f934	-0.01397543
205	0xbe9daaf6	-0.30794495
206	0xbf4fe0bb	-0.81202286
207	0xbe0399dc	-0.12851661
208	0x3de54347	0.11194473
209	0x3e42fa36	0.1904076
210	0xbf32187c	-0.6956861
211	0xbedb3656	-0.42814893
212	0xbf6e35da	-0.9305092
213	0x3e07d2ca	0.13264003
214	0xbe6adf58	-0.22936761
215	0x3dca964d	0.09891949
216	0x3e5ab7d0	0.21359181
217	0x3dbf7d17	0.09350031
218	0x3dca1980	0.09868145
219	0x3e2cea07	0.1688615
220	0xbe3a02d3	-0.1816514
221	0x3e1cba1b	0.15305369
222	0xbe21157d	-0.15730853
223	0xbe3f930c	-0.18708438
224	0x3e05b3c4	0.13056856
225	0xbf4cf029	-0.80053955
226	0x3deb4493	0.11487689
227	0xbea481df	-0.32130334
228	0x3e0db9dd	0.13840432
229	0x3db07266	0.0861557
230	0xbe991008	-0.29895043
231	0x3e11d677	0.14241968
232	0xbe72539e	-0.2366471
233	0x3df8b44d	0.12143765
234	0xbe5306d1	-0.20608069
235	0xbf4b8354	-0.79497266
236	0x3e0d1e62	0.13781121
237	0x3f8b68d5	1.0891367
238	0xbe6c9ba4	-0.23106247
239	0xbde4a432	-0.1116413
240	0x3e0c3b3c	0.13694471
241	0xbf07ac42	-0.5299722
242	0x3e182a6c	0.14859933
243	0xbf54e87f	-0.8316726
244	0x3e438478	0.19093502
245	0xbe91f66b	-0.28508314
246	0x3e3973e8	0.18110621
247	0xbeaaa043	-0.33325395
248	0x3e31cfff	0.173645
249	0xbe00dc77	-0.125841
250	0xbf1d75af	-0.61507696
251	0x3e0c82b6	0.13721737
252	0x3d43580a	0.047691382
253	0x3e186947	0.1488391
254	0x3e69f05d	0.22845598
255	0x3e303229	0.17206635
