saved_models/crawler_ppo_5.ckpt (torch_old, 835520 bytes, 10 tensors)

std f4 [1, 20]
0	0x00000000	0.0
1	0x00000000	0.0
2	0x00000000	0.0
3	0x00000000	0.0
4	0x00000000	0.0
5	0x00000000	0.0
6	0x00000000	0.0
7	0x00000000	0.0
8	0x00000000	0.0
9	0x00000000	0.0
10	0x00000000	0.0
11	0x00000000	0.0
12	0x00000000	0.0
13	0x00000000	0.0
14	0x00000000	0.0
15	0x00000000	0.0
16	0x00000000	0.0
17	0x00000000	0.0
18	0x00000000	0.0
19	0x00000000	0.0

fc1.weight f4 [512, 129]
0	0x3dd32318	0.10309428
1	0xbfc14434	-1.5098939
2	0x40289873	2.6343048
3	0x3e859545	0.26090446
4	0xbe421291	-0.18952395
5	0xbd790fde	-0.060806148
6	0x3d62e730	0.05539626
7	0xbe16fd9f	-0.14745186
8	0xbe2deee6	-0.16985664
9	0x3e012470	0.12611556
10	0xbd90af80	-0.07064724
11	0x3d00319f	0.031297322
12	0xbbf28dcb	-0.007402157
13	0x3da46a7a	0.08028121
14	0xbddd2751	-0.10798515
15	0xbdc61d28	-0.0967353
16	0xbd96c331	-0.073614486
17	0x3d0c8656	0.0343078
18	0xbd027a45	-0.031854887
19	0xbc0af77e	-0.008481858
20	0x3bba73ca	0.0056900727
21	0x3cb5f54f	0.022211699
22	0xbcd06e25	-0.025443146
23	0x3d8177d7	0.06321686
24	0x3daa5f92	0.0831901
25	0x3d4cc267	0.049990084
26	0xbdb54624	-0.08851269
27	0x3dd1aee5	0.102384366
28	0xbd21625d	-0.039400447
29	0xbc35bc08	-0.011092193
30	0x3da35e70	0.07976997
31	0x3d9151f9	0.07095713
32	0x3dd45ac2	0.10368873
33	0x3d0ee341	0.034884695
34	0x3d3f403f	0.04669213
35	0xbc2efe57	-0.0106807565
36	0xbbd3f710	-0.006468661
37	0xbd861d71	-0.06548584
38	0x3b029051	0.0019922445
39	0xbe747dff	-0.23876189
40	0xbda2321e	-0.07919715
41	0x3c978c3f	0.018499492
42	0xbcee64ea	-0.029100854
43	0x3d652b30	0.05594939
44	0xbc7ad120	-0.015308648
45	0xbdaf0202	-0.08545305
46	0x3ad087d7	0.0015909624
47	0xbc42c435	-0.0118876
48	0xbdb235d1	-0.08701671
49	0xbd7dcfd9	-0.061965797
50	0x3d470e04	0.04859735
51	0x3c045cb5	0.008078744
52	0xbdeac2b1	-0.11462916
53	0x3a4f6a01	0.0007912219
54	0xbaf6c5a3	-0.0018827211
55	0x3db9a079	0.09063811
56	0x3e03d882	0.1287556
57	0xbca6bf58	-0.020354912
58	0x3ca7924f	0.020455508
59	0xbe011ad3	-0.12607889
60	0x3dc5ddcb	0.09661444
61	0x3d12a401	0.035800938
62	0x3da80a9f	0.08205151
63	0x3d7f8104	0.0623789
64	0xbd6b6993	-0.05747373
65	0xbb03e863	-0.0020127527
66	0xbd2f33c0	-0.042773962
67	0xbd377f0b	-0.044798892
68	0xbdd7cf65	-0.10537604
69	0xbdbc8e93	-0.092068814
70	0x3ce987c4	0.02850712
71	0xbd9aa2b5	-0.07550565
72	0x3cef5896	0.029217046
73	0xbdb03662	-0.08604123
74	0xbda27a79	-0.07933516
75	0xbcd54956	-0.026035946
76	0xbdc5ab40	-0.09651804
77	0x3c3dbf76	0.011581292
78	0xbb5f00d6	-0.0034027598
79	0x3ca1ed13	0.019766366
80	0x3b91ac39	0.0044455794
81	0x3d9e47a5	0.07728509
82	0x3d91c885	0.07118324
83	0x3dd2a558	0.10285443
84	0x3d0527dc	0.032508716
85	0xbc828920	-0.015934527
86	0xbd2db333	-0.042407226
87	0x3e03e41c	0.12879986
88	0x3ca7b4df	0.020471988
89	0x3da293e3	0.079383634
90	0xbbb46e81	-0.005506337
91	0x3c23af88	0.00999058
92	0x3acd9f1d	0.0015687678
93	0xbd0b18a5	-0.03395905
94	0xbd35bd11	-0.04436976
95	0x3ce251e2	0.027626935
96	0x3dc507cd	0.096206285
97	0x3d88467f	0.06654071
98	0x3d2bd65c	0.041952476
99	0xbcc5138c	-0.024057172
100	0x3cea53a1	0.02860433
101	0x3d1d3934	0.03838463
102	0xbd43ec15	-0.047832567
103	0x3d1b9489	0.03798345
104	0xbbbc66eb	-0.0057495735
105	0x3b338d1e	0.0027397345
106	0xbda2fb29	-0.07958061
107	0xbcd64c81	-0.026159527
108	0x3dd024b8	0.101632535
109	0x3da03de6	0.07824306
110	0xbcef3c9c	-0.029203705
111	0x3d097084	0.03355457
112	0x3dd94d4f	0.106104486
113	0xbcd09a4c	-0.0254642
114	0xbd332152	-0.04373295
115	0x3c99007c	0.018676989
116	0xbd8c65c6	-0.06855349
117	0x3d897c19	0.06713123
118	0xb98696ab	-0.00025670728
119	0xbd0a688b	-0.033791106
120	0x3c9f543a	0.019449342
121	0xbc4e5166	-0.012592649
122	0x3c863ef8	0.016387448
123	0xbda27851	-0.07933105
124	0x3cff80e4	0.03118939
125	0xbc251b9b	-0.010077382
126	0x3c1cef68	0.009578563
127	0x3d364608	0.04450038
128	0x3d0372a9	0.03209177
129	0xbce7801f	-0.028259335
130	0x405f9da2	3.4939961
131	0x3f7fd6d6	0.9993719
132	0xbca1f783	-0.019771343
133	0x3d9d4ad6	0.076802894
134	0xbbb3ee44	-0.00549105
135	0x3d5d3ff7	0.05401608
136	0xba8cc4a9	-0.0010739762
137	0xbd26fa0c	-0.040765807
138	0xbd92b2b8	-0.07162994
139	0x3d00d054	0.031448677
140	0x3d319a4f	0.04336005
141	0xbd375c17	-0.044765558
142	0xbd9ece99	-0.07754249
143	0x3db007e6	0.085952565
144	0x3ba9a1ca	0.0051767575
145	0xbd8d69fe	-0.06904982
146	0x3d75e000	0.060028076
147	0xbddafe73	-0.106930636
148	0x3d9dae87	0.07699304
149	0x3c1c1f99	0.009529018
150	0x3cb13d42	0.021635655
151	0x3dfc5c47	0.12322288
152	0x3ca0daa8	0.019635513
153	0xbbc80a5e	-0.0061047515
154	0xbe0ca88c	-0.1373617
155	0x3d17ee9c	0.03709279
156	0x3de83d37	0.11339801
157	0x3bbfd682	0.0058544287
158	0xbcd5ec22	-0.026113573
159	0x3d997f7c	0.07495019
160	0x3da2be47	0.07946449
161	0x3cfa7fde	0.03057855
162	0x3d1c8501	0.03821278
163	0xbbe8e483	-0.007107319
164	0xbd585de9	-0.052823935
165	0x3c991995	0.018688956
166	0x3d5c015d	0.053712238
167	0xbe06f6b8	-0.13180053
168	0xbe412fb8	-0.1886586
169	0xbba74c22	-0.0051055113
170	0xbdb62bdf	-0.088950865
171	0xbd0bcc45	-0.034130353
172	0x3daf29da	0.085529044
173	0x3d9b10df	0.07571577
174	0xbb9dcd90	-0.0048157647
175	0xbc4ee793	-0.012628454
176	0x3cb2f20b	0.02184393
177	0x3cab1e64	0.020888515
178	0xbd496189	-0.049165282
179	0x3d018b43	0.03162695
180	0xbcbf9ee5	-0.023391197
181	0x3de99d8c	0.11407003
182	0x3dd04607	0.10169607
183	0x3c8ebef5	0.01742504
184	0xbcb95014	-0.022621192
185	0x3dc72d12	0.09725393
186	0x3c517f88	0.0127867535
187	0xbab72588	-0.0013972977
188	0xbcad00b9	-0.021118509
189	0x3d87bf56	0.06628291
190	0x3dd2a252	0.102848664
191	0x3df34e2e	0.11880146
192	0xbdd1c484	-0.102425605
193	0x3d8ab7a0	0.06773305
194	0x3d4f6593	0.050633978
195	0xbcb88d00	-0.022528172
196	0xbc91eaa8	-0.017812088
197	0xbda55265	-0.08072356
198	0xbce87dc1	-0.028380277
199	0x3db0b036	0.086273596
200	0x3d5a6490	0.05331856
201	0x3d73e577	0.059545007
202	0x3d9f0556	0.077646896
203	0xbd091e40	-0.033476114
204	0x3dc0964c	0.09403667
205	0xbd691b01	-0.05691052
206	0x3dc756e9	0.09733374
207	0xbd056da0	-0.03257525
208	0xbd46e293	-0.04855592
209	0x3dc286c1	0.094983585
210	0xbd2ab7da	-0.04167924
211	0xbd807f57	-0.06274288
212	0xbd6b7eae	-0.057493858
213	0x3d58ed01	0.0529604
214	0x3d369eac	0.044584915
215	0xbd47ff88	-0.048827678
216	0x3dddaaec	0.108236164
217	0x3d85397b	0.06505104
218	0xbd248baa	-0.040172257
219	0xbd2b7387	-0.041858222
220	0x3d472b4b	0.04862527
221	0xbb6e401a	-0.0036354125
222	0xbdc08417	-0.09400194
223	0x3da6a8a7	0.08137637
224	0x3e298348	0.16553986
225	0x3d982629	0.074291535
226	0xbdd68fad	-0.10476623
227	0xbd98646f	-0.07441031
228	0xbda88c95	-0.08229939
229	0x3e5345dd	0.2063212
230	0xbd819cab	-0.0632871
231	0xbd096144	-0.033540025
232	0x3e006258	0.12537515
233	0xbe291a93	-0.16514044
234	0x3d8493fc	0.06473538
235	0xbd61942d	-0.055072952
236	0x3dab5b94	0.083670765
237	0x3ca19fca	0.019729514
238	0xbe3db5a1	-0.18526317
239	0xbddc32fc	-0.10751912
240	0x3e1429ce	0.14469072
241	0xbd34b44b	-0.044117253
242	0x3d4a0f98	0.049331278
243	0x3de6cf50	0.112700105
244	0x3ad82752	0.001649121
245	0xbd4f8b20	-0.05066979
246	0x3dc78b6d	0.0974339
247	0xbc8efb99	-0.017453955
248	0x3c7312c0	0.014836013
249	0x3d21790e	0.039422087
250	0xbd819965	-0.06328086
251	0x3d05e7f0	0.032691896
252	0x3d534861	0.051582698
253	0xbd2f7244	-0.04283358
254	0xbde6d096	-0.11270253
255	0x3d85fc3e	0.06542252

fc1.bias f4 [512]
0	0x3d6f0297	0.05835208
1	0xbd103268	-0.03520432
2	0x3e049cc4	0.12950426
3	0x3d664166	0.056214713
4	0xbe333e7f	-0.17504309
5	0xbd467340	-0.048449755
6	0x3d855e53	0.065121315
7	0x3df5a71f	0.119947664
8	0xbd8089d7	-0.06276291
9	0x3d73c2aa	0.059511818
10	0x3d089f8c	0.03335528
11	0x3ce9dadf	0.028546749
12	0xbe0d20cb	-0.13782041
13	0x3d8c5a18	0.068531215
14	0xbc93a578	-0.018023238
15	0xbdbc74ed	-0.09201989
16	0xbdffd013	-0.12490859
17	0x3d38a974	0.045083478
18	0x3dd88cd2	0.10573734
19	0xbd2b2e8d	-0.04179244
20	0x3c6c9e05	0.014441972
21	0x3d0ef850	0.034904778
22	0x3e38da2c	0.18051976
23	0x3ba2c55a	0.004967374
24	0x3deedb8d	0.1166297
25	0xbd976fa9	-0.07394344
26	0x3d6d34d5	0.057911713
27	0xbd360642	-0.04443956
28	0x3e150fd9	0.14556827
29	0x3da376b8	0.07981628
30	0x3dd8e1ad	0.10589919
31	0x3e14ba66	0.1452423
32	0xbd406f40	-0.046981096
33	0x3d00b19a	0.031419374
34	0xbd9308c7	-0.071794085
35	0x3dcd65c6	0.10029177
36	0xbdc7c791	-0.09754861
37	0xbe06a7f6	-0.1315001
38	0x3cb2be4f	0.021819262
39	0x3d823153	0.06357064
40	0x3d12acf8	0.035809487
41	0xbe27aa23	-0.16373496
42	0x3e0174ca	0.12642208
43	0xbd3252e9	-0.0435361
44	0xbd16a283	-0.036776077
45	0xbe453ba5	-0.19261034
46	0x3da1a6d6	0.078931496
47	0x3d007437	0.03136083
48	0x3e13f13f	0.14447497
49	0xbcb7318c	-0.022362493
50	0x3dfac551	0.12244666
51	0x3e32253d	0.17397018
52	0x3cb26166	0.021774959
53	0xbcd11b6e	-0.025525775
54	0x3da7f643	0.082012676
55	0x3d6820d7	0.056671944
56	0x3e47da6a	0.19516912
57	0xbc5a9990	-0.013342276
58	0x3ddddf68	0.10833627
59	0xbcec2d58	-0.028830215
60	0x3c23c1bb	0.009994919
61	0x3e1b8dd6	0.15190825
62	0x3df1b87b	0.11802765
63	0x3d9bcf49	0.07607896
64	0x3d185da4	0.037198678
65	0xbd57eba1	-0.052714948
66	0xbd9c562e	-0.07633625
67	0x3dac387a	0.084092095
68	0xbdb0a373	-0.086249255
69	0x3c0ec04e	0.008712841
70	0xbc828555	-0.015932718
71	0x3d030897	0.031990614
72	0x3d0741c7	0.033021715
73	0x3defba67	0.11705475
74	0xbd6d963a	-0.058004595
75	0x3daf9b87	0.08574586
76	0x3e1d5da0	0.15367746
77	0x3d04e666	0.032446288
78	0x3d607de7	0.05480757
79	0x3e35e455	0.17762883
80	0x3d445bab	0.047938984
81	0xbd3fcf62	-0.046828635
82	0x3da0b4e2	0.07847001
83	0x3d7d630e	0.061862044
84	0x3dfcfa1f	0.12352394
85	0xbba8a929	-0.0051471186
86	0x3dc4c111	0.09607137
87	0x3dbfa5ea	0.093578175
88	0x3d1792b1	0.03700513
89	0x3dc17a6a	0.09447177
90	0x3d9d6088	0.076844275
91	0xbdf58865	-0.11988906
92	0x3caada79	0.020856129
93	0xbe0f89a8	-0.14017355
94	0x3d4171df	0.047227737
95	0x3c8a4140	0.016876817
96	0xbdbe1737	-0.09281772
97	0x3df32802	0.11872865
98	0x3d4fa311	0.05069262
99	0xbd9081d2	-0.07056011
100	0x3d1cc57d	0.038274277
101	0x3e05681d	0.13027997
102	0xbcf3786d	-0.02972051
103	0x3de8f17c	0.113741845
104	0x3d1ffce2	0.039059527
105	0x3e0f811e	0.14014098
106	0x3cd35693	0.025798118
107	0xbdc6a254	-0.096989304
108	0x3db10f4c	0.08645496
109	0xbcf3d88a	-0.02976634
110	0x3d298314	0.04138477
111	0x3e071211	0.13190486
112	0xbdb84f82	-0.0899954
113	0x3e2cdac7	0.16880332
114	0xbdfdabef	-0.12386309
115	0xbd99696d	-0.074908115
116	0xbc2e32b4	-0.010632206
117	0x3cbb647d	0.022875065
118	0xbd8d3a16	-0.06895845
119	0xbcc661da	-0.024216581
120	0x3ddd7b27	0.10814505
121	0x3d9216c3	0.07133248
122	0xbdff0b4e	-0.12453328
123	0x3cc3b8cb	0.023891827
124	0x3e5eb216	0.21747622
125	0xbbc4feb3	-0.006011808
126	0xbde881ec	-0.11352906
127	0x3b9bbd8a	0.0047528194
128	0x3ad223c7	0.0016032391
129	0xbdc6905b	-0.09695502
130	0x3e0f1278	0.13971889
131	0xbe0468ee	-0.12930652
132	0xbb07b09e	-0.0020704637
133	0x3d24d5a9	0.040242825
134	0xbd41e21e	-0.047334783
135	0xbcd04e85	-0.025428066
136	0x3c5d065b	0.013490285
137	0xbdf3932a	-0.11893304
138	0x3e4cfc36	0.20018086
139	0xbbd8bf58	-0.006614607
140	0xbd60a8aa	-0.05484835
141	0x3e0e0f17	0.13872944
142	0xbd22bfc1	-0.039733652
143	0x3cbe8723	0.023257798
144	0x3d65bf27	0.0560905
145	0x3d6812de	0.05665862
146	0x3dbd4447	0.092415385
147	0xbdb9d5f7	-0.09074014
148	0x3d8f305f	0.06991648
149	0x3db38c26	0.087669656
150	0xbdb0ab3f	-0.086264126
151	0x3ba750c4	0.0051060636
152	0x3d9c5809	0.07633979
153	0x3da019fa	0.07817455
154	0xbc5f583a	-0.013631875
155	0xbd8299a8	-0.06376964
156	0xbda5c5b3	-0.08094349
157	0x3e34a457	0.17640816
158	0xbbc95bb3	-0.0061449646
159	0x3d6184ce	0.055058293
160	0x3d61b291	0.055101935
161	0x3e1d2d75	0.15349372
162	0xbd1cecb7	-0.038311686
163	0x3e1aff4a	0.15136448
164	0xbc1dc131	-0.00962858
165	0xbd7eb303	-0.062182438
166	0x3d6304cc	0.055424497
167	0xbd9a5b14	-0.07536903
168	0x3e365c78	0.17808712
169	0x3da98383	0.08277037
170	0xbd990c50	-0.074730515
171	0x3c92ac27	0.017904354
172	0x3d968019	0.073486514
173	0xbda7723d	-0.08176086
174	0x3e21ef94	0.15814048
175	0x3dcb3eff	0.09924125
176	0xbd3d340f	-0.046192225
177	0xbd8a954b	-0.067667566
178	0x3da11f6d	0.07867322
179	0x3e1eb160	0.1549735
180	0xbcd85e56	-0.02641217
181	0x3e1ea83a	0.15493861
182	0xbac4fd42	-0.001502909
183	0x3aa732b7	0.0012756203
184	0xbd50fd21	-0.051022653
185	0xbd8851bd	-0.06656215
186	0xbd952128	-0.07281715
187	0x3d8e7a7f	0.06956958
188	0x3d392c9e	0.045208566
189	0xbd96de1b	-0.07366582
190	0xbba85585	-0.005137148
191	0x3e061340	0.13093281
192	0x3c0e5536	0.008687308
193	0xbdb49352	-0.088171616
194	0x3dc18668	0.09449464
195	0x3d6e554a	0.058186807
196	0x3dde00ff	0.10840034
197	0x3de108d5	0.10988013
198	0x3d551b54	0.052028015
199	0x3dade52c	0.08490977
200	0x3d1b44ff	0.037907597
201	0xbc69d97c	-0.014273044
202	0xbd6bfa4c	-0.05761175
203	0xbda158d8	-0.07878274
204	0x3d268a9c	0.040659532
205	0x3dfc1747	0.12309127
206	0xbdab7179	-0.083712526
207	0x3dd5338d	0.10410223
208	0xbddca92b	-0.10774454
209	0x3d98bc1f	0.07457756
210	0x3e4b0d5d	0.19829316
211	0xbbf14ca1	-0.007363871
212	0x3d2b3f62	0.041808493
213	0x3d2cbc87	0.04217198
214	0x3d07d866	0.033165358
215	0x3e1785fa	0.14797202
216	0xbd444814	-0.0479203
217	0xbcfbb1c4	-0.030724414
218	0x3e341279	0.17585172
219	0x3c8bceea	0.017066438
220	0xbd76b304	-0.060229316
221	0x3e389863	0.18026881
222	0x3dae35ab	0.0850633
223	0x3d87d3c2	0.066321865
224	0x3e2a50fe	0.16632459
225	0x3e43d350	0.19123578
226	0x3da65e8d	0.08123503
227	0x3d03a70f	0.03214174
228	0x3e42c6d7	0.19021164
229	0x3dd7cafc	0.10536763
230	0x3cfaafaf	0.03060135
231	0xbd528a74	-0.05140157
232	0x3d72d0d0	0.05928117
233	0x3da1345a	0.078713134
234	0x3d01a957	0.031655636
235	0x3cf7e5b1	0.030260893
236	0x3d9aa997	0.07551878
237	0xbcf4fef5	-0.02990673
238	0x3df603db	0.12012454
239	0x3d381efa	0.044951417
240	0xbdf36a7e	-0.11885546
241	0x3d489445	0.048969526
242	0x3e1cc634	0.15309983
243	0x3d5122c1	0.051058535
244	0xbd18cbb5	-0.037303645
245	0xbbb0ce6c	-0.005395701
246	0x3e1f2749	0.1554233
247	0x3da3840b	0.079841696
248	0xbe4ae6b7	-0.19814573
249	0x3ddc993c	0.10771415
250	0x3deff7fa	0.1171722
251	0xbdd08634	-0.10181847
252	0xbd87c3ec	-0.06629166
253	0xbd2dd974	-0.042443708
254	0xbbe19c62	-0.0068850974
255	0x3e008906	0.1255227

fc2.weight f4 [256, 512]
0	0xbca7ebad	-0.020498121
1	0x3cd5236a	0.026017863
2	0x3db5daaf	0.08879601
3	0x3d9077c6	0.07054095
4	0xbe3881b4	-0.18018228
5	0x3db84429	0.089973755
6	0x3cc9279d	0.024555022
7	0xbc860b9c	-0.016362958
8	0xbd71a7a7	-0.058997776
9	0xbbbdc227	-0.005790967
10	0xbd8e7462	-0.06955792
11	0x3a80a68d	0.0009815261
12	0xbcc75727	-0.02433355
13	0xbd42a58a	-0.04752115
14	0xbbb961f0	-0.005657427
15	0xbdaaeecf	-0.083463304
16	0xbd769b37	-0.06020662
17	0x3ba4791b	0.0050193197
18	0xbc20bc1e	-0.009810476
19	0x3dba8df9	0.091091104
20	0x3daafa6e	0.08348547
21	0x3d424be5	0.04743566
22	0xbcd6d235	-0.026223281
23	0xbd7c5671	-0.061605874
24	0x3dcaa9ef	0.098956935
25	0xbd6670f8	-0.05626008
26	0x3dcb6361	0.099310644
27	0x3c44b690	0.012006417
28	0x3ccae82a	0.024768908
29	0x39903e74	0.00027512352
30	0xbc91e664	-0.017810054
31	0x3da1029a	0.07861824
32	0xbd5b7868	-0.053581625
33	0x3d59a3cd	0.05313473
34	0x3dec2738	0.11530918
35	0xbc5fcad0	-0.013659194
36	0xbc7832cb	-0.015148829
37	0xbe275f2b	-0.16344897
38	0xbc330bff	-0.010928153
39	0xbcb881a2	-0.022522751
40	0x3d17a86d	0.037025858
41	0xbd486b3e	-0.0489304
42	0x3d97b77e	0.07408045
43	0x3bfa7afe	0.0076440563
44	0xbe0c38bf	-0.13693522
45	0xbe7390bc	-0.2378568
46	0xbc651ba3	-0.01398364
47	0xbdb44655	-0.08802477
48	0xbd87613e	-0.06610344
49	0xbd04c821	-0.03241742
50	0x3d2277c1	0.039664987
51	0x3c89f665	0.016841123
52	0xbd8d419f	-0.06897282
53	0x3be0cca4	0.0068603326
54	0x3c934331	0.017976375
55	0xbab2933a	-0.0013624199
56	0x3d67b7a9	0.056571636
57	0x3dcad39f	0.09903645
58	0xbcd1cbd0	-0.02560988
59	0x3ad11932	0.0015952943
60	0x3ce16836	0.027515512
61	0xbc377607	-0.0111975735
62	0xbe00a457	-0.1256269
63	0x3cc9eabc	0.024648063
64	0x3d30a4c8	0.043125898
65	0x3df1d4bc	0.11808154
66	0x3c9e8385	0.019349823
67	0x3d2f3f41	0.042784933
68	0xbd6633f8	-0.056201905
69	0xbd43bd71	-0.047788087
70	0x3cb19b87	0.021680607
71	0xbbc12f36	-0.0058955206
72	0xbd721dc8	-0.059110433
73	0x3c477edc	0.012176242
74	0xbc8f1ab2	-0.017468784
75	0xbd122e87	-0.035688903
76	0xbc70a042	-0.014686646
77	0x3abeab37	0.0014546876
78	0x3d2db94d	0.042413045
79	0x3d55e5ea	0.052221216
80	0xbd7a2abc	-0.06107591
81	0xbd941da8	-0.07232219
82	0xbe175980	-0.14780235
83	0x3de370d4	0.11105505
84	0x3c973c96	0.018461507
85	0x3d500cd8	0.0507935
86	0x3cbb8f91	0.022895606
87	0x3dabdb08	0.08391386
88	0x3c5a13e0	0.013310403
89	0x3d8289fe	0.06373976
90	0x3c96981d	0.01838308
91	0x3dd86032	0.10565223
92	0x3d5b2a94	0.053507403
93	0xbd85e70f	-0.065382116
94	0xbdc7cdd0	-0.097560525
95	0x3c30db9f	0.010794549
96	0x3c04d9ca	0.008108566
97	0x3c9065e9	0.01762672
98	0x3c856eaf	0.01628813
99	0x3d72d9af	0.05928963
100	0xbc925220	-0.017861426
101	0x3d851e73	0.06499948
102	0x3cd7aa6e	0.026326384
103	0x3d4e6a63	0.050394427
104	0x3dbf107b	0.09329315
105	0x3cc7220c	0.024308227
106	0xbde02d33	-0.10946121
107	0xbd8727b0	-0.06599367
108	0x3d88af6a	0.066740826
109	0xbd42a785	-0.04752304
110	0xbda25062	-0.07925488
111	0xbd0a612c	-0.033784077
112	0xbde30cba	-0.11086412
113	0x3b0f116d	0.0021830455
114	0xbd6afec6	-0.057371877
115	0xbcb85e12	-0.022505794
116	0xbb3be1e0	-0.0028668568
117	0x3dc4d91d	0.096117236
118	0xbdef211c	-0.11676237
119	0x3da06dd0	0.07833445
120	0x3caf0e52	0.021369133
121	0x3ca2f688	0.019892946
122	0xbd9a4e68	-0.07534486
123	0x3d0b30d5	0.033982117
124	0xbd45a95e	-0.048257224
125	0xbd04666f	-0.03232425
126	0x3d7738ad	0.060356785
127	0x3da5ed15	0.081018604
128	0xbda7bfa0	-0.081908464
129	0xbe5e4219	-0.21704902
130	0xbbff28d8	-0.0077868514
131	0x3d2e8fa4	0.042617455
132	0x3c78d32b	0.015187065
133	0xbc5d8287	-0.01351989
134	0x3c0cde53	0.008597928
135	0x3d3e056a	0.046391882
136	0xbcab28f3	-0.02089355
137	0xbd8794ce	-0.06620179
138	0x3d457144	0.04820372
139	0xbe0cd417	-0.13752781
140	0xbce4fd7d	-0.027952904
141	0x3cfd0570	0.030886382
142	0x3de4c0e8	0.111696064
143	0xbcb02132	-0.021500204
144	0x3c511654	0.012761671
145	0x3dbbb4af	0.09165322
146	0xbd2c2627	-0.042028572
147	0x3e04c43f	0.12965487
148	0x3c941510	0.01807645
149	0x3d88fc19	0.06688709
150	0xbd870170	-0.06592071
151	0xbd2861e9	-0.041109
152	0x3dc6a662	0.09699704
153	0xbbf9efe4	-0.007627474
154	0xbdcde756	-0.100538895
155	0x3c945f98	0.018111989
156	0xbe17e26d	-0.14832468
157	0x3d42bde4	0.047544375
158	0x3d7644a5	0.06012406
159	0xbda4515c	-0.080233306
160	0xbd420471	-0.047367517
161	0xbcbe8df6	-0.023261052
162	0x3cf7a95d	0.030232126
163	0x3d8b56d6	0.06803672
164	0x3bdc2246	0.006717953
165	0x3cac9041	0.02106488
166	0xbca025cb	-0.019549271
167	0x3c2611e1	0.010136099
168	0xbc9edd11	-0.019392522
169	0x3d6382ce	0.055544667
170	0xbdb4c5f7	-0.08826821
171	0x3d993b80	0.07482052
172	0x3cb4a503	0.02205134
173	0xbcb69072	-0.022285674
174	0x3b5f8eba	0.0034112171
175	0x3d263a1c	0.04058276
176	0x3c2fa2ff	0.010720014
177	0xbde8cd8e	-0.113673314
178	0x3e116efd	0.14202495
179	0xbd69ec40	-0.05711007
180	0x3c074759	0.008256757
181	0xbae8d5d1	-0.0017763918
182	0x3d89aba3	0.0672219
183	0xbc7ff30d	-0.015621913
184	0xbdd452bd	-0.103673436
185	0xbd97ae06	-0.07406239
186	0xbca89654	-0.020579495
187	0x3d70dc0b	0.0588036
188	0xbc0f21b4	-0.008736063
189	0x3dd8fbf9	0.10594935
190	0xbd8d5b78	-0.06902212
191	0x3daea6a8	0.08527881
192	0xbe05af22	-0.13055089
193	0x3b662584	0.0035117576
194	0x3db3acbe	0.08773182
195	0x3aed3c8a	0.0018099707
196	0x3ce420aa	0.027847607
197	0xbbfe903d	-0.0077686594
198	0x3d18103d	0.03712486
199	0xbc403f96	-0.01173391
200	0xbd4999e8	-0.049219042
201	0xbc40ffaa	-0.011779705
202	0xbdadbe73	-0.08483591
203	0x3d3019ed	0.042993475
204	0x3cbfff10	0.023437053
205	0x3d85b79a	0.0652916
206	0xbd4ee773	-0.050513696
207	0x3c50f31b	0.012753273
208	0xbda48c63	-0.08034589
209	0x3c333ebe	0.010940252
210	0x3c93bb6f	0.018033711
211	0x396ac485	0.00022389188
212	0xbdb768c3	-0.089555286
213	0xbb9713a1	-0.0046104942
214	0xbdd00faa	-0.10159238
215	0x3b846c8b	0.0040412596
216	0xbb30bfb8	-0.0026969742
217	0x3da8a277	0.08234113
218	0x3d4adcb0	0.04952687
219	0x3c4e9af6	0.012610188
220	0x3d5cc35b	0.053897243
221	0xbd408c80	-0.04700899
222	0xbb4b2cd8	-0.003100207
223	0xbd02aba4	-0.03190197
224	0xbd36f66d	-0.044668604
225	0x3d81d2b9	0.0633902
226	0xbdef153f	-0.11673974
227	0xbd9e376f	-0.07725417
228	0x3ce316ea	0.027720887
229	0xbbcbb7b0	-0.0062169656
230	0xbbe01e70	-0.006839566
231	0x3c1b6895	0.0094853835
232	0xba6bba3b	-0.0008992289
233	0x38dbec5e	0.000104867606
234	0xbd8f75c7	-0.07004886
235	0x3d6110b7	0.05494758
236	0x3e5289bc	0.20560354
237	0xbe349c6b	-0.17637794
238	0xbd93d8da	-0.072190955
239	0xbd3dbb6f	-0.04632133
240	0xbde16b60	-0.11006808
241	0xbbf10065	-0.0073547834
242	0x3d80e71e	0.06294082
243	0xbd9f2b0d	-0.07771883
244	0x3d3186fa	0.043341614
245	0xbdd63b39	-0.104605146
246	0x3a68347d	0.0008857919
247	0xbcb2d1e1	-0.021828594
248	0x3d62c02f	0.05535906
249	0xbd8cb8c0	-0.06871176
250	0x3d8a1ffc	0.06744382
251	0xbe26d59c	-0.16292423
252	0xbe06adc0	-0.13152218
253	0x3d59753b	0.053090315
254	0xbdd4b84e	-0.10386716
255	0x3d18b600	0.037282944

fc2.bias f4 [256]
0	0xbd0fcd98	-0.03510818
1	0x3ca59dae	0.02021679
2	0xbbc0c0fa	-0.0058823796
3	0xbdf3e1c2	-0.11908294
4	0xbd91d634	-0.07120934
5	0x3d809470	0.06278312
6	0x3e24e980	0.16104698
7	0x3df665c0	0.12031126
8	0xbccd5551	-0.025065096
9	0x3e0bf0bf	0.13666056
10	0x3e3373ad	0.17524596
11	0x3da7596d	0.081713535
12	0xbcc3044a	-0.023805756
13	0x3c185937	0.009298614
14	0xbb217748	-0.0024637748
15	0x3e14230e	0.14466497
16	0x3d9fafff	0.077972405
17	0xbd59a853	-0.053139042
18	0xbe1db4da	-0.1540102
19	0x3b9d0eaf	0.00479301
20	0xbc6937dd	-0.01423451
21	0x3cc60ed6	0.024176996
22	0x3d3f70e0	0.046738505
23	0x3d0db759	0.034598682
24	0xbc4ab773	-0.012372839
25	0x3e2b2550	0.16713452
26	0x3c9591d7	0.018258018
27	0x3e315e85	0.17321213
28	0x3d306431	0.0430643
29	0x3dfe3b1f	0.1241362
30	0x3dd682b0	0.104741454
31	0x3dc91961	0.09819294
32	0x3dcf1491	0.101113446
33	0x3e1cc0bf	0.15307902
34	0x3db8d061	0.0902412
35	0xbddb6cac	-0.10714087
36	0x3e23b99f	0.15988778
37	0xbc56919e	-0.013096241
38	0x3d555c36	0.052089892
39	0x3e363d10	0.17796731
40	0xbd45f748	-0.04833153
41	0x3deb25c5	0.11481813
42	0xbdb6b315	-0.08920876
43	0x3b817a83	0.003951372
44	0xbcc58c8d	-0.024114871
45	0x3e14338d	0.1447279
46	0xbd93a90e	-0.07209979
47	0x3d12ce7a	0.035841443
48	0x3c95f601	0.01830578
49	0xbc0642a6	-0.008194601
50	0x3de8fa5f	0.113758795
51	0xbc9e270b	-0.019305727
52	0x3d95a757	0.07307308
53	0xbdd6c0ea	-0.10486014
54	0x3d9a18f5	0.075242914
55	0x3dce23b9	0.10065407
56	0xbc83dde9	-0.016097026
57	0x3bea08a4	0.0071421433
58	0x3cf914bc	0.030405395
59	0x3da7b55b	0.08188888
60	0x3d4488cd	0.047982026
61	0xbd90835c	-0.07056305
62	0xbb37d9f2	-0.002805349
63	0x3c44f9bd	0.012022433
64	0xbda2f049	-0.07955987
65	0xbd1b0086	-0.037842296
66	0xbd6ccd60	-0.05781305
67	0xbd15cdbe	-0.036573164
68	0xbdeee6cd	-0.116651155
69	0x3d9e3dc0	0.07726622
70	0x3de3f5f8	0.11130899
71	0x3e07e66b	0.13271491
72	0x3d10987b	0.035301667
73	0x3def0495	0.11670796
74	0x3bda344c	0.0066590663
75	0xbca09055	-0.019600073
76	0x3dda2e21	0.1065333
77	0x3dc457fc	0.09587094
78	0x3c0597b4	0.008153845
79	0x3dabd69b	0.08390542
80	0xbde5fbb5	-0.1122965
81	0x3d6b44de	0.057438724
82	0x3e19c9c5	0.15018375
83	0xbe0af56a	-0.1357018
84	0x3d0056ff	0.031332966
85	0x3e21a71a	0.157864
86	0x3df454ac	0.119302124
87	0xbda1d9c3	-0.07902863
88	0xbc0c87a6	-0.008577263
89	0x3dbdc711	0.092664845
90	0x3e047ffa	0.12939444
91	0xbd74895e	-0.059701316
92	0x3df084c1	0.11744071
93	0x3cb6f4c2	0.022333506
94	0x3e29e689	0.16591848
95	0x3cee2bb7	0.02907358
96	0xbcc787fa	-0.02435683
97	0x3d810522	0.06299807
98	0xbdfa79ef	-0.12230288
99	0xbe15033c	-0.14552015
100	0xbd0297ee	-0.031883173
101	0x3ddc8ca3	0.10769012
102	0x3d3811ce	0.044938855
103	0x3ddb294b	0.107012354
104	0xbd183449	-0.037159238
105	0x3dd00920	0.101579905
106	0x3e08ffc6	0.1337882
107	0x3d76ae3b	0.060224753
108	0xbded7b21	-0.115957506
109	0xbd4c270a	-0.049841918
110	0x3df28ea0	0.1184361
111	0x3d0956a1	0.03352988
112	0x3ddfbfbc	0.10925242
113	0x3cc98451	0.024599226
114	0xbde8c262	-0.113652006
115	0xbd11f7a0	-0.035636544
116	0x3d9271ae	0.07150589
117	0xbdb775b8	-0.08958
118	0x3e0cc3dc	0.1374659
119	0x3da2a281	0.079411514
120	0x3e20c7b7	0.15701185
121	0x3daf7448	0.08567101
122	0x3e0226ac	0.12710065
123	0x3cffa99a	0.031208802
124	0x3e01659b	0.12636416
125	0x3dd95ba5	0.10613183
126	0x3e0360e1	0.12829925
127	0xbdb02844	-0.0860143
128	0x3e1dfa77	0.15427576
129	0xbd04f134	-0.03245659
130	0xbd5588b1	-0.052132312
131	0x3df53fe5	0.119750775
132	0x3e4e0a9e	0.20121238
133	0x3a482855	0.00076354045
134	0x3df0933b	0.11746832
135	0x3d2c412b	0.042054337
136	0x3d889238	0.06668514
137	0x3d180ed1	0.037123505
138	0x3da784be	0.081796154
139	0x3e17388b	0.14767663
140	0xbdb55b1e	-0.0885527
141	0xbc5c9a83	-0.013464573
142	0x3dda4baa	0.10658963
143	0xbdfbabf9	-0.122886606
144	0x3da5ae77	0.08089917
145	0x3c7fcae4	0.015612338
146	0xbd7f8cbd	-0.062390078
147	0xbd96e470	-0.0736779
148	0x3de6f2b9	0.112767644
149	0x3e1c1453	0.15242128
150	0x3dfeac2e	0.124351844
151	0x3e1f8695	0.15578683
152	0x3d9bab13	0.07600989
153	0x3e121d07	0.14268886
154	0x3bcff1ce	0.006345964
155	0x3dfcea10	0.123493314
156	0xbcb4aacd	-0.0220541
157	0x3ddfcc78	0.10927671
158	0x3c5f44e7	0.013627267
159	0x3e061e77	0.13097559
160	0x3da13ba2	0.07872702
161	0xbda3ac7a	-0.07991882
162	0x3d064b89	0.03278688
163	0xbdac4c10	-0.08412945
164	0x3d53d7d9	0.05171952
165	0x3e2790eb	0.16363876
166	0xbd413bc5	-0.04717614
167	0x3d56e626	0.05246558
168	0x3be05a96	0.006846736
169	0xbd69b87c	-0.057060704
170	0x3e29a955	0.16568501
171	0x3e21f625	0.15816553
172	0x3db43158	0.08798474
173	0xbda3ac13	-0.07991805
174	0xbcb1af20	-0.021689951
175	0x3c17ab9a	0.009257222
176	0x3dcded0e	0.1005498
177	0x3dbb8ecd	0.091580965
178	0x3e02cc8d	0.12773342
179	0x3dd76ebf	0.1051917
180	0x3e19b6aa	0.15011087
181	0xbdb8e6f6	-0.09028427
182	0x3c9766c6	0.018481623
183	0xbc54a3b7	-0.012978486
184	0xbd26062c	-0.04053323
185	0x3d3f2dba	0.046674468
186	0x3e1f572c	0.15560597
187	0xbc28b51c	-0.010297086
188	0x3d947cd8	0.072503746
189	0xbda385a4	-0.07984474
190	0x3da10f7c	0.078642815
191	0xbbc299c8	-0.0059387423
192	0x3cf8000f	0.030273465
193	0x3deaf7ae	0.114730224
194	0x3b39790b	0.0028300907
195	0xbded1e7f	-0.11578082
196	0x3dd3258a	0.103098944
197	0xbce81b2c	-0.028333269
198	0x3c993935	0.018704036
199	0xbe033a4f	-0.12815212
200	0x3da319bb	0.07963892
201	0xbde5f42f	-0.11228215
202	0x3df1cba1	0.11806417
203	0xbd2af41a	-0.0417367
204	0x3dcce2a8	0.10004169
205	0x3e24d0d5	0.16095288
206	0x3e22495e	0.158483
207	0xbbb25a36	-0.005442883
208	0x3e1dc3de	0.15406749
209	0xbcc87ede	-0.024474557
210	0x3e09fddf	0.1347575
211	0xbd919491	-0.07108415
212	0x3df987ac	0.121840805
213	0x3dc5010b	0.096193396
214	0x3e11fe4b	0.14257161
215	0x3d8b5d8d	0.06804953
216	0x3d9d61b9	0.07684655
217	0x3dda191f	0.10649323
218	0x3da46b8a	0.08028324
219	0xbd82b288	-0.063817084
220	0xbdac11ba	-0.084018186
221	0x3d9a250f	0.075265996
222	0x3dda58d4	0.10661474
223	0x3c2708ba	0.010194952
224	0x3d5e94b1	0.054341022
225	0xbc6572e6	-0.014004445
226	0xbd7e3acf	-0.062067803
227	0x3ceaebfc	0.02867698
228	0x3d9c1986	0.07622056
229	0x3dd1e2f6	0.102483675
230	0x3df896a8	0.121381104
231	0x3df31f14	0.11871162
232	0xbd01b4a1	-0.0316664
233	0xbde35dec	-0.111018986
234	0x3cdf6d86	0.027273905
235	0xbd04824c	-0.032350823
236	0xbdf8521c	-0.12125036
237	0x3d8d230e	0.06891452
238	0xbdcf4413	-0.10120406
239	0x3dc7ebfa	0.09761806
240	0x3d9e3d44	0.07726529
241	0xbdba376c	-0.09092602
242	0x3daef306	0.08542447
243	0x3df6bb0d	0.12047396
244	0x3de8389f	0.113389246
245	0xbce0e81d	-0.02745443
246	0xbd88666a	-0.06660159
247	0xbdb8ec6e	-0.090294704
248	0x3cdf7270	0.027276248
249	0x3dd76221	0.105167635
250	0x3e1f3e57	0.15551125
251	0xbdab5824	-0.08366421
252	0x3ddb86e0	0.10719085
253	0x3d9f0474	0.07764521
254	0x3daec842	0.0853429
255	0x3dbd1a38	0.092335165

fc_actor_mean.weight f4 [20, 256]
0	0xbb821abb	-0.0039704717
1	0xbd93cbe6	-0.07216625
2	0xbce2ee53	-0.027701532
3	0xbc91f1f6	-0.017815571
4	0xbc8d9aa6	-0.017285656
5	0xbd1cd372	-0.038287587
6	0xbd03a48d	-0.03213935
7	0xbc879bc5	-0.016553769
8	0xbd82f5d7	-0.063945465
9	0x3d59b408	0.053150207
10	0x3b7a8085	0.0038223576
11	0x3cbd2187	0.023087276
12	0xbd00f016	-0.031478964
13	0x3d68ec47	0.056865957
14	0xbce63299	-0.028100299
15	0xbd206f86	-0.039168857
16	0xbbdf8700	-0.006821513
17	0x3ccd153c	0.02503454
18	0x3d96355d	0.07334397
19	0xbb458704	-0.003014029
20	0x3d6a7748	0.05724266
21	0xbd0f65f4	-0.03500934
22	0xbc5dd32c	-0.013539117
23	0xbc55e58b	-0.013055216
24	0xbc8386fb	-0.016055575
25	0x3bf19f00	0.0073736906
26	0x3c4bc11e	0.012436179
27	0xbd22d907	-0.039757755
28	0xbcc1cea5	-0.023658106
29	0x3d5cbc8c	0.05389075
30	0xbd51e13f	-0.051240202
31	0xbe0df15c	-0.13861603
32	0x3c914562	0.01773328
33	0xbd118220	-0.035524487
34	0xbc09da44	-0.008413855
35	0xbcce80c3	-0.025207883
36	0x3d99452b	0.07483896
37	0xbd102ddc	-0.035199985
38	0xbbfc96fd	-0.007708429
39	0xbc7445c2	-0.01490921
40	0x3a82901c	0.0009961161
41	0xbd0b9e5e	-0.034086578
42	0xbbd402b4	-0.006470049
43	0x3b33b294	0.0027419673
44	0x3c394a19	0.01130917
45	0xbcaf0956	-0.021366756
46	0xbd8b83bf	-0.06812238
47	0xbd0445f7	-0.032293286
48	0x3cca3dfc	0.02468776
49	0xbd2dc9f4	-0.042428926
50	0xbd7e919a	-0.062150575
51	0xbc925245	-0.017861495
52	0xbd0b2211	-0.033968035
53	0x3d9dab19	0.0769865
54	0x3d4b3ffb	0.049621563
55	0x3da87f5b	0.08227416
56	0x3c9d3b7c	0.019193403
57	0x3c176290	0.009239808
58	0xbd578d5c	-0.052625045
59	0xbd87ff2c	-0.06640467
60	0xbc36f0dd	-0.011165825
61	0x3dbe037f	0.092780106
62	0x3d095e0b	0.033536952
63	0xbd161d40	-0.03664899
64	0xbcb1875d	-0.021670992
65	0xbcb1b0f7	-0.021690829
66	0x3bc59e88	0.0060308613
67	0xbd0d42a0	-0.034487367
68	0xbb758afa	-0.003746687
69	0x3ca2edf4	0.019888856
70	0x3d064cb1	0.032787982
71	0x3e1f4664	0.15554196
72	0x3bb6c267	0.005577374
73	0xbd62b0ed	-0.05534451
74	0xbb6b8cd4	-0.0035942094
75	0xbd2b6957	-0.041848507
76	0x3cc16df5	0.023612002
77	0x3d83bc0e	0.06432353
78	0x3cce1196	0.02515487
79	0xbd6c3744	-0.057669893
80	0xbd4b45f4	-0.04962726
81	0x3cede89a	0.029041577
82	0x3cb2f0bd	0.021843309
83	0xbda9c9f1	-0.082904704
84	0x3e0f2d03	0.13982014
85	0x3ccdcfc8	0.025123492
86	0xbd11364d	-0.035452176
87	0xbccbea4e	-0.024891999
88	0x3c340b88	0.010989077
89	0x3c23faa2	0.010008486
90	0xbd0cdeb9	-0.034392092
91	0x3bff5172	0.0077916915
92	0xbd01fda4	-0.03173603
93	0x3d67d379	0.05659816
94	0x3d18907f	0.037247177
95	0x3d403b11	0.04693133
96	0xbc82ec25	-0.015981743
97	0x3d79e505	0.061009426
98	0x3c069a58	0.008215509
99	0xb9d5cc9a	-0.00040778966
100	0xbd624347	-0.055239942
101	0xbce3a666	-0.027789306
102	0x3cf5ca1f	0.030003605
103	0xbc54842d	-0.012970966
104	0x3c972a4f	0.018452791
105	0xbce5aca3	-0.028036421
106	0xbc845360	-0.016153038
107	0xbd3e3447	-0.046436574
108	0x3d92dd89	0.07171161
109	0x3c03eece	0.008052541
110	0xbd966e89	-0.07345302
111	0xbdb21a2b	-0.086963974
112	0xbd68e433	-0.056858253
113	0xbd77eb3e	-0.06052708
114	0x3d467046	0.048446916
115	0xbd89f2b8	-0.06735748
116	0x3cb45f3e	0.022018071
117	0xbd10735d	-0.03526627
118	0x3c87be21	0.016570153
119	0xbb19958f	-0.002343509
120	0x3bc21b2b	0.005923649
121	0xbd926ad6	-0.071492836
122	0xbccde710	-0.025134593
123	0xbb230b66	-0.002487862
124	0x3da045ec	0.078258365
125	0xbc3a1fdc	-0.011360135
126	0x3d253de3	0.040342223
127	0xbc28cb4e	-0.010302378
128	0xbbbb9fa5	-0.005725818
129	0xbc514777	-0.012773386
130	0x3a6fd047	0.0009148162
131	0x3d80102f	0.06253087
132	0xbd1090b5	-0.035294253
133	0xbd130d42	-0.035901316
134	0xbd143e1c	-0.036192045
135	0x3cc9f76e	0.024654116
136	0xbe1dea47	-0.15421401
137	0x3c6a803f	0.014312803
138	0xbbb0d4ce	-0.005396462
139	0x3d51c37f	0.05121183
140	0xbd6e0a93	-0.058115553
141	0x3d3a3b12	0.04546649
142	0xbcddd090	-0.02707699
143	0x3d637e34	0.05554028
144	0xbc972c35	-0.018453697
145	0xbcf0f101	-0.029411795
146	0xbc47c97d	-0.012194035
147	0x3c919f04	0.01777602
148	0x3d90a807	0.07063299
149	0xb925363a	-0.00015755827
150	0x3c07eada	0.008295739
151	0xbd38b3dd	-0.045093406
152	0xbcd15231	-0.025551887
153	0x3d229b57	0.039698925
154	0x3d5a4a15	0.053293306
155	0xbd6a15e5	-0.057149787
156	0x3c3ba249	0.011452266
157	0x3cd929cb	0.026509186
158	0xbce49ee4	-0.027907796
159	0x3d9085d0	0.07056773
160	0x3c454e53	0.0120426
161	0x3ca61db8	0.020277843
162	0xbdd42e37	-0.10360377
163	0xbc34133a	-0.010990912
164	0xbb92d129	-0.0044805002
165	0xbc99ebcf	-0.0187892
166	0xbcef4a7e	-0.029210325
167	0x3ba0683d	0.0048952387
168	0x3cebc9ca	0.028782744
169	0xbb983ae6	-0.004645693
170	0xbd54b539	-0.05193064
171	0xbcfcd4c9	-0.030863183
172	0xba08c391	-0.000521713
173	0xbd8c19c5	-0.06840853
174	0xbd2b2cc2	-0.04179073
175	0xbcc62f97	-0.024192614
176	0xbda395ea	-0.07987578
177	0x3d13c9da	0.036081173
178	0x3cba1031	0.022712799
179	0xbabffeb8	-0.0014648056
180	0x3d3bb1e2	0.04582394
181	0xbc8cb8b9	-0.017177926
182	0x3d184150	0.03717166
183	0x3ca31f0a	0.019912262
184	0x3ccb0f11	0.024787458
185	0x3d9a39d7	0.07530563
186	0x3cb7a1bb	0.022415986
187	0x3cca75f2	0.024714444
188	0xbbc8c4fa	-0.006126997
189	0xbc0e8b67	-0.008700228
190	0x3b9a6268	0.004711438
191	0x3cf0557d	0.029337639
192	0x3d9dd7e6	0.07707195
193	0x3c329b9a	0.010901356
194	0x3ca11f04	0.01966811
195	0x3c7c2fbc	0.01539224
196	0xbc3bb7fa	-0.011457438
197	0xbce4a093	-0.027908599
198	0x3c2647bb	0.010148938
199	0xbb6771d6	-0.0035315654
200	0x3cfd6e91	0.030936511
201	0x3c860713	0.016360795
202	0x3d1fd934	0.0390255
203	0x3de01574	0.10941592
204	0x3caa1d66	0.020765971
205	0xbb7a46f3	-0.0038189262
206	0xbd0b36e2	-0.033987887
207	0x3a33a169	0.000685236
208	0x3d1dafe4	0.03849782
209	0xbbf97a17	-0.007613431
210	0x3cdb52a7	0.02677281
211	0x3d2e0553	0.042485546
212	0x3d1bd00e	0.038040213
213	0xbd248b5b	-0.040171962
214	0x3d0c758f	0.0342918
215	0x3d57e764	0.052710906
216	0xbd47f0c9	-0.048813615
217	0x3d3998af	0.045311626
218	0xbcce0be9	-0.025152164
219	0xbd117a09	-0.035516772
220	0x3b947be6	0.0045313714
221	0xbd7bfbd3	-0.061519455
222	0x3cbfc1aa	0.023407776
223	0xbc7c5091	-0.015400068
224	0xbd15ef6f	-0.036605295
225	0xbca31057	-0.019905252
226	0xbd563bf5	-0.052303273
227	0xbcc5b9a6	-0.024136376
228	0xbca15c34	-0.019697286
229	0x3b9cd8d6	0.004786591
230	0x3cb5a326	0.022172522
231	0x3cc67208	0.024224296
232	0xbc86c88c	-0.01645305
233	0x3c29c7ea	0.010362605
234	0xbc955784	-0.018230207
235	0x3c91ee45	0.017813811
236	0xbd27bb02	-0.04094983
237	0x3d2a26b8	0.04154083
238	0x3c05c349	0.008164235
239	0xbd43fd19	-0.047848795
240	0x3b3db514	0.0028947042
241	0xbccc1b7f	-0.024915455
242	0xbbc7ad7d	-0.0060936795
243	0xbd0ae850	-0.033912957
244	0xbd6dc1df	-0.058046218
245	0xbc14f195	-0.009090801
246	0xbbfbbe9f	-0.007682636
247	0x3c790631	0.01519923
248	0xbd230285	-0.039797325
249	0x3c9dde34	0.019270994
250	0xbd082404	-0.033237472
251	0xbcf23c48	-0.02956976
252	0x3a8eb521	0.0010887721
253	0xbd1c5bee	-0.03817361
254	0xbd4c387e	-0.049858563
255	0xbcbcc042	-0.023040894

fc_actor_mean.bias f4 [20]
0	0x3ce11e65	0.027480314
1	0x3d2fee28	0.042951733
2	0xbcfc232f	-0.030778496
3	0x3d49bb8e	0.04925113
4	0xbd536eaa	-0.05161921
5	0x3cf676bc	0.030085914
6	0x3cb2e227	0.021836353
7	0xbbcaa1e1	-0.0061838483
8	0x3ca4c677	0.020114167
9	0xbd30ec0a	-0.043193854
10	0x3c9b4731	0.018954845
11	0x3d5dda37	0.054163184
12	0xbb0d3e2e	-0.0021551955
13	0x395f7ef7	0.00021314235
14	0xbccdad27	-0.02510698
15	0xbc5ef750	-0.013608769
16	0x3cf86b45	0.030324588
17	0x3bef85f9	0.007309672
18	0x3d668e77	0.05628821
19	0xbd45aa69	-0.04825822

fc_actor_std.weight f4 [20, 256]
0	0xbabfe397	-0.0014639971
1	0x3d9f693a	0.07783742
2	0x3d602ecc	0.05473213
3	0xbcbdaf16	-0.023154777
4	0xbcb3ab9f	-0.021932421
5	0x3c49df6b	0.012321333
6	0x3cb0e9aa	0.021595795
7	0xbd2f8d29	-0.04285923
8	0x3c6ce837	0.014459661
9	0xbd918fca	-0.07107504
10	0xbc98581f	-0.018596707
11	0xbc33e2d9	-0.010979378
12	0x3d1b85fe	0.03796958
13	0x3dc910b5	0.0981764
14	0x3db16697	0.086621456
15	0x3c901d40	0.017592072
16	0xbbb8c7f0	-0.005639069
17	0xbc82f86b	-0.015987596
18	0xbc74793e	-0.0149214845
19	0xbcbf6699	-0.023364352
20	0xbd844382	-0.064581886
21	0x3c83b2b3	0.016076421
22	0x3d427105	0.047471065
23	0x3d6f11ee	0.05836671
24	0x3c2fe0d6	0.010734757
25	0xbccb3b0a	-0.024808425
26	0x3d0a23e4	0.033725634
27	0x3d7d568f	0.061850127
28	0x3cdb4805	0.02676774
29	0x3cdefab0	0.027219146
30	0xbceb2798	-0.028705403
31	0xbde7a4ae	-0.11310707
32	0x3d4487ba	0.047981
33	0xbd8daf78	-0.06918234
34	0xbcdaac07	-0.026693357
35	0x3d707557	0.058705654
36	0x3d05cace	0.032664113
37	0x3daf1e50	0.085507035
38	0xbb9dde45	-0.0048177564
39	0xbd596e02	-0.053083427
40	0x3d6c2490	0.057652056
41	0xb823f42e	-3.908964e-05
42	0x3d6eaeeb	0.058272284
43	0x3d101f64	0.035186186
44	0xbcf44a17	-0.029820485
45	0xbbf0251b	-0.007328642
46	0xbd8cc1a7	-0.06872874
47	0x3c3a1b7e	0.011359094
48	0x3db5b488	0.08872324
49	0x3d4fc38f	0.05072361
50	0x3d2e5c06	0.04256823
51	0x3d1b0477	0.037846055
52	0xbcf80dce	-0.03028002
53	0xbc1fcdaf	-0.009753629
54	0x3d4e7648	0.05040577
55	0xbd9a8e98	-0.07546729
56	0x3caac5a1	0.02084619
57	0xbac18e64	-0.0014767167
58	0xbc483e86	-0.012221938
59	0xbc968fa4	-0.01837904
60	0x3dd229df	0.102618925
61	0x3dd6f762	0.10496403
62	0x3c91d221	0.017800393
63	0x3d63b0f6	0.055588685
64	0xbc9c7a9a	-0.01910143
65	0x3cd20ecd	0.025641823
66	0x3d8489ff	0.06471633
67	0x3da71b0f	0.08159458
68	0xbd6f5c36	-0.05843755
69	0xbcee08e4	-0.029056974
70	0x3d2bb7cc	0.04192333
71	0xbc1d6251	-0.00960596
72	0x3ca598d2	0.020214472
73	0xbc903e4e	-0.017607834
74	0x3cf09973	0.029370045
75	0xbb04c9bd	-0.0020261847
76	0x3cd842aa	0.026398975
77	0x3cfd275e	0.03090256
78	0x3da8e8a1	0.082474954
79	0x3d018760	0.031623244
80	0xbce0d889	-0.027447002
81	0xbd4649d5	-0.048410255
82	0x3c6c749b	0.014432098
83	0x3df68cc0	0.12038565
84	0xbbfe9fca	-0.007770513
85	0xbca4c37f	-0.020112751
86	0xbc410f27	-0.011783398
87	0xbc951b56	-0.018201511
88	0x3d46a9a0	0.04850161
89	0x3d16a1bc	0.036775336
90	0x3d0bb5f6	0.03410908
91	0x3c66179b	0.014043714
92	0x3c88f3af	0.01671776
93	0x3d2a5e08	0.04159358
94	0xbd209d47	-0.03921249
95	0xbd9202bf	-0.0712943
96	0x3d5a1a5d	0.0532478
97	0x3cc78f95	0.024360457
98	0x3bfdf526	0.0077501712
99	0x3d3738da	0.044731952
100	0xbd548571	-0.051885072
101	0x3bb1f727	0.005431074
102	0x3d94301b	0.07235738
103	0xbd56fb9d	-0.05248605
104	0xbcf490c3	-0.029854184
105	0xba17fca2	-0.0005797838
106	0xbb855378	-0.004068788
107	0xbc78d6ad	-0.015187901
108	0x3cbae26c	0.022813044
109	0xbcfbbf7b	-0.030730953
110	0x3c04c7f3	0.008104312
111	0xbd3acb8c	-0.045604274
112	0xbd202a5e	-0.039102904
113	0x3d9d95d4	0.07694593
114	0xbd36e3e1	-0.044650916
115	0x3c9e2419	0.019304322
116	0xbd90d71a	-0.07072277
117	0x3da7453f	0.081675045
118	0x3cc0a1e0	0.023514688
119	0x3d4e2bbf	0.05033469
120	0x3cd16b96	0.025563996
121	0xbd2a4d17	-0.041577425
122	0x3d23b6cd	0.039969254
123	0x3bbb8a42	0.0057232687
124	0x3c2f1ca2	0.010687979
125	0x3d39c2c7	0.04535177
126	0xbcb73b82	-0.022367243
127	0xbcfc89c6	-0.030827414
128	0xbd0d3209	-0.034471545
129	0x3d0e2670	0.034704626
130	0xbcee27fa	-0.029071797
131	0x3cc46211	0.023972543
132	0xbe1b3ccc	-0.15159911
133	0x3e122dd7	0.14275299
134	0xbd5e89e0	-0.054330707
135	0x3ca5f3e5	0.0202579
136	0xbc6b83b9	-0.014374667
137	0x3c9fdc0c	0.019514106
138	0x3cc4399b	0.02395325
139	0xbcc2eedb	-0.023795536
140	0x3de043e7	0.10950451
141	0x3b5c5ed9	0.003362587
142	0x3ce36b45	0.027761111
143	0x3d0a2244	0.033724084
144	0xbc4a5982	-0.012350442
145	0x3c408252	0.011749821
146	0x3d75b7a1	0.059989575
147	0xbd6ca95a	-0.057778694
148	0x3a134371	0.00056176545
149	0x3d53c144	0.051697984
150	0xbc22c29d	-0.009934095
151	0xbd03f0a8	-0.03221193
152	0x3dca0c07	0.09865575
153	0x3bab12e2	0.005220757
154	0x3ccbeec1	0.02489412
155	0xbd69a3e6	-0.05704107
156	0x3bf6d200	0.007532358
157	0x3d64da7b	0.05587242
158	0xbd00963b	-0.03139327
159	0xbd2943dc	-0.04132448
160	0xbd44985f	-0.047996875
161	0xbd93577c	-0.07194421
162	0x3d78c075	0.060730416
163	0x3ba1645a	0.004925293
164	0x3b990a59	0.004670423
165	0xbca30eed	-0.019904578
166	0x3dbb1200	0.091342926
167	0x3d3e405d	0.0464481
168	0x3da03396	0.07822339
169	0xbc01f45c	-0.007931795
170	0xbcf049b6	-0.029332023
171	0xbd4053bd	-0.04695486
172	0xbb876ec4	-0.0041330773
173	0x3c1427d6	0.009042701
174	0x3cd9ee9c	0.026603036
175	0x3d695d67	0.05697384
176	0xbda064ec	-0.07831749
177	0x3d7f32e9	0.06230441
178	0xba3754dd	-0.00069935416
179	0x3c49d2b6	0.012318304
180	0xbd4333af	-0.04765671
181	0xbd5b64cb	-0.05356292
182	0x3d8e7515	0.069559254
183	0x3dc64385	0.09680847
184	0x3c0c2fbe	0.0085563045
185	0xbd5a1a65	-0.053247828
186	0xbd018f99	-0.031631086
187	0xbc410cc0	-0.011782825
188	0xbd4ccd21	-0.050000314
189	0x3d33bd29	0.04388157
190	0x3cd2d6a5	0.025737116
191	0xbcf20255	-0.029542128
192	0x3d24f30d	0.040270854
193	0x3d5f2b7e	0.054484837
194	0xbcfef689	-0.031123416
195	0x3d290033	0.041259956
196	0xbc093ab0	-0.008375809
197	0xbd9128d8	-0.070878685
198	0xbcb01322	-0.021493498
199	0x3d2bd658	0.04195246
200	0x3d14461c	0.036199674
201	0x3c8f4f36	0.017493825
202	0x3d14a440	0.036289454
203	0x3dd4a313	0.103826664
204	0x3d220a24	0.039560452
205	0xbd22f758	-0.039786667
206	0x3b9938b8	0.004675951
207	0xbce5a058	-0.02803056
208	0x3c1ea559	0.009682977
209	0xbce49133	-0.027901268
210	0x3d2540a7	0.04034486
211	0xbc659a71	-0.0140138725
212	0xbce551e5	-0.027993152
213	0x3d6038fc	0.054741845
214	0xbcceb8b9	-0.025234567
215	0x3d53da7c	0.051722035
216	0x3d7c34c5	0.061573762
217	0xbbdf08e9	-0.006806482
218	0xbd4f31ed	-0.050584722
219	0x3cd36187	0.02580334
220	0x3bef04b2	0.007294261
221	0xbd108b39	-0.035289023
222	0x3d42283b	0.047401648
223	0xbd67c706	-0.056586288
224	0x3d0ee732	0.034888454
225	0x3a5dfb33	0.00084679126
226	0x3cf1b2d1	0.029504212
227	0x3cccb553	0.024988806
228	0xbc660586	-0.014039403
229	0xbcd4ad2a	-0.025961477
230	0xbd3f8d4c	-0.04676561
231	0x3c49e3e6	0.012322402
232	0xbd33a28e	-0.043856196
233	0xbd8d00ad	-0.068848945
234	0x3d2d0428	0.04224029
235	0x3c11004a	0.008850167
236	0xbb3d7e90	-0.0028914548
237	0xbc1690c5	-0.009189789
238	0xbb3bf24a	-0.002867835
239	0x3b0636f7	0.002047954
240	0xbd84a7ec	-0.06477341
241	0x3d396748	0.045264512
242	0xbc115ca2	-0.008872183
243	0x3c8b23df	0.016984878
244	0xb9d5ac6c	-0.0004075499
245	0xbb8f16ef	-0.0043667476
246	0x3ce9c9c7	0.028538598
247	0xbd552907	-0.05204108
248	0xbc6bb184	-0.014385585
249	0xbd315d43	-0.043301832
250	0xbd91a87e	-0.071122155
251	0x3d844584	0.064585716
252	0xbd866078	-0.06561369
253	0xbcb6471a	-0.0222507
254	0x3ceef6fa	0.029170502
255	0xbd9bd5f1	-0.076091655

fc_actor_std.bias f4 [20]
0	0xbd84339b	-0.064551555
1	0xbe01e8aa	-0.1268641
2	0xbd796859	-0.06089053
3	0xbd87c8d3	-0.06630101
4	0xbdb1c4dd	-0.08680127
5	0xbd618f75	-0.055068452
6	0xbd997acd	-0.074941255
7	0xbdb25ad3	-0.087087296
8	0xbda21467	-0.07914048
9	0xbdfb0438	-0.12256664
10	0xbd6be9a5	-0.057595868
11	0xbd5d616e	-0.054047994
12	0xbd952934	-0.072832495
13	0xbdce7ac3	-0.10082009
14	0xbdc37aa4	-0.09544876
15	0xbda8df13	-0.08245673
16	0xbd99c695	-0.0750858
17	0xbdeca8ae	-0.115556106
18	0xbd71d931	-0.05904502
19	0xbdf026a7	-0.11726122

fc_critic.weight f4 [1, 256]
0	0xbeca5151	-0.39515164
1	0xbee033e9	-0.43789604
2	0xbef91af4	-0.48653376
3	0xbee1dffa	-0.44116193
4	0x3f4ce874	0.80042195
5	0xbf04da6e	-0.518958
6	0x3e72ab5e	0.23698184
7	0x3e3dc974	0.1853388
8	0x3f057252	0.52127564
9	0x3e74a8bb	0.2389249
10	0x3e7e2f90	0.24822831
11	0x3e7f734e	0.24946329
12	0x3ef9a2af	0.4875693
13	0xbebf0e30	-0.37315512
14	0xbeeab46d	-0.4584078
15	0x3e837794	0.25677168
16	0x3e81fe0f	0.25389144
17	0xbecc71a6	-0.39930457
18	0xbed02953	-0.40656528
19	0xbf0b9836	-0.5452913
20	0xbec8ad61	-0.39194778
21	0xbefa364b	-0.48869547
22	0xbf725562	-0.94661534
23	0xbf1ece43	-0.6203348
24	0xbf2b4cc8	-0.66914034
25	0x3ebe2028	0.37133908
26	0xbeb4e891	-0.35333684
27	0x3e94f857	0.29095718
28	0xbf247d19	-0.64253384
29	0x3e4bb427	0.19892941
30	0x3e742fb7	0.23846327
31	0x3e393ad8	0.18088853
32	0x3e890167	0.26758882
33	0x3e65d41f	0.22444199
34	0x3e483162	0.19550088
35	0xbec43849	-0.38324192
36	0x3e59744e	0.21235773
37	0xbf20fbd0	-0.62884235
38	0xbea8e2e5	-0.32985607
39	0x3e9d45ec	0.3071741
40	0xbf84123a	-1.0318062
41	0x3e345d8c	0.1761381
42	0xbe8c7ea2	-0.27440363
43	0x3f03c839	0.5147739
44	0x3d2b4404	0.04181291
45	0x3ea3dd22	0.32004648
46	0xbed97213	-0.42469844
47	0x3ed7158c	0.42008626
48	0xbed762ca	-0.42067558
49	0xbf1c1c44	-0.6098063
50	0x3e613c30	0.21995616
51	0xbeb5736d	-0.35439625
52	0x3e5ac4e1	0.21364166
53	0xbeef94ba	-0.46793157
54	0x3e145af5	0.14487822
55	0x3e6109dd	0.21976419
56	0xbedb476a	-0.42827922
57	0xbedf92da	-0.43666726
58	0xbee126b7	-0.4397485
59	0x3e418ced	0.18901415
60	0x3ec42187	0.3830683
61	0xbea2534c	-0.31704175
62	0xbeaf1fa4	-0.34203827
63	0xbed55af5	-0.41670957
64	0xbf054c4d	-0.5206955
65	0xbf03561a	-0.51303256
66	0xbf61eb21	-0.88249403
67	0xbec4e15c	-0.38453186
68	0xbf4638ef	-0.77430624
69	0x3e0e7202	0.13910678
70	0x3e2a98be	0.16659829
71	0x3dfffa09	0.12498862
72	0xbf2abd4a	-0.6669508
73	0x3e3b64fc	0.18300241
74	0xbf2e408c	-0.6806724
75	0xbeac0132	-0.33594662
76	0x3e79a34e	0.24378702
77	0x3e78fc4e	0.24314997
78	0x3f00df77	0.5034098
79	0x3e399952	0.18124893
80	0xbeb3c195	-0.3510863
81	0xbf299f49	-0.66258675
82	0x3e47149f	0.1944146
83	0xbeb846d7	-0.35991547
84	0x3dbc59fd	0.091968514
85	0x3dc670b8	0.09689468
86	0x3e00e6ca	0.12588039
87	0xbe9bdaea	-0.30440456
88	0xbf0b2be1	-0.5436383
89	0xbf6eacab	-0.9323222
90	0x3e37f2b0	0.17963672
91	0xbeed88ff	-0.46393582
92	0x3e032f01	0.128109
93	0xbf09e3bf	-0.5386314
94	0x3e7f4989	0.24930395
95	0xbea2cb9d	-0.3179597
96	0xbef40fbb	-0.4766825
97	0x3dabe2d0	0.083928704
98	0xbea4cf05	-0.32189193
99	0xbeb3a50c	-0.35086858
100	0xbeb37359	-0.3504894
101	0x3e7ef472	0.24897936
102	0xbf4305c9	-0.761807
103	0x3e22f169	0.15912403
104	0x3f7e961b	0.9944779
105	0x3de649a0	0.112445116
106	0x3e379e0b	0.17931382
107	0xbf458c25	-0.7716697
108	0xbf3d46be	-0.7393607
109	0x3f6af55f	0.91780657
110	0x3e0105ea	0.12599912
111	0xbebe560b	-0.3717502
112	0x3e7129d6	0.23551115
113	0x3ebfde38	0.37474227
114	0xbf08e0d7	-0.5346808
115	0xbf0ed328	-0.5579095
116	0x3e125f06	0.14294061
117	0xbe83c555	-0.2573649
118	0x3dd416c2	0.10355903
119	0x3e7949a6	0.24344501
120	0x3e524456	0.2053388
121	0x3e628550	0.22121167
122	0x3e685c87	0.22691546
123	0x3e868d25	0.2627956
124	0x3e3d6105	0.18494041
125	0x3dfe31f0	0.124118686
126	0x3e8be5dd	0.2732381
127	0x3f9bf2f7	1.2183522
128	0x3e2ff08a	0.17181602
129	0xbf076925	-0.5289481
130	0xbea75632	-0.3268295
131	0x3e4a17f7	0.19735704
132	0x3dddf797	0.1083824
133	0xbed3e95f	-0.41388986
134	0x3e83b186	0.25721377
135	0xbf0a9c94	-0.5414517
136	0x3d67fed1	0.056639496
137	0x3e4845d8	0.19557893
138	0x3e94767e	0.28996652
139	0x3e80d8bf	0.25165364
140	0xbebe381a	-0.37152177
141	0xbda48d81	-0.08034802
142	0x3dc29b4a	0.09502275
143	0xbec8900b	-0.39172396
144	0x3eab3f49	0.3344672
145	0x3eef85e7	0.46781847
146	0xbe9e91f6	-0.30970734
147	0x3f5a8c97	0.85370773
148	0x3e2f49dd	0.1711802
149	0x3e7e3070	0.24823165
150	0x3e634976	0.22195992
151	0x3dc3e5db	0.09565326
152	0x3e3a8455	0.18214543
153	0x3e0e7f9b	0.13915865
154	0xbef3197a	-0.47480375
155	0x3dbafb41	0.09129954
156	0xbebb1f04	-0.365471
157	0x3e651139	0.22369851
158	0xbed13aad	-0.4086508
159	0x3e833845	0.25628868
160	0x3e5cede9	0.2157513
161	0xbf013339	-0.50468785
162	0xbd716d96	-0.0589424
163	0xbf645472	-0.89191353
164	0xbf318506	-0.693436
165	0x3e847746	0.25872248
166	0xbf0204f9	-0.5078884
167	0x3f2da798	0.6783385
168	0x3eaca60e	0.3372044
169	0xbed99e10	-0.42503405
170	0x3e18ae56	0.14910254
171	0x3e7a75dd	0.24459024
172	0x3e4b9e6a	0.19884649
173	0xbf062b3c	-0.5240972
174	0xbddde84d	-0.108353235
175	0xbf379ec2	-0.7172662
176	0x3e2b1550	0.16707349
177	0x3e512f49	0.20428194
178	0x3e99dcd6	0.30051297
179	0x3f0e99c7	0.55703396
180	0x3e50848d	0.20363064
181	0xbeed9fb6	-0.46410912
182	0xbed99b47	-0.4250128
183	0xbf1e85e2	-0.6192304
184	0xbeef752f	-0.4676909
185	0xbcf0d447	-0.029398097
186	0x3e71fb3c	0.23630995
187	0x3f40e2de	0.7534617
188	0x3e63618d	0.22205181
189	0xbed761fb	-0.4206694
190	0x3ee9f9f1	0.45698503
191	0xbf598dbb	-0.8498189
192	0x3da8d19c	0.08243105
193	0x3e365fa6	0.17809924
194	0xbe8a31bc	-0.2699107
195	0xbebf2c28	-0.37338376
196	0x3e5e4f19	0.21709861
197	0xbe96877f	-0.2940025
198	0xbefc3a32	-0.4926315
199	0xbf345288	-0.7043843
200	0x3e0e23a9	0.13880791
201	0xbf40eebb	-0.75364274
202	0x3e6e16eb	0.2325093
203	0xbde5da8a	-0.11223324
204	0xbf0b2be3	-0.5436384
205	0x3ea404e1	0.32034972
206	0x3e9a2210	0.30104113
207	0xbf550c06	-0.8322147
208	0x3e7df0a9	0.24798836
209	0xbe5b60c1	-0.21423627
210	0x3e84a7a0	0.25909138
211	0xbe08814b	-0.13330571
212	0x3e7a4d10	0.2444346
213	0x3e554f95	0.2083114
214	0x3e7230ff	0.23651503
215	0x3eac2d3f	0.3362827
216	0x3e7a6506	0.244526
217	0x3e52d22e	0.2058799
218	0x3e4fb1ea	0.20282713
219	0xbf0b346c	-0.54376864
220	0xbe8e6db8	-0.27818084
221	0x3e3584b9	0.17726411
222	0x3e70d8a5	0.23520143
223	0xbe95af69	-0.2923539
224	0x3ef8787d	0.48529425
225	0xbea31e10	-0.31858873
226	0xbe9f2435	-0.3108231
227	0xbf66e2e4	-0.9018996
228	0x3e6d3000	0.23162842
229	0x3e74f74c	0.23922461
230	0x3e916a93	0.28401622
231	0x3e895105	0.26819625
232	0xbf994e16	-1.1976955
233	0xbed8018d	-0.42188683
234	0x3f21d20e	0.63211143
235	0xbe9516f1	-0.29119065
236	0xbee8b00c	-0.45446813
237	0x3eacbefe	0.33739465
238	0xbf276b09	-0.653977
239	0x3e553dd2	0.20824364
240	0x3e3081fb	0.17237084
241	0xbeace6da	-0.33769876
242	0x3e9b845e	0.30374426
243	0x3e585eab	0.21129863
244	0x3e8429a5	0.25813022
245	0xbf3ca9d2	-0.73696625
246	0xbf3b5eee	-0.73191726
247	0xbee84e20	-0.45372105
248	0x3f23b2f6	0.6394495
249	0x3e12ac1a	0.14323464
250	0x3e8976f2	0.2684856
251	0xbe3f88a6	-0.18704471
252	0x3e8460ac	0.25855005
253	0x3e55be9c	0.20873493
254	0x3e8c7cfe	0.2743911
255	0xbf38632a	-0.7202631
