saved_models/crawler_ppo_2.ckpt (torch_old, 283196 bytes, 8 tensors)

std f4 [1, 20]
000000 05 83 6b bf 60 6a 08 bf da 05 5d bf ad 20 06 bf
       -0.91996795 -0.53287315 -0.86337054 -0.5239361
000010 12 a4 74 bf 7d df 27 bf 46 c1 89 bf 75 d2 37 bf
       -0.9556285 -0.6557539 -1.0762107 -0.71805507
000020 db 12 98 bf f2 a2 9f bf ed 83 9f bf a3 fc 68 bf
       -1.1880754 -1.2471602 -1.2462136 -0.91010493
000030 1e ac 20 bf 00 b1 17 bf 13 5a ff be 89 a2 12 bf
       -0.6276263 -0.59254456 -0.4987341 -0.5727926
000040 76 8b 6d bf 8b 65 12 bf fb e7 15 bf 5b 89 4b bf
       -0.92790926 -0.5718619 -0.585571 -0.7950646

fc1.weight f4 [200, 129]
000000 fc 78 88 3d 9f 78 c1 3a cf dd 7d 40 f4 7b f5 bd
       0.06663701 0.0014760679 3.9666631 -0.11986533
000010 b2 9f cd 3d ca 52 f6 3c bd 8e e6 3b 9f 14 ad be
       0.10040225 0.030068774 0.0070360587 -0.33804795
000020 48 f1 b9 be 08 65 91 3d 64 be 7b 3d f8 21 f5 3c
       -0.36316895 0.07099348 0.061460868 0.029923424
000030 a0 b7 2d 3c 6a ac 78 3c 07 c7 e5 3c ae fa a3 3c
       0.010602862 0.0151778255 0.028049005 0.020016994
000040 cc 7e d2 3d e0 9c 51 bb fe e4 00 bb 28 8f 41 3d
       0.10278091 -0.0031984374 -0.001966774 0.047255665
000050 78 f8 3c bd 6e b2 00 bd 9b 91 11 be 4c bb 37 3b
       -0.046135396 -0.031420164 -0.142157 0.0028035222
000060 e7 b0 25 3e 2f 13 a9 3b a9 23 da bd f8 a7 1a 3e
       0.16180764 0.0051597576 -0.10651333 0.15103137
000070 22 56 9e 3d 93 3f 54 bd ba b5 82 3b 8a 8b 6f 3d
       0.07731272 -0.05181844 0.0039889487 0.058482684
000080 8e 0d bb bd 18 14 77 3d b0 7f 71 3d 70 f0 47 bc
       -0.09133445 0.060321897 0.058959663 -0.012203321
000090 56 ba 05 bc 34 c8 5d 3d aa eb 9b 3c e3 d0 e8 bd
       -0.008162102 0.054146007 0.019033272 -0.11367967
0000a0 01 dd ae bd f7 01 7d 3d 83 e6 31 bd 7c 0b ae bc
       -0.08538247 0.061769452 -0.043432724 -0.02124571
0000b0 4a be 33 3c d8 4d a5 3c 45 08 15 3d 93 dc 84 bc
       0.010970661 0.02017872 0.03638484 -0.01621846
0000c0 1a ab 92 3d d2 13 86 3d ed 1e 80 3d f2 3c 0d bd
       0.07161541 0.06546749 0.062558986 -0.03448195
0000d0 a3 e5 06 be 03 bb d8 bc db 4f f3 bc 5e 25 da bc
       -0.13173537 -0.026456362 -0.029701164 -0.026629146
0000e0 f7 5f 29 3d 1a 89 87 bd fb e8 32 3d c9 ea 15 3d
       0.041351285 -0.06617947 0.04367922 0.03660086
0000f0 65 42 ac bc 6b 66 15 3d e3 e8 9f bd a4 74 e8 bd
       -0.021027753 0.036474627 -0.078080915 -0.113503724
000100 42 f0 9e bc 93 07 86 3d 96 c2 c6 bd 60 82 95 bd
       -0.019401673 0.065444134 -0.09705083 -0.07300258
000110 8c 5f cc bd cf 4c 9e 3d 33 55 a2 bd 0e d3 7a bd
       -0.099791616 0.07729494 -0.07926407 -0.061236434
000120 55 41 ad 3c 01 42 72 bd 8c 46 ed 3c 1e e9 3e bd
       0.021149317 -0.059144977 0.028964303 -0.046609037
000130 52 3f 96 bc 3c 2f 97 bd 39 87 1e bc b6 88 17 bc
       -0.01834074 -0.07382056 -0.009675794 -0.009248903
000140 6d cf 4b bd 4c 59 14 3e 44 74 27 3e 7f 7b ef 3d
       -0.049758364 0.14487189 0.16352946 0.11693477
000150 a6 a9 fd 3d 00 ea 10 3a ae 6f cb 3d 03 43 8a bd
       0.123858735 0.0005528033 0.099334106 -0.06751063
000160 3b 9f 4b 3d 95 dd 20 3d 76 22 05 bd 56 56 8d 3d
       0.0497124 0.039273817 -0.032503568 0.06901233
000170 3c 0a 53 bc 89 3d 42 3c bb 22 a8 bd 24 ec b1 3c
       -0.012880858 0.011855491 -0.08209749 0.021719046
000180 f7 02 be 3d ef e1 73 3c 26 2d 33 bd b4 f2 25 bd
       0.09277909 0.01488541 -0.04374423 -0.040514663
000190 7b 14 4e 3d 6c 6a f5 bc 9b 28 14 3e cb a6 80 bc
       0.0503125 -0.029957972 0.14468615 -0.015704533
0001a0 ad 26 c7 ba b8 43 cc 3c 45 a4 2a 3d b9 dd d2 3c
       -0.0015194021 0.024934635 0.041660566 0.025740491
0001b0 1c 1b 3d 3d fd 04 e4 3d 4d bb 86 3d dd e0 d1 3c
       0.04616843 0.11133764 0.065786935 0.025619918
0001c0 ef a7 3a bb 80 a6 61 3d 90 5e 35 3d b4 61 c8 3b
       -0.0028481444 0.055090427 0.044279635 0.0061151627
0001d0 bc 77 ef bc f7 c8 6c bd 06 a1 70 bc 0c f5 dc 3c
       -0.029231898 -0.057808843 -0.0146868285 0.026972316
0001e0 e7 c4 5c 3d 88 e8 bd 3d 0b bf 3d 3d be 53 78 bb
       0.05389872 0.092728674 0.04632477 -0.003789171
0001f0 6a 50 ae 3d a8 c4 a2 3d d0 b3 09 3c 68 f2 03 3c
       0.085114315 0.079476655 0.008404687 0.0080534
000200 28 81 b7 3c 74 4d ff 3c c7 dc ed bd f7 c2 65 40
       0.022400454 0.031164862 -0.116143756 3.5900247
000210 78 81 df 3d 9a d9 10 be 75 7e 96 bd 91 f8 34 3e
       0.10913366 -0.14145508 -0.073483385 0.17672946
000220 9c f5 91 bd d7 6d 8d be 6c 54 55 3d 7b 69 8e bd
       -0.071269244 -0.27622864 0.052082464 -0.069537126
000230 4b 58 72 3d de 68 49 3c dc 5b d7 bb c2 c6 98 ba
       0.059166234 0.012293069 -0.00657223 -0.0011655914
000240 82 4f 11 bd 5a 09 96 3d 97 bc a3 bd 24 66 4f 3d
       -0.035476215 0.073260024 -0.07994955 0.05063452
000250 bd a0 e4 3d bb fe d2 bc 90 e9 2e bc 4f 50 81 bd
       0.11163471 -0.02575623 -0.010675803 -0.06314146
000260 76 2f 9e 3c e4 a0 45 3d 59 ce 13 3e c6 9a 80 bd
       0.01930974 0.04824914 0.14434184 -0.06279521
000270 ea 18 83 3d 13 bc 94 bd e0 43 c5 bc 2d ea 87 3d
       0.06401236 -0.07262435 -0.024080217 0.06636462
000280 f5 68 2c 3c 55 29 2c bd c0 f4 bf bc 8d 20 a8 3c
       0.010523071 -0.042031605 -0.023432136 0.020523334
000290 69 98 36 3d 03 93 2d bd cf fe c1 3c a2 fc 75 bd
       0.044578943 -0.04237653 0.023681073 -0.060055383
0002a0 bf 9a a6 bd be e5 c9 3c 32 35 b6 3d a0 a8 b3 bb
       -0.08134984 0.024645682 0.08896865 -0.005482748
0002b0 98 99 3d 3c f6 4e c5 bc 9c fa 03 bd 1f b6 76 3d
       0.011572264 -0.024085503 -0.03222142 0.060232278
0002c0 a7 d3 79 3d 38 6b ae 3d 8a 57 9a bc 29 32 04 bd
       0.060992863 0.08516544 -0.01884057 -0.0322744
0002d0 ed e8 92 3c 1f 04 44 bd f5 3f 00 3e 94 26 31 bd
       0.017933333 -0.047855493 0.12524398 -0.04324968
0002e0 ff 3d f3 bc 5a 4d ab bd 78 08 14 bc 63 d1 c9 bd
       -0.029692648 -0.08364363 -0.009035222 -0.098543905
0002f0 83 3b c6 bd 9d 45 8f 3d 7b d4 d3 3c b8 ba 5f 3d
       -0.0967932 0.069956996 0.025858155 0.05462143
000300 26 0d 05 bd ed 3b 9c bd 9e 71 2e bd d6 0a e4 3c
       -0.032483242 -0.076286174 -0.042588823 0.027837198
000310 60 01 ee 3c 09 6e d4 bd ea d6 b9 bc 80 8f 97 bd
       0.02905339 -0.1037255 -0.022685487 -0.07400417
000320 c4 e8 f7 3c 57 9c 3e bd d0 79 1e 3c 43 43 0f 3d
       0.030262358 -0.046535816 0.009672597 0.034976255
000330 af 44 f4 3c f4 ec 1e bc 55 71 0d bc 05 4f 8b bd
       0.029817907 -0.009700049 -0.0086329775 -0.06802181
000340 a3 70 87 bb d9 a9 0b bd 96 0b c6 bb 3d 9b 4e 3c
       -0.0041333004 -0.034097526 -0.0060438616 0.012610254
000350 73 ba b8 3d 8b d5 4b bd bc 15 b1 bd ea e2 38 bd
       0.09019937 -0.049764197 -0.08646724 -0.045138277
000360 52 d6 61 bd 4b ee 29 3d 4a e7 17 3c 41 72 fb 3c
       -0.055136032 0.04148702 0.009271452 0.030694129
000370 52 7f 94 bc 14 80 94 bc 97 8e 8b bd 95 06 91 3d
       -0.018127117 -0.018127479 -0.06814306 0.070813335
000380 0f 5a 88 bd 57 62 7a bd 0c 04 df 3d 10 c8 98 3d
       -0.06657802 -0.06112894 0.10889444 0.07460034
000390 f4 d2 54 3d 1f f1 3e 3d 80 af 2d 3a 5d 74 92 3d
       0.051958993 0.04661667 0.0006625578 0.07151101
0003a0 b0 36 66 3d 47 39 3f 3c 23 57 98 3c fa 01 e3 bc
       0.056204498 0.011671371 0.018596238 -0.027710903
0003b0 ba 7d 92 bc 8f 1f 61 3c e9 b6 0c bd 21 52 3e bd
       -0.017882217 0.013740434 -0.034354124 -0.046465043
0003c0 49 fb 24 bd da ec bd bd c5 52 ae bd 01 1d dc bc
       -0.040278707 -0.092736915 -0.08511881 -0.026869299
0003d0 29 87 b1 3b 1d c9 ae bc e9 8e 33 bd 28 a1 5b bd
       0.0054177237 -0.021336133 -0.04383746 -0.053620487
0003e0 90 2e 8b bd c0 a6 72 bd 3a 91 32 3d 9b bb 89 bd
       -0.067959905 -0.059241056 0.04359553 -0.06725236
0003f0 fe cb d7 3c 31 b2 86 3c 4d df 6b bc 2c 9e 4f 3d
       0.026342388 0.01644239 -0.014396501 0.050687954

fc1.bias f4 [200]
000000 53 10 67 3c d1 a6 2b 3d 4f 35 b4 3c 70 10 6a 3b
       0.014103013 0.041907135 0.021998076 0.0035715364
000010 8a e2 5a bc fa cd cc bd fc 4a ac 3d ca 1f 27 3e
       -0.013359675 -0.100002244 0.0841274 0.1632072
000020 32 ac e0 3d 3d 24 f0 3d 43 88 a6 bd 04 e9 c9 3c
       0.10970344 0.11725662 -0.081314586 0.024647243
000030 03 b7 ce 3d e5 0d 3d bb f1 c9 27 3d 8d 84 34 3e
       0.100935005 -0.0028847393 0.04096407 0.17628689
000040 0e 07 38 3c e2 57 00 3d 67 a5 70 3e d6 03 99 bc
       0.011232151 0.03133381 0.23500596 -0.018678587
000050 41 be b9 3d b5 a5 b9 bd 4e bf 6d bd 32 bc 2f 3d
       0.09069491 -0.09064809 -0.05804377 0.042904086
000060 4c 00 0d 3e 01 d4 8a bd a3 fe e4 3d 48 ab 16 3e
       0.13769644 -0.06778718 0.111813806 0.14713776
000070 c2 4c 5c 3d d2 c3 9c 3c 40 7f 36 3e a7 37 1f 3e
       0.05378414 0.019136343 0.1782198 0.15548573
000080 ff 45 5b bd 47 98 f3 3c 8b 15 0f 3d a3 05 cf bd
       -0.05353355 0.029735697 0.034932654 -0.10108497
000090 97 55 0f bc e2 12 b2 bd 45 6e 39 3e 90 84 8d bc
       -0.008748434 -0.08695008 0.1810847 -0.017275125
0000a0 5c 1d 5e 3e 34 65 81 3c ea e3 cc 3d 6d 77 0b 3e
       0.21690887 0.015795328 0.10004409 0.13619776
0000b0 24 e5 4e 3e 73 df 82 3c 24 3c be 3d 54 73 1f 3e
       0.20204598 0.01597569 0.09288815 0.15571338
0000c0 c5 f9 0e 3e 6f fe 27 3d ce c9 7d 3d b0 82 cf 3d
       0.13962467 0.04101413 0.061960034 0.101323485
0000d0 da 97 07 bd f2 07 6e ba 80 66 59 bc 7e 1f 61 3e
       -0.0331038 -0.00090801634 -0.013269067 0.2198467
0000e0 48 86 8f 3d 15 f5 f9 3d db 91 00 bd f6 3b 9a bd
       0.07008034 0.12204949 -0.0313891 -0.07530968
0000f0 8a 7d 86 3d c3 2a cb 3d da c0 b0 3d 0b 62 96 3d
       0.065669134 0.099202655 0.086305335 0.07342919
000100 ff 4a bd 3d 66 ec 98 bd ec 5b 3b 3d 0f a8 67 bc
       0.0924282 -0.074669644 0.04574196 -0.014139189
000110 01 d7 c7 3d be ca 51 3e 6b 96 73 bc e8 8d bf 3d
       0.097578056 0.20487496 -0.014867405 0.09353238
000120 68 6b 2f 3c 6a 11 a1 3d e1 68 b6 bd 01 d7 28 be
       0.01070676 0.078646496 -0.08906723 -0.16488267
000130 1e 16 d1 3d 33 2e 41 bc d4 76 e3 3d 1d 74 81 3e
       0.10209297 -0.0117908 0.11106649 0.252839
000140 d4 3b 09 3e 4d 79 51 3e 1c ad 02 3d bb e5 39 3c
       0.13401729 0.20456429 0.03190337 0.011346276
000150 28 70 b6 bd 82 68 8f 3d cf 27 50 3d ad 13 8f 3d
       -0.08908111 0.07002355 0.050819214 0.06986175
000160 ce 85 e5 3d 36 b5 c7 3d a5 df 72 3e 68 6d ff b9
       0.11207162 0.0975136 0.23718126 -0.00048718904
000170 03 7c a6 3c 02 3a 5e 3d ef 39 b8 3d 34 61 33 3d
       0.020322805 0.05425454 0.08995425 0.043793872
000180 fb ef 38 3d 70 90 ef 3d 0f 9e 48 bd e5 6b 3a 3e
       0.04515074 0.11697471 -0.04897886 0.18205221
000190 78 d9 80 3d c6 13 80 bd d9 43 14 be b9 59 c8 bd
       0.06291479 -0.062537715 -0.14479007 -0.09782738
0001a0 4f fa ef 3d 2a 72 30 bd d0 2a 8c 3c 73 b1 5f bc
       0.117176645 -0.043077625 0.017110258 -0.013653147
0001b0 cc 0b 0b 3d 29 ea 6e bd f4 cc e7 3b 80 b3 45 bc
       0.033946797 -0.05832878 0.007073993 -0.012066722
0001c0 d2 d5 a7 3b 61 2d 29 3e 5a b7 c2 bc 9a 89 e7 bc
       0.005121925 0.16521217 -0.02376907 -0.028263856
0001d0 8c b2 3b 3e 9e 8d d6 3d 81 75 ab 3c 24 6d d7 3d
       0.18329829 0.1047623 0.020930054 0.10518864
0001e0 9d eb 8c 3e 6b 01 89 bd 19 3b 1e 3d 39 12 c1 3d
       0.2752351 -0.066897236 0.03863058 0.09427304
0001f0 b5 b7 b3 3d 4d 07 9c bc 5d 65 c5 bd f6 47 b0 bd
       0.08775274 -0.01904645 -0.09638474 -0.086074755
000200 bd 36 13 3e 4c 21 68 bd 66 cd 97 3d 57 c5 04 be
       0.1437635 -0.05667238 0.074122235 -0.12965904
000210 22 ca 3d 3c 0a 8f 55 3e 73 26 42 bd eb e8 66 3e
       0.011583837 0.20855346 -0.04739995 0.22549789
000220 ac 3d d8 3c fb c9 2c bd 4d 92 f5 bc dd 8c 4d 3d
       0.026396595 -0.04218481 -0.029976988 0.050183166
000230 bb 1a ef 3d b5 16 22 3d ba 9d 15 be b0 71 ac 3d
       0.1167502 0.039572436 -0.14610949 0.08420122
000240 a0 24 f6 3d 4d e4 48 3c 67 ea 00 3d 33 cb a0 3d
       0.120187044 0.012261462 0.031473543 0.07851257
000250 b2 ac 49 3d 96 99 55 3e 92 d3 55 be a8 a0 5c be
       0.04923696 0.2085937 -0.20881489 -0.2154566
000260 ac 4c 78 3d 60 b1 e2 bc fc 56 b8 3d ff db 03 be
       0.060619995 -0.02767247 0.09000966 -0.1287689
000270 2d 28 e6 3d ca b5 30 3d 3d fb c1 3d bb e3 eb 3b
       0.11238132 0.043142118 0.09471748 0.0071987784
000280 63 37 14 be ea 4f 61 3d 7a 07 bb 3d a7 5b 90 bd
       -0.14474253 0.055007853 0.091322854 -0.07048731
000290 84 97 a8 bc 03 0a 85 3d e9 9c 19 bc 74 97 b9 bd
       -0.02058006 0.0649605 -0.009375789 -0.090620905
0002a0 7e 57 40 3e 3c 06 0f 3e 00 89 ca 3d 8a 0e 37 bd
       0.18783376 0.13967222 0.09889412 -0.0446916
0002b0 04 27 58 3d 4a 0a 3a 3d 4a 94 23 bd ee a2 2b 3e
       0.052771583 0.04541997 -0.03993634 0.16761371
0002c0 45 6c 11 3e d8 e8 b0 3b d5 1e f2 bd aa 62 06 be
       0.14201458 0.005398851 -0.11822287 -0.13123575
0002d0 3e e0 bb bd 6b 03 4d 3e d8 37 6e be da b7 6d 3d
       -0.0917363 0.20020835 -0.2326349 0.058036663
0002e0 35 46 93 3d cf e2 9c 3d e3 71 1f bd 99 28 d0 bc
       0.07191125 0.07660448 -0.03892697 -0.025409983
0002f0 ea 6f 41 3d d8 3a 86 bd 08 61 fd 3d 82 e1 08 bd
       0.04722587 -0.06554192 0.12372023 -0.033418186
000300 16 25 93 3d 25 be 30 bd c9 28 1b 3e 13 1f d4 3d
       0.07184808 -0.043150086 0.15152277 0.103574894
000310 bc bf 70 bd 12 81 41 bd 24 f5 5b 3d 34 27 00 be
       -0.058776602 -0.04724223 0.05370058 -0.12514955

fc2.weight f4 [200, 200]
000000 ff fd 1a bd c7 e2 f5 bd 77 13 c4 3d 31 cf b0 3d
       -0.037839886 -0.12006145 0.09574025 0.086332686
000010 c0 39 ce 3d 0e 43 64 3c 9e 36 18 3d 5f 59 df 3d
       0.10069609 0.013932003 0.037161462 0.10905718
000020 53 bc 11 be 4f b8 5e bc 81 41 5e bf 38 c7 3b be
       -0.14231996 -0.013593747 -0.868187 -0.18337715
000030 9f f1 01 3e 8e 8b 11 3d 5f d4 f7 3c 00 ad 0f 3d
       0.12689827 0.03553348 0.030252634 0.035077095
000040 cd 37 3a be b8 e5 cb 3d 1e 76 a2 3d 41 90 a6 be
       -0.18185349 0.09955925 0.07932685 -0.32531932
000050 5d 09 92 3c 11 09 b9 bc d8 b8 61 be 51 08 d0 bd
       0.01782673 -0.022587331 -0.22043169 -0.10157836
000060 a2 70 ec bd a7 a5 0a bf a9 ad c9 3d 69 39 e6 3d
       -0.115449205 -0.54159015 0.09847576 0.11241419
000070 27 4b 8c 3c 03 30 6a bc 6e 2b 05 3e d3 8b 95 3d
       0.01712568 -0.014293673 0.13004848 0.0730206
000080 6c de e3 bd 52 60 7a bf 3e 60 1a bd 10 70 c6 bc
       -0.11126408 -0.97803223 -0.03768944 -0.024223357
000090 ac 81 87 3d 22 8d ef 3c 65 6f b0 3d 19 73 4e bd
       0.0661653 0.029242102 0.08614997 -0.050402734
0000a0 e1 b8 53 3d 2f cd d9 bc 5b ba 83 39 d3 50 20 bd
       0.051689986 -0.026587097 0.00025125113 -0.03913958
0000b0 3e ff 12 3d 3e 75 20 3a 02 07 0a 3e 2d f5 86 3d
       0.03588795 0.0006120986 0.13479236 0.06589732
0000c0 82 bd 9f bd c4 4c 2c 3c 55 fb 10 be 5d 43 4e 3d
       -0.077998176 0.010516349 -0.14158376 0.05035721
0000d0 0d 3e 04 3d 80 66 97 3d 13 90 0b 3b b1 6c ac 3d
       0.03228574 0.07392597 0.0021295592 0.08419169
0000e0 cb 01 9e bd 17 82 3f 3d 60 11 c6 3d fa 50 ea bf
       -0.07715186 0.046754923 0.09671283 -1.8305962
0000f0 20 26 d6 bd 02 0d 30 3d 9d 4a 30 bd eb 0e bd bd
       -0.104564905 0.042981155 -0.043039907 -0.09231361
000100 25 26 bb bd db ae 41 be a7 88 d0 3c df e4 57 3c
       -0.09138135 -0.18914358 0.025455786 0.013177126
000110 8a b9 a4 3d 03 e2 ed 3d 81 b5 0c be cb 26 a3 be
       0.08043201 0.11615374 -0.13741113 -0.31865534
000120 8f 1c 2a be 42 50 01 3d cc 52 13 bf aa 8d 82 bf
       -0.16612457 0.03157068 -0.57548213 -1.0199482
000130 c3 23 65 3d 0a 57 e1 bd 70 9c 1c 3e 5b 1a ed 3d
       0.05594231 -0.110029295 0.15294051 0.115772925
000140 2e 33 05 3e 7b ce 74 bc 8b 74 9a 3c 7f 5c 11 3d
       0.13007805 -0.014941807 0.0188544 0.0354886
000150 6a 7c 89 bd f5 01 a2 3d 50 8f de 3d 8f 9a 89 3d
       -0.06713183 0.079105295 0.108671784 0.06718933
000160 23 9d ff bd 31 00 af 3d 52 03 4b bd 14 58 32 be
       -0.12481143 0.085449584 -0.049563713 -0.17416412
000170 ad 82 94 3d d7 82 96 3c 8c 68 ee 3d 3f 23 50 3e
       0.07251487 0.018372936 0.116410345 0.20325945
000180 50 a6 0d be a7 09 4c be 98 0d de bc d5 13 8b 3d
       -0.13832974 -0.19925557 -0.027106091 0.06790892
000190 f4 a5 27 be 1c 9c 29 bc d0 c5 bf bd be d6 14 bd
       -0.163719 -0.010352161 -0.093639016 -0.036337607
0001a0 b6 e0 12 3e 92 87 c9 3c 5b 89 49 bb 38 67 85 3d
       0.14343533 0.024600778 -0.0030752036 0.06513828
0001b0 a0 92 de bd 11 ed a7 bd fd 41 bd 3d dd f1 d3 3d
       -0.1086781 -0.08199514 0.09241102 0.10348866
0001c0 d2 9b 5e bd fd 75 12 3e 35 64 c0 bc 07 90 23 c0
       -0.05434782 0.14302821 -0.023485282 -2.5556657
0001d0 37 c9 0e 3e 59 94 b2 3d a1 14 a7 3c 9d d2 60 3c
       0.13943945 0.08719701 0.020395579 0.013722089
0001e0 c2 0d 10 3e 9b 2c ae 3d ba 9c 02 bd 26 83 bd 3d
       0.14067748 0.085046016 -0.031887747 0.0925353
0001f0 42 e7 e6 3d e3 bd 99 3d f0 5e a0 bd 7d e5 e2 3d
       0.11274578 0.07506921 -0.07830608 0.11078928
000200 7a 5d 0a 3e 85 65 56 bc d6 d3 b3 3d 51 46 41 be
       0.13512221 -0.013085728 0.08780639 -0.1887448
000210 6a 29 a6 3d 8e a8 58 bd c3 ce 4a bd da f6 f6 3d
       0.08113368 -0.05289512 -0.04951359 0.12058802
000220 5a 36 4e be 2e 36 16 be 82 b2 b4 be 7b 44 f3 3d
       -0.20137921 -0.14669105 -0.3529244 0.11878296
000230 c5 81 b5 3d e3 88 a7 3d a9 a3 c0 bc 17 20 c9 bd
       0.08862642 0.08180406 -0.02351554 -0.09820574
000240 70 20 aa 3d 06 c3 b1 bd 14 ad 14 bf 12 19 cd 3d
       0.08306968 -0.08679776 -0.58076596 0.100145474
000250 69 72 cb 3d cc 43 d9 3d b6 f5 47 bf 5c 01 53 bc
       0.099339314 0.10608634 -0.781093 -0.012878742
000260 6b aa a6 bd 1d b2 52 3c 13 a7 d2 bc cd 6b 9a bd
       -0.081379734 0.012859848 -0.025714433 -0.075400926
000270 8c 9e ca 3d a9 5b 34 3d 1f 77 62 3d 56 ec 16 3e
       0.09893522 0.044032726 0.055289384 0.14738593
000280 6b ae 4d bd aa ca c7 3b 4a 99 7e bc 1f f1 76 bd
       -0.050215166 0.0060971575 -0.015539477 -0.060288545
000290 d9 fd a6 be b4 b4 00 bf dd ed 2a be 51 51 60 bc
       -0.32615545 -0.5027573 -0.166923 -0.013691262
0002a0 fa 3f f1 3c 4d a9 0a bd c9 21 88 3d 3f 8b 8e 3d
       0.029449452 -0.033852864 0.06647069 0.06960153
0002b0 bc 3a 8d 3d 00 4f db bd b7 33 88 be d3 13 e1 3d
       0.06895968 -0.107084274 -0.26601955 0.10990109
0002c0 3d db 8b 3d 7e e0 12 bd 91 cc 4b be b1 16 1d bf
       0.06828926 -0.035858624 -0.19902255 -0.6136275
0002d0 d4 12 36 bd b2 18 4c 3c e3 75 a3 bd 54 ef 9a bd
       -0.04445155 0.01245706 -0.079814695 -0.075651795
0002e0 57 9e bf bd 49 9f 98 3d ec 97 cc be a1 bc bb bd
       -0.09356373 0.07452256 -0.39959657 -0.091668375
0002f0 15 8f 38 bd 1c 34 53 bf b8 dd d1 3d cd a7 08 bb
       -0.04505833 -0.8250139 0.102473676 -0.002085197
000300 d4 61 e1 3c 0f ee 19 be 9e 8f b1 3d f7 16 1f 3d
       0.027512468 -0.15032218 0.08669971 0.03884026
000310 26 d4 43 be 65 6b ae 3c 4f 88 e4 bc b3 54 9e be
       -0.19123897 0.021291444 -0.027897028 -0.30923995
000320 9f a7 85 bd 00 75 f4 bb 51 28 ac bb 9c e2 d6 3b
       -0.06526112 -0.0074602365 -0.0052538295 0.0065577757
000330 3d a1 d7 3d 01 ec ed 3d c8 6e 84 3d 65 6c 09 3e
       0.10528801 0.1161728 0.06466442 0.13420255
000340 3d 80 2b be 3c 36 37 3b b5 31 66 bf ec 0c 21 be
       -0.16748138 0.002795591 -0.89919597 -0.15727586
000350 19 40 bd 3d 6e fd cf 3d 31 6f 18 3d 4e 92 0a 3d
       0.09240741 0.1015576 0.037215415 0.033830933
000360 77 a7 c4 bd c0 2c bc 3d 46 43 0d 3e f6 b7 39 be
       -0.09602254 0.09188223 0.13795194 -0.18136582
000370 58 da de 3c 4f 33 92 bd 44 96 6d be 22 60 a4 bd
       0.027203724 -0.071386926 -0.23201853 -0.080261484
000380 fc 7e db bd 09 2c f5 be 63 c2 be 3d 4d bb c3 3b
       -0.1071758 -0.4788516 0.0931442 0.0059732557
000390 12 e3 5d bc 47 eb 97 3d 7d bf 83 3d 11 4c ea 3d
       -0.013542907 0.074179225 0.06433008 0.1144029
0003a0 86 bc 88 bd 9e 47 81 bf 20 d3 7f 3d 4b 67 fa 3c
       -0.06676583 -1.0099981 0.062457204 0.030566832
0003b0 d3 be b7 3c f7 46 8c 3d 1b de 02 3e e8 0b f2 bc
       0.02242986 0.06849473 0.12780039 -0.029546693
0003c0 b7 88 88 3d 79 42 2e bd 04 c9 ad bd a4 21 9c bd
       0.06666701 -0.042543862 -0.08485606 -0.07623604
0003d0 be 2d 91 3d 8b 36 71 bc c9 a9 0e 3c 6a eb 16 3d
       0.07088803 -0.014722477 0.008707472 0.036845602
0003e0 0a 37 3b bd fb aa 56 3d ab 60 2b bd 27 d2 d3 3d
       -0.045706786 0.052409153 -0.041840237 0.10342818
0003f0 3e 40 5e 3d 1c a0 84 3d d4 f0 10 ba bf 6a 10 3e
       0.054260485 0.06475851 -0.000552905 0.1410322

fc2.bias f4 [200]
000000 8a fc 69 3e 80 2f 09 3e c7 4b 80 3d 25 14 30 be
       0.22850242 0.13397026 0.062644534 -0.17195185
000010 60 db e0 bd bb 59 2b 3e b1 9e 66 3e d9 4c 0b 3e
       -0.109793425 0.16733448 0.22521473 0.13603534
000020 82 4a be bd db dd 1b be 9a 83 50 3e 0e a7 5e bc
       -0.09291555 -0.1522135 0.20362702 -0.013589634
000030 20 3e 48 3e 60 c5 6e 3e 19 ae 39 be 73 21 81 bd
       0.19554949 0.2331748 -0.18132819 -0.06305208
000040 d6 6b 19 3e b6 fe c4 3c 5e 6c 30 3e e9 04 35 3d
       0.14982542 0.024047237 0.17228839 0.044194136
000050 c9 00 25 3e 99 59 57 3e be 79 85 bd 53 8f 97 3d
       0.16113581 0.21030273 -0.06517361 0.07400384
000060 b9 67 51 3e 15 9b de 3c 50 32 2f be 49 1b 34 3e
       0.20449723 0.027173558 -0.17109036 0.17588533
000070 0b d7 64 be a9 84 88 3e 86 79 37 3e 92 f3 a0 bc
       -0.22347657 0.26663712 0.17917451 -0.019647393
000080 a6 86 00 3e 41 cf 8d bd 84 db c2 3d a0 04 1e be
       0.12551364 -0.06924296 0.095145255 -0.15431452
000090 33 d4 ab 3d d2 3b 07 3e b2 70 3e 3e c5 70 0c be
       0.08390083 0.13206413 0.18597677 -0.13714893
0000a0 d6 63 1b 3e b5 9a 00 bd 29 79 af bd 83 b9 65 3e
       0.15174803 -0.03139754 -0.08568031 0.22434048
0000b0 4c 20 4e 3e 1e 9d 12 3e 5c b7 18 3e d4 98 19 bd
       0.20129508 0.14317748 0.14913696 -0.037499264
0000c0 35 d0 d4 3c 97 21 e0 3d 08 96 fd bd 98 0a 41 3e
       0.025978187 0.10943907 -0.12382132 0.18851697
0000d0 43 8f 8a bd d1 80 dd bd 38 d1 cb 3c e5 b1 03 3e
       -0.06765606 -0.108155854 0.024880037 0.1286083
0000e0 a5 50 8c bd 77 39 4d bd df 5c 33 3e 67 94 07 bd
       -0.06851319 -0.05010363 0.17515896 -0.033100512
0000f0 56 cb cd bd 33 41 64 3d 89 5e c2 3d 34 10 7a bd
       -0.10048549 0.05572624 0.094906874 -0.06105061
000100 3f 4e a6 bc ad e7 0c 3e 6c 0f 2c bd 3d 3c 01 be
       -0.020300983 0.13760252 -0.042006895 -0.12620635
000110 f6 31 0d 3e dd 12 0c 3e cf aa cb bd 09 a1 2f 3e
       0.1378859 0.13679071 -0.099446885 0.17151274
000120 e4 46 40 be bc c7 c3 3d aa e4 1a 3e 12 e3 3a 3e
       -0.18777043 0.09559581 0.15126291 0.18250683
000130 45 b9 27 3e 0b 67 1d 3e 09 8b 2f 3e 37 aa 5f 3e
       0.16379268 0.15371339 0.17142881 0.21842276
000140 5c 59 24 be c9 a9 6a 3e 06 0f cf bd 6c 9b f6 bd
       -0.16049713 0.2291633 -0.10110287 -0.12041363
000150 9d a7 1c 3e 32 14 b6 bd 74 43 f0 3d 48 80 00 3e
       0.15298314 -0.08890571 0.11731616 0.12548935
000160 1e 5e 4d bb 4b e5 9c bd 3c 12 66 3e a2 f1 9e bc
       -0.0031336616 -0.07660922 0.22467893 -0.019402329
000170 13 b3 d2 3d 71 2f 92 3d 4f ab 97 3d 3d c5 91 bd
       0.10288062 0.07137955 0.074057214 -0.07117698
000180 cc ac bc 3d f2 49 a6 bd 6d 70 42 be 93 a0 db 3d
       0.09212646 -0.08119573 -0.189882 0.107239865
000190 17 c9 2e be 62 1e b9 3c 89 59 83 3e d7 40 81 3e
       -0.17068897 0.022597495 0.25654247 0.2524478
0001a0 c8 cf 34 be 91 87 0f be b0 06 c9 bd 75 29 75 3e
       -0.17657387 -0.14016558 -0.09815729 0.23941596
0001b0 ef 16 75 3e 03 be 6d 3e 2d ba 69 bd f9 ac d8 bd
       0.2393453 0.23217015 -0.057062317 -0.10579867
0001c0 37 e5 04 bd ac c1 27 3e 11 8b 7e bd d4 fb 1e 3e
       -0.03244516 0.16382474 -0.062144343 0.15525752
0001d0 8c 96 c8 bd 4e 8e 64 3d 7a e3 6b 3e fd 62 65 3e
       -0.097943395 0.055799775 0.23035994 0.22401042
0001e0 3e f2 b2 3d 9a c2 8f 3c 30 bb 3f 3e f2 84 1d 3e
       0.0873761 0.017548848 0.1872375 0.15382746
0001f0 46 e1 19 3e 1c 8d 84 3b df a8 13 be 8c 57 ea 3d
       0.15027341 0.004045142 -0.14419888 0.114424795
000200 6c 97 44 bc 91 ab 16 be ad 36 22 3e b5 e4 05 3e
       -0.011998992 -0.14713885 0.1584117 0.13075526
000210 a0 a3 07 3e e8 87 11 3e 0b c3 0e 3e e7 d8 e6 bd
       0.13246012 0.14212 0.1394159 -0.112718396
000220 30 48 38 3e 99 ea 38 3e 0a c6 72 3e 68 ee d0 3d
       0.17996287 0.18058242 0.23708358 0.102017224
000230 d5 d8 b1 3c b5 65 86 bd 91 a6 0e 3e 76 29 0f bd
       0.021709839 -0.06562368 0.13930728 -0.03495165
000240 83 0b 5e 3e 91 44 2a 3e d0 8a 1d bc ef 4a 48 3e
       0.21684079 0.16627719 -0.009615615 0.19559835
000250 54 79 41 3e ba dc b6 bd 63 56 78 3e f8 b4 dd bd
       0.1889394 -0.08928819 0.24251704 -0.10825533
000260 3d d6 f2 3c 22 dd 86 3d 30 27 0c bd e0 87 bd 3d
       0.029643172 0.065851465 -0.03421706 0.09254432
000270 e8 1c d5 bd 2e cf 4b 3e 34 e2 82 3e 66 51 38 be
       -0.10405904 0.19903252 0.25563204 -0.17999801
000280 3e 2f 12 3e a5 ef 67 3d 1f 27 3d bd 4f df f6 3d
       0.14275834 0.056625027 -0.046179887 0.120543115
000290 5d 5f 0e bc 12 d1 21 3e ff 3f 9f 3d a9 fe 6a 3e
       -0.008689729 0.1580241 0.07775878 0.22948708
0002a0 41 32 12 3e 79 78 85 bb db 73 a2 bc 8e 82 68 3e
       0.14276983 -0.0040731994 -0.019830635 0.22706053
0002b0 a7 f4 18 3e 6d 2f 46 3e 0e 01 5b 3e c9 c2 49 3e
       0.14937077 0.19354029 0.21387121 0.19703211
0002c0 70 62 83 3e 54 fa 39 3e 29 a2 39 3e d4 e8 5a 3e
       0.2566104 0.18161899 0.18128265 0.2137788
0002d0 75 21 47 3e af 0d 35 3e 0e 41 27 3e 8d 1c 8a bd
       0.19446357 0.17681001 0.1633341 -0.06743727
0002e0 9b 4f 2f 3e c2 8b 6c 3d 6f dc 31 be ac 6a 59 3e
       0.17120211 0.05775047 -0.17369245 0.21232098
0002f0 71 08 3f 3e 59 0d 4e 3e 75 98 17 3d 8b d3 5d 3e
       0.18655564 0.20122279 0.03701063 0.21662728
000300 68 48 7c bd 8c d1 20 be b8 f5 6f 3d 43 3c d4 3d
       -0.06159249 -0.15704936 0.058583945 0.103630565
000310 9e 03 df bd 88 0c 54 3b 69 39 f1 bd 2f ae 3e 3e
       -0.10889362 0.0032356102 -0.11778528 0.18621133

fc_actor.weight f4 [20, 200]
000000 ad ab 0e bc 19 27 a8 bd 07 4a 32 3d c1 60 3e 3c
       -0.008707923 -0.08210582 0.04352763 0.011619748
000010 d3 1d ea 3a d9 d0 76 bc 71 43 99 3c 0d 49 93 3c
       0.0017861672 -0.015064442 0.018708916 0.01797917
000020 ee 47 1f 3d 1b 90 c7 bc 70 a0 47 3d b4 66 26 3d
       0.038886957 -0.024360707 0.04873699 0.04062529
000030 c8 4a 56 3d 8c bb d5 ba c7 ec f6 3b 5f 19 c6 3b
       0.05231741 -0.0016306504 0.0075355503 0.006045505
000040 4a 6f e7 bb 99 36 86 3d f6 75 7a 3b fd 0b 21 bb
       -0.0070628272 0.065533824 0.0038217283 -0.0024573796
000050 2d 89 5e 3c b6 4a b4 ba a8 6d 5a 3d af e6 9a ba
       0.01358251 -0.0013755176 0.053327233 -0.0011818017
000060 27 b9 f7 bd 6c 1a 5b bc 62 5f b1 3c e2 c4 53 3d
       -0.12095862 -0.013372999 0.021651927 0.051701434
000070 ba 0f cd bd e1 1e 21 3c 76 22 51 3e 7e 08 b1 bd
       -0.10012765 0.009834022 0.20423302 -0.08644198
000080 34 0f 31 bc 52 96 d4 3c 92 13 83 3c 8e b4 c8 3b
       -0.010806847 0.025950585 0.016000543 0.0061250394
000090 f2 43 d7 bb 88 98 74 3d 42 e0 fa 39 19 c0 83 3c
       -0.006569379 0.059715778 0.000478508 0.01608281
0000a0 a3 2f ac 3c 97 ab 10 3e b0 9d e8 bc 51 34 f6 3c
       0.021018809 0.14127956 -0.028395504 0.030054243
0000b0 14 e9 8d 3d b0 c9 b5 3d 31 d0 8f 3d d3 b7 23 3d
       0.06929222 0.088763595 0.07022131 0.03997023
0000c0 37 47 9a 3e 58 ef 63 bd 19 5c c6 3c 8e 19 f8 bb
       0.30132458 -0.055648178 0.024213837 -0.0075714057
0000d0 87 65 97 bd 26 cd ba 3c 4a e5 03 3d ab 68 31 bd
       -0.07392412 0.0228029 0.03220109 -0.04331271
0000e0 36 cd 5c 3c 7b 32 06 3d b7 9a 11 3d 0a a3 de 3b
       0.0134766605 0.032762986 0.03554794 0.006794338
0000f0 20 c7 ce bc 17 61 06 be 9c 83 4b bd 0b 5e 6c bc
       -0.025241435 -0.13122974 -0.04968606 -0.0144267185
000100 e1 0f 2f bd 8f a5 d2 bc 00 1d cf bb 33 2e 6a bd
       -0.042739753 -0.02571371 -0.0063205957 -0.057172965
000110 3a 16 a4 3b ce b9 85 3d e8 e7 c7 bb 19 79 3b bd
       0.0050075324 0.0652958 -0.0061006434 -0.045769785
000120 89 76 c0 bc df f0 9a 3c 8b 84 01 3c 29 07 4d bd
       -0.023494022 0.018913684 0.007905136 -0.050055657
000130 57 7d 0f 3d 0c e2 70 bd 1a 18 c0 3c 8f 94 37 3d
       0.035031643 -0.058809325 0.023448993 0.04481941
000140 e2 c6 d5 bc a1 7c 90 bb 79 68 d1 3c 7b 16 82 3d
       -0.026095811 -0.004409388 0.025562512 0.06351944
000150 6b 8f 6c 3c ab b7 1f 3d a9 9c 1c be 73 9d ed 3c
       0.01443849 0.03899352 -0.15294136 0.029005742
000160 d7 18 fc bc 3b c1 21 3d f9 c8 39 bd 9e eb 50 3d
       -0.030773563 0.03949092 -0.045357678 0.051005952
000170 1a ba 3b 3c 67 25 99 bc 41 b5 99 3b 57 f3 03 3d
       0.011457944 -0.018694593 0.0046907966 0.03221449
000180 83 42 60 bc 9b ce 92 ba f2 fe c3 bb 36 bd 28 3d
       -0.013687733 -0.0011200489 -0.0059813196 0.04119607
000190 98 fb 20 3d af f9 cb 3c 48 43 47 3d 1e e0 15 3c
       0.03930244 0.024899332 0.04864815 0.009147672
0001a0 4e ef 41 3c f0 d3 86 3d d6 e3 22 3d 5f 03 d0 3c
       0.01183684 0.065833926 0.039768063 0.025392232
0001b0 d4 ac 5f 3d ff a7 7f 3d 65 f2 9a bc e2 c5 25 3c
       0.05460818 0.062416073 -0.01891441 0.01011798
0001c0 f2 f9 b0 3d e5 ca 81 bd e9 0c 1d 3d cc 08 e8 3c
       0.08641423 -0.06337527 0.03834239 0.028324507
0001d0 f7 2c f1 bc d9 c2 2e 3d b5 f1 4f 3d 4c 6f 58 bc
       -0.029440386 0.04266629 0.05076762 -0.013210129
0001e0 af 91 68 3c d8 10 a0 bb 43 72 57 3d 3f 65 31 3d
       0.01419489 -0.0048848204 0.052599203 0.043309446
0001f0 d1 d8 5c 3d c6 11 cb 3c c4 02 8c bc 33 4c 6e bb
       0.05391771 0.024788748 -0.017091163 -0.0036361336
000200 4d bc 06 bd b4 4d 6b 3d e1 e6 8a 3c d6 fd 71 3d
       -0.03289442 0.05744715 0.016955795 0.059079967
000210 af 5e d4 39 b7 49 99 3d d5 93 68 3c 98 0b a1 3c
       0.00040506336 0.07484763 0.014195402 0.019658849
000220 34 86 02 bb 26 3e 12 3c ab b8 2b bc 18 19 b3 bc
       -0.0019916417 0.00892595 -0.01048104 -0.021862552
000230 6e 39 d8 bd 66 1e bf bc 4c 02 6a bd a4 4f 2f 3d
       -0.10557829 -0.023329925 -0.057131097 0.04280056
000240 6a 5d ad bc 23 3f 7d bd 64 90 d1 bb 7d d5 17 bd
       -0.021162707 -0.06182779 -0.0063953865 -0.037068833
000250 e4 b1 65 3c 5a c9 e5 3d ec 75 08 3d eb 59 b2 bd
       0.014019463 0.112200454 0.033315584 -0.08708557
000260 36 03 f2 3d 38 0b 3b 3d 10 d2 9b bc c9 dc b2 bb
       0.11817019 0.045664996 -0.019021064 -0.0054584485
000270 b5 24 01 3d c4 84 5c bd 45 38 74 3c 2f 47 bc 3c
       0.031529147 -0.053837553 0.014905994 0.022983162
000280 aa 96 b5 bc 15 6e 07 bd 59 54 bd bb 74 0d a4 bc
       -0.022166569 -0.033063967 -0.0057778773 -0.020025946
000290 49 ff 25 be d0 d9 26 bd b2 b8 34 39 8a 83 b7 3c
       -0.16210665 -0.040735066 0.00017234942 0.02240159
0002a0 e2 34 ea bc b1 99 25 bd 83 bc ba 3d 50 7e 81 3d
       -0.02858967 -0.040429775 0.09117987 0.0632292
0002b0 3b 17 fe ba d0 d0 aa 3d b6 a1 81 bc 94 02 c2 bc
       -0.0019385585 0.08340609 -0.01582418 -0.02368287
0002c0 7e bc 16 3d 74 96 5a bd 81 38 4e 3d 40 c5 4b bd
       0.036800854 -0.05336614 0.050346855 -0.04974866
0002d0 31 fd 79 bd f7 f7 a3 bc a5 7d 29 bc 56 90 6c bc
       -0.061032478 -0.0200157 -0.010344897 -0.014438709
0002e0 3a 2b 4b bd a6 5d 8d 3b 01 5b 30 3d ba 3a c4 3a
       -0.04960177 0.0043141423 0.043055538 0.0014971115
0002f0 05 ba aa 3b 87 8b 2a 3d 21 b7 46 3d 8a a8 29 bd
       0.0052101635 0.04163697 0.04851449 -0.041420497
000300 1c 15 cc bd 95 94 a2 bb b0 b1 d4 bc ba 10 c9 3d
       -0.09964964 -0.00496156 -0.025963634 0.098176435
000310 1a bf 84 bc 50 9b 3a bc 19 21 b5 bc 43 4e 2c bc
       -0.016204406 -0.011389568 -0.022110509 -0.010516706
000320 9b b4 c3 3c 62 18 3c bc 3a 4e 35 bc 02 78 d4 3c
       0.02388983 -0.011480423 -0.011066014 0.02593613
000330 f1 e7 a4 bc 8f 70 9c 3c 0a 0b 32 3d 63 a8 87 bc
       -0.02013013 0.01909664 0.04346756 -0.016559785
000340 f0 35 fb bc f8 03 01 bd c7 e3 05 bd bb 1e a6 bc
       -0.030665368 -0.031497926 -0.03268793 -0.020278325
000350 b4 13 f7 bc 91 54 0b bd 0b 1c 02 bd d6 82 ca 3c
       -0.030160762 -0.034016196 -0.031765025 0.02472059
000360 14 3b 00 3c a9 a6 9f bc e7 49 06 3d 50 ab 03 3d
       0.007826585 -0.01948865 0.032785323 0.0321458
000370 6f 6c 2a bd cb a4 cc bc 3b 7f 12 bb eb a6 aa 3c
       -0.041607317 -0.024980923 -0.0022353667 0.020831546
000380 85 99 10 3d 7a c7 18 bd d3 b7 04 bc e4 3c 28 bd
       0.035302658 -0.03729961 -0.008100468 -0.041073695
000390 7e 91 0e bd 84 58 6c bc 90 00 09 3d a9 e2 ac bb
       -0.03480672 -0.014425401 0.033447802 -0.0052760434
0003a0 c9 6e ad 3d 80 8c 19 3c 6d c4 b0 bc 3f 9b 55 3c
       0.08468396 0.009371877 -0.021578038 0.013037502
0003b0 66 d2 b0 3c e4 0a 22 3a 21 c7 37 bd e6 94 a6 bc
       0.0215847 0.00061814324 -0.04486764 -0.020334672
0003c0 1e 18 9f 3d 9e 50 8a bd 96 a0 15 3d 6a af 43 ba
       0.07768272 -0.06753658 0.0365301 -0.00074647984
0003d0 75 ba 85 bd 0e 1a 6b bd ef c3 0b bd 58 7d 2f 3d
       -0.065297045 -0.057397895 -0.034122404 0.042844146
0003e0 21 e2 44 be d4 1e 8e bd 34 44 ce bc c7 e3 8a 3c
       -0.19226886 -0.06939474 -0.025179006 0.016954316
0003f0 70 7b 5b 3d 7a 57 bf 3c cc e4 4b bd 96 8d f3 b9
       0.053584516 0.023357142 -0.049778745 -0.00046454062

fc_actor.bias f4 [20]
000000 0d 7d cd bb 8a 5f 11 3b 42 a7 91 ba 47 e1 f5 3b
       -0.0062710107 0.002218219 -0.0011112469 0.007503662
000010 64 4f c4 bb c7 28 8f bd e5 75 cd 3c 8f 8f 4d 3d
       -0.0059909094 -0.069901995 0.02508063 0.050185736
000020 54 09 8c bb 29 85 7e bc a5 31 ca bc ee 74 35 3d
       -0.004273573 -0.015534678 -0.024681875 0.044300966
000030 1f 08 96 3d 88 8c 9a bb 51 9a 4e bd 66 a1 73 3d
       0.07325768 -0.0047164597 -0.050440136 0.059480093
000040 b3 5e 30 bd 66 78 99 3d ef fd 84 3d ef 73 3f bd
       -0.043059062 0.07493667 0.064937465 -0.046741422

fc_critic.weight f4 [1, 200]
000000 f2 5d a5 3e 77 71 4f 3e 39 c0 ab be 44 33 2c bf
       0.32298237 0.20258127 -0.33545092 -0.67265725
000010 e6 71 87 bf 08 f9 30 3e c4 5b 8b 3e 37 9d 1d bf
       -1.0581634 0.17282498 0.2721845 -0.61568016
000020 f7 e4 a5 bf ec 1e 44 bf 62 0a b5 3d 0e 6e 22 bf
       -1.29605 -0.76609683 0.08839871 -0.6344918
000030 e9 fb ab 3d a8 00 ac 3e 1b 7e 56 bf 1c c3 1f bf
       0.083976574 0.3359425 -0.8378617 -0.6240709
000040 d2 e9 a1 3e 03 d6 80 be 27 11 fa 3d 0e 70 70 bf
       0.31623703 -0.25163278 0.12210303 -0.9392098
000050 68 28 83 3e 3c a2 89 3e e2 e3 6e bf 11 4c 2f bf
       0.25616765 0.26881588 -0.9331647 -0.68475443
000060 5f 7c 69 3e ea bc da be 49 cd 30 bf a4 31 84 3e
       0.2280135 -0.42722255 -0.6906324 0.25819123
000070 44 b0 48 bf 7f f7 98 3e 1f 24 63 3d 04 0b b0 be
       -0.7839396 0.29876325 0.05545437 -0.34383404
000080 08 c5 dd be cf 04 90 bf 10 25 ae be 8d e7 83 bf
       -0.43314385 -1.1251467 -0.3401265 -1.0305039
000090 78 31 d1 be 89 cf 67 3e 17 2c 8e 3e ea 94 8c bf
       -0.40858054 0.22637762 0.27768013 -1.0982945
0000a0 50 89 56 3e e4 68 6a 3c 95 82 50 bf cf 10 1a 3e
       0.20950818 0.014307234 -0.8144925 0.15045474
0000b0 64 3a ab 3d 9e b4 70 3e 7f 21 68 3e 24 32 98 bf
       0.083607465 0.235064 0.22669028 -1.1890302
0000c0 3f 64 fa 3c ab c6 4d 3e 20 ec 72 bf 0f f9 0c 3e
       0.03056538 0.20095317 -0.9489155 0.13766883
0000d0 33 7c 0c be f7 6f 81 bf a1 4f a5 be d7 6e 80 3e
       -0.13719253 -1.0112294 -0.32287315 0.25084564
0000e0 a8 3e 99 bf 6d 62 5c bf 41 8a 5a 3e 49 39 5a bf
       -1.1972246 -0.86087686 0.21341802 -0.8524366
0000f0 22 ad 57 bf c6 13 fe 3d f3 da 13 3e 81 51 5f bf
       -0.84248555 0.12406115 0.14438991 -0.8723374
000100 05 3c 9d bf 43 79 74 3e fd c6 1f be 8e 42 3a be
       -1.2283942 0.23874383 -0.15603252 -0.18189451
000110 4c 99 7b 3e 84 d4 ec 3d a3 1b a2 bf ea 28 da 3d
       0.24570197 0.11563972 -1.2664684 0.10652335
000120 be 8c 9c be 58 14 db 3d 14 31 17 3e 85 5e 88 3e
       -0.30576128 0.1069724 0.14764816 0.26634613
000130 d6 e5 27 3e e1 06 12 3e ef 78 40 3e 0d 7d f6 3d
       0.16396269 0.14260437 0.18796133 0.1203557
000140 89 ae a5 be 3d 60 b4 3e 0c 43 83 3f e8 92 07 bf
       -0.32359722 0.35229674 1.0254836 -0.52958536
000150 c5 84 40 3e 4f 47 63 bf 1d b4 0d 3e 92 df 85 3e
       0.18800648 -0.88780683 0.13838239 0.26147133
000160 7c 10 99 be 83 5a 80 bf 1e d9 86 3e 12 a2 8f bf
       -0.2989539 -1.0027622 0.26337522 -1.1221335
000170 c1 38 44 3e 04 27 13 bf b8 0d a3 3d 66 de 66 bf
       0.19162275 -0.5748141 0.07961601 -0.90183103
000180 83 87 0a 3e 27 e9 63 bf 4f c0 34 bf e1 d1 0a 3e
       0.13528256 -0.8902764 -0.7060594 0.13556625
000190 37 b9 36 bf a8 7c cd be 90 56 aa 3e 66 56 00 3e
       -0.71376365 -0.40134168 0.33269167 0.12532958
0001a0 ec fa 8f be 93 1e 97 bf 81 da 6f bf c3 fd 50 3e
       -0.28121126 -1.1806206 -0.93692786 0.20409302
0001b0 03 99 8b 3e f3 fd b0 3e 52 dc a7 be da 67 09 bf
       0.27265176 0.34568748 -0.3278528 -0.5367409
0001c0 f9 c3 29 bf ef 95 8a 3e 5a 7b 71 be b9 4a b1 3e
       -0.66314656 0.27067515 -0.23582211 0.3462732
0001d0 22 6d 32 bf 2b 32 e6 be 6f 01 92 3e 81 3e 14 3e
       -0.69697773 -0.4496015 0.2851672 0.14476968
0001e0 05 2a ed 3d fc ed cd be ff 8d 82 3e 6a b0 c5 3d
       0.1158028 -0.4022063 0.2549896 0.09652789
0001f0 b0 0d 6a 3e 73 4e c1 be 4c 48 34 bf b5 7a 14 3e
       0.22856784 -0.37755165 -0.70422816 0.14499934
000200 58 7c 79 3f d6 5d 0e bf 21 02 27 3e 3d 19 92 3e
       0.9745536 -0.5561193 0.16309406 0.2853488
000210 7b dc 53 3e 2b 1d dd 3d f4 ad 7a 3e 0f 52 15 bf
       0.20689575 0.10796579 0.2448042 -0.58328336
000220 d3 a9 70 3e b7 05 e7 3d 91 a0 8d 3e c2 6d e6 3d
       0.23502283 0.11280387 0.27661565 0.112514034
000230 3b e9 5f bd 75 96 3f bf 49 d8 98 3e 8f ab 62 bf
       -0.054665785 -0.74838954 0.29852512 -0.8854303
000240 a8 c7 7f 3e 82 01 92 3e 56 f3 8a bf aa 3e 66 3e
       0.24978507 0.28516775 -1.085551 0.22484842
000250 d5 e1 07 3e 85 66 56 bf 70 84 49 3e d5 e3 54 bf
       0.13269742 -0.8375018 0.19679427 -0.83160144
000260 b5 45 9e be 84 c2 a2 be 32 1d f3 bd 2d 2e dc be
       -0.30912557 -0.3178903 -0.11870803 -0.4300398
000270 05 2b 81 bf c5 8d f6 3d 90 5f 92 3e 46 f7 68 bf
       -1.0091254 0.12038759 0.28588533 -0.9100231
000280 25 e3 0f 3e 9e 30 e7 be 0c bc 9e bf f6 fe 4b 3e
       0.14051493 -0.4515428 -1.2401137 0.19921479
000290 32 97 f8 3b 55 84 71 3e ab 9a ec be f9 4a 81 3e
       0.0075863833 0.23585637 -0.46211752 0.25252512
0002a0 63 71 1a 3e 4f 77 83 be 34 3d 50 be c7 0b ed 3d
       0.15082316 -0.25676963 -0.20335847 0.11574512
0002b0 03 50 95 3e 79 a0 ae 3d ff 7b 2e 3e 75 04 b1 3e
       0.29162607 0.085267015 0.17039488 0.34573713
0002c0 d8 33 9f 3e 56 ad 96 3e fb 42 4a 3e 76 13 68 3e
       0.3109424 0.2942912 0.19752114 0.22663674
0002d0 75 ff 50 3e 59 dd 89 3e aa b8 23 3d 46 cf 88 bf
       0.20409949 0.26926687 0.03997103 -1.0688255
0002e0 8c 16 83 3e 74 f7 87 bf 06 6a 6c bf cf 54 87 3e
       0.2560314 -1.0622392 -0.9234928 0.2643189
0002f0 40 e6 95 3e 0f f7 8b 3e 73 8c 3d bf 17 15 50 3e
       0.2927723 0.27336928 -0.74042434 0.20320545
000300 08 83 22 bc c3 d7 3f bf ec 1e 34 bf 0a 56 29 3d
       -0.009918936 -0.749386 -0.70359683 0.04134182
000310 99 0c 36 bf 71 7f 4e bf 74 a0 34 bf ab 7e 07 3e
       -0.7111297 -0.8066321 -0.7055733 0.13231914
