saved_models/ppo.ckpt (torch_old, 57468 bytes, 8 tensors)

std f4 [1, 4]
-0.22985058 0.014400758 -0.30005345 -0.22628532
00000000: f35d 6bbe 28f1 6b3c 9ba0 99be 57b7 67be

fc1.weight f4 [100, 33]
0.28940377 -0.16875331 -0.16987534 0.18191 0.1868143 -0.0067331064 -0.13264109 0.050200067
0.062107943 0.12824857 -0.148043 0.044159975 0.09433435 -0.1592961 -0.10119928 -0.08405923
0.011602827 0.11849734 0.13638744 0.100349784 0.104283445 0.0849103 0.20216624 -0.1803348
-0.21269426 -0.1747482 -0.060649525 -0.16094774 0.05434544 -0.096475594 0.0034181688 -0.051988155
-0.23807439 0.038400095 -0.18953072 0.0152672045 0.09908248 0.24300316 -0.12393667 -0.13320123
0.06311703 0.16812356 -0.022596424 0.009037307 -0.17949176 0.021199156 -0.11870502 -0.20503749
0.16368322 -0.13989884 -0.050811764 -0.03487515 0.07534638 0.1606313 -0.1472795 0.15885006
0.05224098 -0.08019163 0.15751912 -0.11044902 0.017541593 -0.048958182 -0.020383015 0.073485926
-0.0690048 0.25182292 0.04328914 -0.053468462 0.011540784 0.005145304 0.020354409 -0.05788174
0.19772308 -0.16251683 -0.0556562 0.04576521 -0.041846536 0.14034435 0.04281427 -0.12309151
0.20225585 -0.13619328 0.11010078 0.16533501 -0.15425478 0.0856849 0.09330326 0.0708263
-0.012854653 0.12793694 0.02357795 -0.11049738 -0.13147324 0.052501213 0.122392565 -0.1203413
0.14163946 -0.041819006 0.29249012 0.0821426 0.08724337 -0.030398116 0.22193556 0.08011738
0.22904523 0.0995367 0.11168043 -0.022011902 0.036572646 -0.05200438 -0.11400182 0.08675597
0.03612789 -0.04890102 -0.15633112 0.046469465 0.05661242 0.12532839 0.093395725 0.1696192
-0.15352944 0.04077873 0.15675853 0.09180475 -0.12854555 -0.14767177 0.0037939113 -0.13900644
-0.12634116 -0.064152434 -0.07644136 0.11708678 0.008133782 0.07825325 0.07565792 0.003448235
0.07493818 -0.18469548 -0.13215742 -0.07948928 -0.07257458 -0.07531902 0.017015902 -0.0513577
0.054864526 -0.15348293 -0.1973128 0.14721721 0.11034392 -0.11836854 0.16914189 -0.02472424
0.1423826 0.15603988 0.029427528 -0.02204598 -0.15604034 0.07841544 -0.15885857 0.13215135
-0.043529578 0.08857036 0.08350232 0.04851961 0.18877497 -0.026335219 0.15299164 0.08768184
0.11596676 0.10692806 -0.17531927 -0.07495664 0.09472034 -0.049333174 -0.18690325 -0.12148084
-0.09210097 0.04031544 -0.063370846 -0.10558187 0.13281201 -0.00051467406 0.13359766 0.12171393
0.18345304 -0.03276326 0.22379625 -0.20583981 -0.21306494 -0.017510938 -0.16923946 -0.17101544
-0.14683884 0.023067791 0.050919592 -0.16900116 -0.067546286 0.21681793 0.052975405 -0.088967904
-0.045345765 0.01928951 0.18966393 -0.05174765 0.0075784065 -0.017419074 -0.2123868 0.07021801
-0.07155637 -0.01701829 -0.07813057 0.17239164 -0.15262648 0.1904443 0.047130298 -0.053831887
0.10576729 -0.012333807 0.14414452 0.18630646 -0.20042183 0.022937374 -0.09629157 -0.06339419
-0.16384268 -0.1608191 0.03167151 0.04239206 0.14513338 0.0097859055 0.023680814 -0.25216925
-0.09667263 -0.010257876 0.08983098 -0.14823642 -0.052384768 -0.054407652 0.15495446 -0.18151693
-0.083454624 -0.044049438 0.1687794 0.0015162723 0.039722748 0.19710004 -0.03189415 -0.085128345
0.09994854 0.069671705 -0.06006712 0.202186 -0.035899665 -0.19379248 -0.024754727 -0.041110605
00000000: bb2c 943e abcd 2cbe cdf3 2dbe 9d46 3a3e
00000010: 3f4c 3f3e 64a1 dcbb 11d3 07be 969e 4d3d
00000020: e664 7e3d 9853 033e 9698 17be 17e1 343d
00000030: 5e32 c13d 841e 23be 9141 cfbd 3f27 acbd
00000040: c919 3e3c bcae f23d 26a9 0b3e 3084 cd3d
00000050: 8f92 d53d 74e5 ad3d ab04 4f3e b0a9 38be
00000060: 86cc 59be 31f1 32be a36b 78bd 7ccf 24be
00000070: 5399 5e3d ff94 c5bd 5b03 603b 88f1 54bd
00000080: c6c9 73be 6b49 1d3d 5714 42be 4c23 7a3c
00000090: c1eb ca3d d2d5 783e 82d2 fdbd e765 08be
000000a0: 8043 813d 9528 2c3e 231c b9bc 3711 143c
000000b0: b0cc 37be daa9 ad3c 9e1b f3bd 59f5 51be
000000c0: 939c 273e a441 0fbe ff1f 50bd 3fd9 0ebd
000000d0: 344f 9a3d 887c 243e 70d0 16be 97a9 223e
000000e0: a3fa 553d 823b a4bd b14c 213e 1933 e2bd
000000f0: 63b3 8f3c 6088 48bd 48fa a6bc ca7f 963d
00000100: 6352 8dbd efee 803e f44f 313d bf01 5bbd
00000110: 8e15 3d3c f099 a83b 4abe a63c 6715 6dbd
00000120: eb77 4a3e d06a 26be c1f7 63bd 4d74 3b3d
00000130: 4667 2bbd 6eb6 0f3e 045e 2f3d 6717 fcbd
00000140: 281c 4f3e 4076 0bbe 857c e13d 954d 293e
00000150: f7f4 1dbe 917b af3d c815 bf3d 610d 913d
00000160: 539c 52bc e701 033e 8c26 c13c 734c e2bd
00000170: eca0 06be 830b 573d f4a8 fa3d 8075 f6bd
00000180: ef09 113e 684a 2bbd 44c1 953e 613a a83d
00000190: a7ac b23d 7805 f9bc 1343 633e 9514 a43d
000001a0: d58a 6a3e e6d9 cb3d b6b8 e43d 4e52 b4bc
000001b0: 33cd 153d 8b02 55bd c979 e9bd 1dad b13d
000001c0: d7fa 133d 704c 48bd 4415 20be c456 3e3d
000001d0: 6de2 673d 1656 003e 4246 bf3d a8b0 2d3e
000001e0: d236 1dbe 9907 273d 4f85 203e 2104 bc3d
000001f0: 72a1 03be 4537 17be 45a3 783b b457 0ebe
00000200: 945f 01be 5a62 83bd 4a8d 9cbd 32cb ef3d
00000210: 8e43 053c 3d43 a03d 8af2 9a3d c9fb 613b
00000220: 3079 993d d020 3dbe 4654 07be 47cb a2bd
00000230: fba1 94bd dc40 9abd ef64 8b3c 745c 52bd
00000240: a0b9 603d a12a 1dbe 5e0c 4abe 1cc0 163e
00000250: fefb e13d 356b f2bd 8833 2d3e 7d8a cabc
00000260: bfcc 113e ebc8 1f3e 0012 f13c c599 b4bc
00000270: 0ac9 1fbe 4698 a03d d2ab 22be af52 073e
00000280: 124c 32bd 6064 b53d 4403 ab3d 80bc 463d
00000290: 3a4e 413e f5bc d7bc d7a9 1c3e 8992 b33d
000002a0: fb7f ed3d 19fd da3d e586 33be de82 99bd
000002b0: bdfc c13d 9511 4abd 9163 3fbe f2ca f8bd
000002c0: 6f9f bcbd ce21 253d 93c8 81bd 4f3b d8bd
000002d0: dfff 073e 31eb 06ba d3cd 083e 2745 f93d
000002e0: 1ddb 3b3e c532 06bd d82a 653e acc7 52be
000002f0: b22d 5abe 1973 8fbc 1c4d 2dbe ac1e 2fbe
00000300: ec5c 16be aaf8 bc3c 1091 503d a40e 2dbe
00000310: b555 8abd 8505 5e3e bdfc 583d ce34 b6bd
00000320: 7bbc 39bd 0905 9e3c 4337 423e 58f5 53bd
00000330: 4854 f83b 72b2 8ebc ed7b 59be 76ce 8f3d
00000340: 258c 92bd f169 8bbc ec02 a0bd 6f87 303e
00000350: 1e4a 1cbe d503 433e b30b 413d d37e 5cbd
00000360: 859c d83d bc13 4abc 9f9a 133e 1fc7 3e3e
00000370: 613b 4dbe 29e7 bb3c 8434 c5bd d0d4 81bd
00000380: 60c6 27be c3ad 24be fcb9 013d 4ca3 2d3d
00000390: d89d 143e 1055 203c 44fe c13c 541c 81be
000003a0: 4dfc c5bd a610 28bc 4ef9 b73d 4acb 17be
000003b0: 6991 56bd 8fda 5ebd 62ac 1e3e 93df 39be
000003c0: 42ea aabd 2f6d 34bd 82d4 2c3e a8bd c63a
000003d0: 52b4 223d 98d4 493e 71a3 02bd c557 aebd
000003e0: d2b1 cc3d 0ab0 8e3d f108 76bd d909 4f3e
000003f0: 870b 13bd 8971 46be 6dca cabc 9863 28bd

fc1.bias f4 [100]
-0.00010297138 -0.03990764 -0.11855602 0.1155893 0.09849593 -0.1414081 -0.033756774 -0.088264905
0.16475987 -0.05467747 -0.024326928 0.08068263 0.09917034 0.20324057 -0.05153014 0.0004888394
0.16516723 0.011276498 0.0886121 -0.16800264 0.020320687 -0.054609984 0.081622235 0.05695127
-0.1614714 0.082913 0.044022102 0.18849023 -0.10621393 -0.00095527765 -0.009209047 0.12396042
-0.015037043 -0.05102645 -0.0540222 0.28853714 0.14810164 -0.16750823 0.10608129 0.0070040817
0.081765 -0.049507797 0.08998489 0.0035532108 0.29542282 0.13523361 -0.074593894 0.053438444
-0.09793701 -0.095020644 0.14362915 -0.11249519 -0.009911916 0.03367354 -0.06569489 0.21016933
0.17905088 -0.09909006 0.10867449 0.09492094 0.1755439 0.07980999 -0.001290982 0.02852887
0.13555565 0.015525182 0.13483389 0.010906058 -0.027837224 0.1895125 -0.14521076 -0.032688312
0.20565915 0.21163924 0.088690184 -0.020424753 0.119551174 0.1390444 0.12271396 0.034128357
0.07891508 -0.020378266 0.0934883 0.028201494 -0.057866335 0.1614712 0.18788417 0.12215625
0.15631919 0.04599431 -0.092283435 -2.40156e-05 0.22604066 0.17508183 -0.115013875 0.04134949
0.058075577 0.031231938 0.11259417 -0.09450576
00000000: 57f2 d7b8 3276 23bd 80cd f2bd 15ba ec3d
00000010: 3cb8 c93d 49cd 10be 8b44 0abd 3bc4 b4bd
00000020: d0b6 283e 7cf5 5fbd 4449 c7bc ef3c a53d
00000030: d219 cb3d 4c1e 503e 4511 53bd 7525 003a
00000040: 9921 293e 10c1 383c 437a b53d e208 2cbe
00000050: 9277 a63c b8ae 5fbd 8f29 a73d bc45 693d
00000060: c258 25be 4ace a93d 8550 343d 9503 413e
00000070: b086 d9bd 996b 7aba 8be1 16bc f6de fd3d
00000080: ee5d 76bc 1c01 51bd 6246 5dbd 24bb 933e
00000090: f5a7 173e 4787 2bbe 2641 d93d 7f82 e53b
000000a0: 6974 a73d b0c8 4abd ff49 b83d fcdc 683b
000000b0: a941 973e ae7a 0a3e afc4 98bd 45e2 5a3d
000000c0: 3393 c8bd 2f9a c2bd 8513 133e e163 e6bd
000000d0: 9765 22bc 44ed 093d 0b8b 86bd a136 573e
000000e0: 1d59 373e bbef cabd bb90 de3d e965 c23d
000000f0: c8c1 333e 6c73 a33d 2b36 a9ba 60b5 e93c
00000100: 1acf 0a3e 555d 7e3c e511 0a3e 53af 323c
00000110: e40a e4bc 910f 423e 21b2 14be 2ee4 05bd
00000120: 5098 523e f5b7 583e 33a3 b53d d051 a7bc
00000130: 3fd7 f43d a861 0e3e 7551 fb3d 2dca 0b3d
00000140: 3b9e a13d 52f0 a6bc cb76 bf3d d206 e73c
00000150: 4005 6dbd b558 253e b564 403e 0e2d fa3d
00000160: 2312 203e 8864 3c3d 19ff bcbd 1c75 c9b7
00000170: 3477 673e a748 333e 658c ebbd 155e 293d
00000180: a8e0 6d3d 1fda ff3c c697 e63d 3c8c c1bd

fc2.weight f4 [100, 100]
-0.023464251 -0.00771785 0.04550321 0.07684355 0.024700275 0.11245918 0.16054384 -0.04955672
-0.046643216 -0.034870133 0.07120051 0.071030945 -0.06505722 -0.014699511 -0.020833932 0.083068594
-0.0582616 0.065466166 -0.016597634 -0.019839661 0.03571065 0.093467325 0.026209658 -0.09774755
0.036425278 0.0185451 0.072808556 -0.021456446 0.102894515 0.014099549 0.01586727 0.107564166
0.002398874 -0.011282255 -0.032969974 -0.07814695 0.08427638 0.032495838 -0.11748027 -0.036455348
0.09584918 -0.06662329 0.07346896 0.012342915 -0.075223856 0.038986187 0.010446153 0.0597399
0.03458313 -0.030845858 -0.049515676 0.076323576 -0.03106811 0.06700989 -0.0113084745 -0.00038675865
-0.071812764 0.019738503 -0.04955958 -0.047746383 0.1588102 0.084409356 -0.0062553664 -0.042237468
0.05675761 0.0011261884 -0.04541179 -0.14792779 -0.03717754 0.087398 0.091780394 0.054361124
0.02022972 0.07856196 -0.074663065 0.023961669 -0.011442223 0.09191668 -0.081068985 0.119749844
-0.057582196 0.12295086 -0.04850272 -0.08833895 0.04770674 -0.03662185 0.016809994 -0.07123978
0.005881225 0.06453023 0.038229533 -0.14120936 0.004600942 -0.016493691 -0.029801454 -0.014714845
0.09462008 0.060971603 0.05087929 0.021309229 0.09421816 -0.13176715 0.07485658 -0.013934685
0.04377051 0.011125609 0.034975406 -0.012399222 0.04390102 -0.26940948 0.12161241 -0.059252992
0.08570335 0.10708126 0.00736184 -0.063934945 -0.08457519 -0.13809223 -0.0389051 -0.17785683
-0.0039512473 0.10193274 0.035515767 -0.077581175 0.08494811 -0.10452021 0.0953039 -0.15252168
-0.02115486 -0.079618715 0.043502565 0.020809336 0.1342724 0.008254967 0.02895143 0.028018782
-0.055346906 0.06407908 -0.10620437 0.033067312 0.06574213 -0.038461365 -0.05996617 -0.091639414
0.04024831 0.054195534 -0.019879581 -0.10302667 0.0386041 0.019566922 0.04504698 0.05791494
-0.042727467 -0.035592012 0.04843872 0.030505259 0.11384191 -0.024422504 0.09159954 0.034387648
0.09631753 0.057307903 -0.08029139 -0.013453182 0.05415156 -0.104375936 -0.03348104 -0.06653908
0.11339884 0.017303558 -0.012586318 0.06249594 0.05876655 -0.059202876 0.09248138 -0.07459327
-0.11336008 -0.027731624 -0.06839061 0.05725263 0.13471682 0.08029048 0.032406088 0.11979091
0.1415861 -0.11564361 -0.057047408 -0.14432946 -0.011564434 0.05171896 -0.16811614 -0.242383
0.071240574 -0.0788097 0.09489948 -0.007187102 0.08252965 -0.09383672 -0.03497647 0.06091398
-0.02817746 -0.011541059 -0.10466561 -0.090965904 0.03409488 0.0143571505 0.04139794 0.058339152
0.034715828 -0.034909002 -0.052413907 0.031130781 0.0027003067 -0.043332156 -0.16118874 0.082385205
-0.035122458 -0.11099933 -0.020201331 -0.011737765 -0.0066908635 -0.021329522 -0.07854842 0.09043977
-0.036979295 0.050145213 0.097786546 -0.024619153 0.07742881 -0.021092162 -0.056166165 0.05603655
0.11778598 -0.021287866 -0.051130407 -0.079961166 0.07985463 0.010783203 -0.093672045 0.08746333
-0.04357049 -0.068153255 0.051643897 0.009516507 0.016626164 0.078410834 0.048007987 0.025239114
0.05524057 -0.074361764 0.18917781 0.05262854 0.078526504 0.02458968 0.0062905275 -0.07588365
00000000: 1a38 c0bc 05e6 fcbb 9361 3a3d 2760 9d3d
00000010: 3b58 ca3c 0051 e63d 9b65 243e fdfb 4abd
00000020: f50c 3fbd fcd3 0ebd 93d1 913d ac78 913d
00000030: b83c 85bd 38d6 70bc ecab aabc de1f aa3d
00000040: b7a3 6ebd 2013 863d c3f7 87bc c986 a2bc
00000050: 5545 123d cc6b bf3d a3b5 d63c de2f c8bd
00000060: ac32 153d e5eb 973c a71c 953d 6ec5 afbc
00000070: 5cba d23d cb01 673c 14fc 813c 9a4a dc3d
00000080: 6d36 1d3b 35d9 38bc 860b 07bd 820b a0bd
00000090: 1899 ac3d 5b1a 053d 7f99 f0bd 3452 15bd
000000a0: 934c c43d cb71 88bd e576 963d f039 4a3c
000000b0: f70e 9abd fbaf 1f3d 5726 2b3c d3b1 743d
000000c0: 0aa7 0d3d 74b0 fcbc f3d0 4abd 894f 9c3d
000000d0: 8d82 febc 7b3c 893d 2e47 39bc dec5 cab9
000000e0: 9212 93bd a4b2 a13c fcfe 4abd b691 43bd
000000f0: 249f 223e d0de ac3d d1f9 ccbb 3201 2dbd
00000100: ab7a 683d 9d9c 933a b701 3abd 627a 17be
00000110: 7a47 18bd b9fd b23d 5cf7 bb3d c5a9 5e3d
00000120: ccb8 a53c 18e5 a03d f3e8 98bd 434b c43c
00000130: 2978 3bbc d03e bc3d 7f07 a6bd 683f f53d
00000140: 4fdb 6bbd a9cd fb3d caaa 46bd 0deb b4bd
00000150: 2568 433d cb00 16bd 1db5 893c 29e6 91bd
00000160: 4bb7 c03b 6d28 843d 9296 1c3d 3099 10be
00000170: 80c3 963b c71d 87bc 2e22 f4bc 8916 71bc
00000180: 2cc8 c13d 5cbd 793d cd66 503d b190 ae3c
00000190: 73f5 c03d f8ed 06be 684e 993d 4e4e 64bc
000001a0: b548 333d 3048 363c 5f42 0f3d 1b26 4bbc
000001b0: 8ed1 333d 0af0 89be ed0f f93d 44b3 72bd
000001c0: 3d85 af3d 6b4d db3d 973b f13b 53f0 82bd
000001d0: c235 adbd 0d68 0dbe f45a 1fbd 1a20 36be
000001e0: 7779 81bb 1dc2 d03d fb78 113d e1e2 9ebd
000001f0: 46f9 ad3d b10e d6bd b12e c33d a52e 1cbe
00000200: f54c adbc 230f a3bd bf2f 323d 5778 aa3c
00000210: b47e 093e d73f 073c 8d2b ed3c a587 e53c
00000220: 70b3 62bd e53b 833d ad81 d9bd 9771 073d
00000230: cfa3 863d aa89 1dbd 169f 75bd 72ad bbbd
00000240: 69db 243d 23fc 5d3d 81da a2bc a6ff d2bd
00000250: 551f 1e3d cf4a a03c 2f83 383d 3738 6d3d
00000260: ff02 2fbd eec8 11bd ae67 463d 2ae6 f93c
00000270: f325 e93d b411 c8bc 8a98 bb3d 10da 0c3d
00000280: 2042 c53d b1bb 6a3d d06f a4bd bc6a 5cbc
00000290: 07ce 5d3d 0dc3 d5bd 6a23 09bd a445 88bd
000002a0: a73d e83d 31c0 8d3c d836 4ebc befb 7f3d
000002b0: 32b5 703d b77e 72bd e166 bd3d 5bc4 98bd
000002c0: 5429 e8bd 6e2d e3bc 6010 8cbd bc81 6a3d
000002d0: 35f3 093e 566f a43d 3fbc 043d f054 f53d
000002e0: f2fb 103e 8fd6 ecbd 8baa 69bd 1acb 13be
000002f0: c078 3dbc 43d7 533d a326 2cbe 4033 78be
00000300: 94e6 913d fb66 a1bd a95a c23d c881 ebbb
00000310: 4e05 a93d 772d c0bd 7d43 0fbd f080 793d
00000320: 6bd4 e6bc b616 3dbc ec5a d6bd 554c babd
00000330: 13a7 0b3d 413a 6b3c e390 293d 09f5 6e3d
00000340: 2f32 0e3d befc 0ebd f7af 56bd fb05 ff3c
00000350: a1f7 303b 0f7d 31bd a90e 25be 93b9 a83d
00000360: 91dc 0fbd 9e53 e3bd 437d a5bc c14f 40bc
00000370: 083f dbbb 40bb aebc fedd a0bd 7c38 b93d
00000380: 9a77 17bd 1165 4d3d 5044 c83d 1bae c9bc
00000390: ff92 9e3d 78c9 acbc 7e0e 66bd 9586 653d
000003a0: c739 f13d e463 aebc 1e6e 51bd aec2 a3bd
000003b0: d38a a33d 08ac 303c 21d7 bfbd f91f b33d
000003c0: f876 32bd ef93 8bbd 8d88 533d 20eb 1b3c
000003d0: 9833 883c dc95 a03d 06a4 443d 42c2 ce3c
000003e0: f043 623d fb4a 98bd d4b7 413e 0691 573d
000003f0: 81d2 a03d 4c70 c93c c520 ce3b e368 9bbd

fc2.bias f4 [100]
-0.081816256 -0.015942192 -0.04717985 0.07299888 0.06775808 -0.06014666 0.021862209 0.13167772
0.039456666 0.07876889 0.052971315 0.0024324604 0.16775891 0.11585548 -0.14228173 -0.019859308
0.12753141 0.041159008 0.055393606 0.06524423 0.13219997 -0.019025689 0.046635717 -0.053692784
0.011251665 -0.07210663 0.13459586 0.008754411 -0.03409722 0.044381533 0.10869539 0.06704805
0.08406207 0.04849591 0.11162929 -0.087053366 0.18188018 0.018469585 0.08540111 0.0608084
-0.0022331725 0.14081806 0.07495862 0.043271903 0.16612034 0.103411525 -0.01679085 -0.00041297832
-0.06398465 -0.037832946 0.13395844 0.14834185 0.020818386 0.0031006993 -0.018156322 0.17012328
-0.050468534 0.012876677 0.010200785 0.12984087 0.019390775 0.10726922 0.0476542 -0.045545854
-0.07213151 -0.023788089 0.14384863 0.07771887 -0.06315295 -0.0066464515 0.05196465 0.16363835
0.13317856 -0.011517974 0.0070595522 0.07474084 0.01994368 0.11240366 -0.010924473 0.0043002246
0.15865625 -0.08676482 0.07874827 -0.14838573 -0.05651452 -0.018772112 0.09286164 0.12349698
0.046640377 0.11257964 -0.08493288 0.02094351 0.13216534 0.18961653 0.067267835 0.09886243
-0.104666956 0.04712175 0.008384564 -0.045580864
00000000: 488f a7bd 3399 82bc a93f 41bd 7080 953d
00000010: c0c4 8a3d 585c 76bd 6018 b33c 86d6 063e
00000020: 509d 213d 9551 a13d 73f8 583d ea69 1f3b
00000030: fec8 2b3e a345 ed3d 4db2 11be fdaf a2bc
00000040: 9897 023e 5996 283d 68e4 623d c49e 853d
00000050: 6e5f 073e c3db 9bbc 1805 3f3d f7ec 5bbd
00000060: e758 383c a4ac 93bd 7fd3 093e a96e 0f3c
00000070: 87a9 0bbd 69c9 353d b09b de3d 7d50 893d
00000080: bc28 ac3d a6a3 463d e69d e43d 0949 b2bd
00000090: cc3e 3a3e 874d 973c c7e6 ae3d 3b12 793d
000000a0: 6b5a 12bb 9c32 103e e883 993d e13d 313d
000000b0: 731b 2a3e 6cc9 d33d f78c 89bc 0385 d8b9
000000c0: 620a 83bd b8f6 1abd 672c 093e ede6 173e
000000d0: 528b aa3c 1a35 4b3b 91bc 94bc cc34 2e3e
000000e0: 18b8 4ebd b3f8 523c 3121 273c 01f5 043e
000000f0: 67d9 9e3c f7af db3d 0d31 433d 4a8e 3abd
00000100: afb9 93bd 3ddf c2bc 0e4d 133e 122b 9f3d
00000110: 5556 81bd 7aca d9bb e3d8 543d d090 273e
00000120: f65f 083e e2b5 3cbc d153 e73b ba11 993d
00000130: ee60 a33c e433 e63d 90fc 32bc e6e8 8c3b
00000140: c976 223e c1b1 b1bd c646 a13d 6ef2 17be
00000150: c57b 67bd f9c7 99bc 3e2e be3d fceb fc3d
00000160: fb09 3f3d 2790 e63d 4af1 adbd b991 ab3c
00000170: 5a56 073e d62a 423e b8c3 893d 6378 ca3d
00000180: a15b d6bd bc02 413d 695f 093c 00b3 3abd

fc_actor.weight f4 [4, 100]
0.08564351 0.04896904 0.15098716 0.05453349 -0.12405739 -0.14199524 0.12217503 -0.10019354
0.0007765239 -0.044708088 0.15599187 -0.065899156 0.17307973 -0.03793387 0.06341008 -0.06685926
-0.045284193 0.070999414 -0.18591653 0.093478635 -0.13108103 0.06499351 0.09394365 -0.19017547
0.10531339 0.041486654 -0.09115581 0.18849504 -0.09935904 0.019887865 -0.014199101 -0.014951425
-0.1424205 0.015036093 -0.06396599 0.055766575 0.07903956 0.124189846 0.06583877 0.061271023
-0.24482505 0.09430309 0.027044049 -0.16934657 -0.050832957 -0.12259119 -0.043391556 0.007336295
-0.081418306 -0.060932025 0.09501884 -0.1841095 0.1659858 -0.10505707 -0.11774629 -0.091847464
-0.09701279 0.14247324 0.14068547 -0.1679514 -0.056822594 -0.11182389 -0.12680455 0.15890595
0.096787974 -0.22790363 -0.11434147 0.08978818 -0.043922488 -0.11876015 0.117929995 0.14395274
-0.053917475 0.13539177 0.17288242 -0.028976543 -0.03216178 0.051711097 0.092664674 -0.09577573
-0.06921103 -0.22173916 0.19053511 0.1343733 -0.12012804 -0.117801555 0.22589642 0.0833136
-0.041095585 0.16916372 0.13611057 -0.060626972 0.08622799 -0.032497585 -0.15808874 0.00984524
0.11717874 -0.041221578 0.13651265 -0.0040600738 -0.19667268 -0.010127957 0.13243902 0.13493213
-0.107152805 -0.079686366 0.22943422 0.1433392 -0.053217895 0.20009679 -0.032227393 0.14515851
-0.053729054 0.011145614 0.05073546 0.13951749 0.19710527 -0.27670112 0.07912883 -0.12038791
0.014766127 0.15470827 0.1159028 -0.13193053 0.10156621 0.10007644 0.21278398 -0.14790846
-0.023391653 -0.2571761 0.042332303 0.13898163 -0.14501901 0.15634373 0.14685676 -0.055465013
-0.109707214 -0.096765496 -0.22048746 0.15170325 0.057997268 0.035954837 -0.17280343 -0.06467885
0.039982244 -0.08661168 -0.093836896 0.15958682 -0.039082043 0.11769937 0.03206817 -0.090451166
-0.10977498 -0.12311161 0.11075159 -0.009671347 0.1863063 -0.026431568 0.07221337 0.06980233
-0.16029832 -0.07505774 -0.017101029 -0.08759247 -0.059940796 -0.073485054 -0.13037565 -0.13944876
0.116671115 0.12640594 0.060081404 0.12396377 0.0077644987 -0.06282816 -0.006738857 0.018657453
-0.13683724 0.14804812 0.17077456 0.10716162 0.027379237 -0.078251645 0.0078708185 0.09894365
0.031833887 -0.11694744 -0.03552396 -0.0901138 0.13405523 0.056904618 0.051765613 0.14651372
-0.07764215 0.11793322 -0.16404521 -0.012343867 -0.1766492 0.04627488 -0.003801943 -0.13381736
0.016485121 0.3410799 -0.15145282 0.11916817 -0.20616667 0.16646689 0.08687711 -0.036137108
0.080772236 0.06772151 0.1740005 -0.19914214 0.09121352 -0.076377876 -0.16298652 0.024701452
0.05854979 -0.17023365 0.17648926 0.07381075 0.09945993 0.15473993 0.100275226 -0.18757348
-0.037368894 0.05823645 0.17792994 -0.10552694 0.1097756 0.03965623 -0.1926611 -0.13381433
0.08798858 -0.17144029 0.30305997 0.24068512 0.027501697 -0.11895939 0.058605023 -0.052902207
-0.08870075 -0.1910021 -0.062845066 0.082703665 -0.012610321 -0.09613592 -0.12429162 0.28776395
-0.18257426 -0.10319867 -0.16997018 0.011292832 0.04577685 -0.095743485 0.18262061 -0.12136958
00000000: dd65 af3d c393 483d 619c 1a3e 825e 5f3d
00000010: cd11 febd 3367 11be e736 fa3d 4532 cdbd
00000020: a38f 4b3a d41f 37bd 55bc 1f3e 23f6 86bd
00000030: d03b 313e 8c60 1bbd 25dd 813d 82ed 88bd
00000040: eb7b 39bd 2468 913d e760 3ebe ba71 bf3d
00000050: 1b3a 06be 511b 853d 8765 c03d 5cbd 42be
00000060: 8cae d73d e9ed 293d e6af babd d804 413e
00000070: c17c cbbd e0eb a23c 59a3 68bc d2f6 74bc
00000080: aed6 11be f259 763c 9a00 83bd 7e6b 643d
00000090: 7edf a13d 3f57 fe3d 7ad6 863d 53f7 7a3d
000000a0: 6bb3 7abe fa21 c13d 7b8b dd3c 3069 2dbe
000000b0: 3836 50bd 1711 fbbd 58bb 31bd 4e65 f03b
000000c0: a4be a6bd dc93 79bd 3d99 c23d 3387 3cbe
000000d0: 2ef8 293e 2928 d7bd f824 f1bd 861a bcbd
000000e0: a4ae c6bd 81e4 113e da0f 103e 74fb 2bbe
000000f0: cfbe 68bd ec03 e5bd 0dd9 01be 3eb8 223e
00000100: c638 c63d 925f 69be dc2b eabd dee2 b73d
00000110: 11e8 33bd 8638 f3bd 4885 f13d 5968 133e
00000120: 92d8 5cbd 24a4 0a3e 1708 313e 3760 edbc
00000130: 12bc 03bd 04cf 533d fac6 bd3d 1126 c4bd
00000140: 83be 8dbd 970f 63be a31b 433e 2899 093e
00000150: b105 f6bd f141 f1bd 6451 673e 52a0 aa3d
00000160: d853 28bd 4139 2d3e 9260 0b3e fd53 78bd
00000170: 4d98 b03d 301c 05bd 04e2 21be ee4d 213c
00000180: 68fb ef3d f5d7 28bd f9c9 0b3e 5e0a 85bb
00000190: 9064 49be bbef 25bc 189e 073e a62b 0a3e
000001a0: ee72 dbbd 9b32 a3bd cef0 6a3e 83c7 123e
000001b0: 02fb 59bd 2ce6 4c3e df00 04bd 6fa4 143e
000001c0: ff12 5cbd 189c 363c fccf 4f3d acdd 0e3e
000001d0: f7d5 493e c5ab 8dbe 4c0e a23d f08d f6bd
000001e0: a0ed 713c d86b 1e3e 725e ed3d cc18 07be
000001f0: f201 d03d e0f4 cc3d 0be4 593e 5175 17be
00000200: da9f bfbc 96ac 83be a364 2d3d 3351 0e3e
00000210: dd7f 14be 9218 203e 9e61 163e 482f 63bd
00000220: 2dae e0bd fd2c c6bd 77c7 61be 1958 1b3e
00000230: 8b8e 6d3d 6145 133d 62f3 30be 5876 84bd
00000240: 6cc4 233d 7761 b1bd 8f2d c0bd ba6a 233e
00000250: 7e14 20bd 5e0c f13d ea59 033d 763e b9bd
00000260: b4d1 e0bd f121 fcbd bbd1 e23d 9274 1ebc
00000270: 14c7 3e3e 0487 d8bc 9ae4 933d 86f4 8e3d
00000280: 3e25 24be dfb7 99bd 7517 8cbc ae63 b3bd
00000290: 7b84 75bd 557f 96bd 3281 05be a8cb 0ebe
000002a0: 44f1 ee3d 8f70 013e eb17 763d b8e0 fd3d
000002b0: 566d fe3b 0dac 80bd a1d1 dcbb 84d7 983c
000002c0: 101f 0cbe ed99 173e 87df 2e3e 8d77 db3d
000002d0: 6c4a e03c 6642 a0bd 9bf4 003c f8a2 ca3d
000002e0: 4064 023d 2482 efbd 9281 11bd 958d b8bd
000002f0: c645 093e d114 693d 2e08 543d b107 163e
00000300: d902 9fbd f986 f13d 78fb 27be ee3d 4abc
00000310: 87e3 34be bb8a 3d3d 052a 79bb 6b07 09be
00000320: ce0b 873c 06a2 ae3e 7316 1bbe 710e f43d
00000330: 5b1d 53be 4c76 2a3e a0ec b13d 8104 14bd
00000340: ea6b a53d 93b1 8a3d 302d 323e ebeb 4bbe
00000350: 27ce ba3d 016c 9cbd f0e5 26be b35a ca3c
00000360: e8d1 6f3d bb51 2ebe 9ab9 343e 172a 973d
00000370: a6b1 cb3d 2574 1e3e 195d cd3d 4313 40be
00000380: 2010 19bd 5889 6e3d 4433 363e 821e d8bd
00000390: 08d2 e03d 926e 223d f448 45be a006 09be
000003a0: 5b33 b43d 0b8e 2fbe ad2a 9b3e 2976 763e
000003b0: 3d4b e13c fba0 f3bd d20b 703d fcaf 58bd
000003c0: bda8 b5bd 0e96 43be eab4 80bd 8a60 a93d
000003d0: 859b 4ebc e9e2 c4bd 9b8c febd cc55 933e
000003e0: bff4 3abe d359 d3bd aa0c 2ebe 9205 393c
000003f0: 8280 3b3d 2915 c4bd e600 3b3e 9d90 f8bd

fc_actor.bias f4 [4]
-0.048570633 -0.034392975 -0.033530794 -0.07681781
00000000: 00f2 46bd a6df 0cbd 9657 09bd a852 9dbd

fc_critic.weight f4 [1, 100]
-0.10678915 -0.03678149 0.028620312 0.062848024 0.056721725 0.014691228 0.021005673 0.108661294
0.05259016 0.011018728 -0.00808017 0.062096685 0.07928799 0.041645337 -0.085579395 -0.07638029
0.05534095 0.014450539 -0.04718533 0.09709062 0.04796715 -0.045462396 0.04671479 -0.021819023
0.06985313 0.005191065 0.017890126 0.037719913 -0.0994878 -0.010098457 0.12611097 0.025257789
0.05276262 0.02621028 0.037975427 -0.051568203 0.109632544 -0.02498138 0.033753138 -0.012960263
0.0065155644 0.070623174 0.05436049 0.01633008 0.16052844 0.056088578 0.037580617 0.0017681225
-0.02588163 0.06377716 0.058292046 0.084911205 0.028062819 -0.07479869 0.037601426 0.081580706
0.032281913 0.07957525 -0.06785471 0.04322008 0.018011164 0.053710826 -0.0027280976 0.0023738951
0.0003275867 0.025712593 0.07250651 0.08178807 -0.016093234 -0.057132542 0.079640605 0.0831504
0.04001861 0.01974594 0.04740263 0.038609494 0.003213276 0.089063704 -0.001203744 -0.03824794
0.13850088 -0.03932384 0.0023017926 -0.09054741 0.04138557 -0.023018023 -0.003227925 0.051898222
-0.00036319 0.03837626 -0.046721626 0.04127983 0.07947904 0.10785084 0.072640084 0.03915903
-0.04326851 0.01571777 0.026102593 -0.05802789
00000000: 45b4 dabd 30a8 16bd 2575 ea3c 77b6 803d
00000010: 0a55 683d 7ab3 703c 1714 ac3c d089 de3d
00000020: c868 573d e587 343c b062 04bc 1859 7e3d
00000030: be61 a23d 4d94 2a3d 4044 afbd 456d 9cbd
00000040: 31ad 623d f4c1 6c3c 6845 41bd 72d7 c63d
00000050: 3479 443d c736 3abd 0258 3f3d cfbd b2bc
00000060: 280f 8f3d cf19 aa3b 508e 923c 3280 1a3d
00000070: 42c0 cbbd 0074 25bc 3c23 013e 6ce9 ce3c
00000080: 9e1d 583d f1b6 d63c 1f8c 1b3d 2e39 53bd
00000090: 0787 e03d c0a5 ccbc bb40 0a3d 4857 54bc
000000a0: 8480 d53b e2a2 903d 1ba9 5e3d a9c6 853c
000000b0: 9161 243e 23bd 653d 22ee 193d 59c0 e73a
000000c0: b605 d4bc 9a9d 823d a4c3 6e3d ede5 ad3d
000000d0: ffe3 e53c 0e30 99bd f403 1a3d c913 a73d
000000e0: 0a3a 043d 59f8 a23d 69f7 8abd 8a07 313d
000000f0: 268c 933c e2ff 5b3d e2c9 32bb 5a93 1b3b
00000100: f1bf ab39 37a3 d23c 4b7e 943d 8180 a73d
00000110: f5d5 83bc d003 6abd 9d1a a33d c24a aa3d
00000120: 8eea 233d 3dc2 a13c 4329 423d fd24 1e3d
00000130: d395 523b 0867 b63d f2c6 9dba dfa9 1cbd
00000140: 2dd3 0d3e 0912 21bd acd9 163b ec70 b9bd
00000150: ea83 293d 4b90 bcbc 988b 53bb 3b93 543d
00000160: 896a beb9 6d30 1d3d 2d5f 3fbd 0a15 293d
00000170: e8c5 a23d e7e0 dc3d 53c4 943d 3865 203d
00000180: 523a 31bd 8ec2 803c 1bd5 d53c a7ae 6dbd
